AI Models/ReinforcementLearning/CarAgentv5.0.onnx (onnx, 333806 bytes, 7 tensors)

action_model._continuous_distribution.log_sigma f4 [1, 3]
00000000: 4c41 46be a17f 0fbf 5717 fdbe
-0.19360846 -0.5605412 -0.4943187

action_model._continuous_distribution.mu.bias f4 [3]
00000000: 521f 383b e42f 0bbc 1008 88bc
0.002809484 -0.008495305 -0.016605407

action_model._continuous_distribution.mu.weight f4 [3, 256]
00000000: b4ab 8b3d 8b4d 74bd fc23 e23b 012d 3d3d
00000010: 5930 c7bd 69d4 283d 5da2 873d 8b6e fcbc
00000020: 0f68 123d 19b0 ccbd 8b96 293d ceb5 6e38
00000030: 05d3 4d3d 7ea0 e3bc 00ca 103d 2352 f6bd
00000040: 6cfe bcbd 0cf1 52bd 0741 1f3d ae0d 413d
00000050: 43ce 833d b3d6 57bd 4e35 8a3d b07a 103d
00000060: 70b8 f33c 885d d8bc d424 873d ef62 5ebd
00000070: fca0 08be b132 9bbc c8df febb d57b a8bd
00000080: 805d 8d3d 9e49 063d 925d 82bc 09a0 073d
00000090: 6dab 3f3d 7380 863c 100f 9c3c febe 703d
000000a0: 5348 30bd fed0 ebbc 32a8 123c 21e2 3d3d
000000b0: 70c1 48bd d4c9 3abd cf84 703c 9548 dbbd
000000c0: b3a6 263d 9f35 8e3d 69e6 4a3d 22c6 ef3c
000000d0: 9066 2639 f5bf 933d 4f80 043c 238b 8f3d
000000e0: 21ef 513d 262d b93c 0ec7 01bd f5d5 11bd
000000f0: 1615 723c faa3 613d ae9d 443d 65ea c9bd
00000100: d0c6 043d 2537 82bd 33cf a43d 5421 a7bd
00000110: c86b 5abc c053 563d 93e4 3a3d 3c89 743c
00000120: bdd7 b93c 07bc 8e3d 43d2 14bd d1c6 a9bc
00000130: 00e3 75bd f078 543d c134 cfbd d044 d6bc
00000140: 3350 7a3d a05c cb3d 1c30 3b3c 8249 953c
00000150: 4f20 323d b6c6 493d 20c1 6d3d 25fc 54bd
00000160: 75f4 3a3d 234f 83bd 97da fd3c 4c9d 933d
00000170: 4254 213c ae39 80bd 287d 603b 25bc 64bc
00000180: 0b9d 113d 3ecb d4bd 6381 453d b914 6a3d
00000190: eb47 39bc 98f5 20bc fb17 8b3c f108 bfbc
000001a0: 1e16 213d 4dd2 db3a 24a8 babd 144b f43c
000001b0: 71ef 303d 3a8a c5bc fbd2 0c3d 3e24 7d3d
000001c0: 9c56 1c3d edf2 c13c e07d a9bd 6dfb d7bd
000001d0: a2c5 0cbe acd5 583d bbe6 193d 0ec7 7c3c
000001e0: 974c 8d3d 8ff9 93bd 3f12 abbc b833 773d
000001f0: 5cd5 00bd 6b27 093d a2dc 5b3d 43b6 453d
00000200: 354f 66bc 89b7 853c 91d2 263d 97ca f5bc
00000210: efb8 013d 8ce6 803c aea0 ba3d 2383 283d
00000220: 68f7 90bd 9278 8a3d d617 bf3c 73bd a93d
00000230: 1d76 233d a5ad 58bd fa28 813d 1071 8e3d
00000240: a6a6 8d3c a5c1 893c 8c8f 593d 7486 80bc
00000250: 7071 0fbd 548d 583d a2fb bcbc cf87 dabd
00000260: 14ea 93bd 1b40 93bd 29c0 23bd 5e3e 463d
00000270: 04c2 8f3a c9e1 783d a0e8 00bc 061b 9b3d
00000280: db7e 3c3d f2eb 82bb f4e8 933d 72b5 f33c
00000290: e129 443d c5a0 9ebd 2751 953d 6f6b 2dbb
000002a0: 511d e2bb c211 a5bc 40fa 8f3d 3cac 8a3d
000002b0: 4b5e 65bc b4f3 7dbd 3a69 03be 14bb 7abd
000002c0: f8d0 39bd 4a4e 9f3c 1279 683d 4269 9dbd
000002d0: 3bbc 20bd 56b6 e1bd d8de 58bd 4ef6 903d
000002e0: ac1d ffbb af61 803d bc3e 08bd 7a3a a13d
000002f0: 28d6 543c 3a32 d53c 0456 2a3d ff09 03be
00000300: 2682 40bd d6dc cebd fd3e 943d 1f4a 1a3d
00000310: 2e64 72bc f239 d83c 1514 e6ba 2e01 83bd
00000320: d13c 25bd 89b3 a2bd aae1 8a3d b152 b43b
00000330: 763d 2d3d 49d1 583d 4fe1 abbc f53c 2dbd
00000340: ceb3 a63c cf75 42bd 2d6d 313d 5ace a23d
00000350: e5da 10bd 0653 32bd 0c97 c0bd 5b84 0dbb
00000360: faf5 b03c a41e d9bb c7a7 253d 8588 a23b
00000370: 72e3 4fbd 6092 81bd 927a 243d 5195 3fbd
00000380: 1d04 8f3c 99b4 243d 2dc8 343d 0888 4ebd
00000390: 1a82 933c e6c6 893d dfdf bebc 9d89 743d
000003a0: dce9 5fbd bd6f 56bd c2ed 9a3d 625e e6bd
000003b0: 517f 103d b4b9 f23c 044e aabd 486c 5a3d
000003c0: 816a 713d 4a0b a63d 0004 6abd 776e af3d
000003d0: e7ea c73c f037 9cbd aedc 49bd a0a1 513c
000003e0: 47ac 953d 6f56 a7bd 1cdc e63c 8f21 c2bc
000003f0: 0a8d 60bd a8ba 5d3d ccf4 233c 2389 d23c
0.06819859 -0.059644263 0.0069012623 0.046185497 -0.097260185 0.041218195 0.06622765 -0.03081443
0.03574377 -0.099945255 0.041403335 5.691294e-05 0.050250072 -0.02778649 0.035348892 -0.12027385
-0.092282146 -0.05149941 0.038880374 0.047132187 0.06435826 -0.052694988 0.06748448 0.035273254
0.029751033 -0.026411787 0.06598821 -0.05429357 -0.1334266 -0.01894507 -0.0077781416 -0.08226744
0.06902599 0.03278505 -0.015913758 0.033111606 0.046794344 0.016418671 0.019050151 0.058775894
-0.043037724 -0.028786179 0.008951234 0.04635823 -0.0490126 -0.045602635 0.014680102 -0.10707203
0.04068632 0.06943821 0.049536142 0.029269282 0.00015869201 0.07214347 0.008087232 0.0700896
0.05125344 0.022604536 -0.031683974 -0.035604436 0.014775535 0.05508802 0.048001938 -0.0985916
0.032416165 -0.06358174 0.080473326 -0.08160654 -0.013331361 0.052325964 0.04562814 0.014925297
0.02268588 0.06969457 -0.036333334 -0.020724686 -0.060030937 0.051873147 -0.10117484 -0.02615586
0.06111164 0.09929776 0.011425044 0.018223528 0.043487843 0.04926177 0.058045506 -0.051998276
0.04564329 -0.064115785 0.03098802 0.072077364 0.009846749 -0.062610015 0.0034254286 -0.013960873
0.03555016 -0.10390328 0.048219096 0.05714867 -0.0113086505 -0.009824179 0.016979208 -0.023319693
0.039327733 0.0016771049 -0.091141015 0.029820956 0.0431971 -0.024113763 0.034380894 0.06180214
0.038168535 0.023675406 -0.08275962 -0.105460025 -0.13747266 0.05293815 0.037573557 0.015428318
0.06899374 -0.07225334 -0.020882724 0.060352057 -0.031453475 0.033484858 0.05367721 0.04826952
-0.01405697 0.016322868 0.040728156 -0.030003829 0.031670507 0.015734933 0.091126785 0.041140687
-0.07078439 0.06761278 0.023326796 0.08288088 0.039907563 -0.052899975 0.06306644 0.06955159
0.017291378 0.01681597 0.053115413 -0.015689112 -0.03502029 0.052869156 -0.023069207 -0.10670435
-0.07222381 -0.071899615 -0.03997818 0.04839932 0.0010967855 0.0607622 -0.007867962 0.07573514
0.046019416 -0.003995412 0.07222167 0.029749606 0.0478915 -0.07745508 0.07290869 -0.002646174
-0.0069004674 -0.02015007 0.07030153 0.06771132 -0.013999532 -0.06199999 -0.1283311 -0.061213568
-0.045365304 0.01944651 0.056756087 -0.07686092 -0.03924201 -0.11021106 -0.052946895 0.07078229
-0.0077855196 0.06268632 -0.033262953 0.07872482 0.012990512 0.026024926 0.041585937 -0.12796782
-0.04699912 -0.10100715 0.072385766 0.037668344 -0.0147943925 0.026394818 -0.0017553592 -0.063967094
-0.040341202 -0.079444 0.06781323 0.0055030216 0.04229494 0.052933965 -0.020981459 -0.04229446
0.02034941 -0.047475632 0.04331701 0.07949515 -0.035365004 -0.04353621 -0.0940381 -0.0021593783
0.021601666 -0.006625967 0.040443208 0.004960122 -0.050754018 -0.06326747 0.040155955 -0.04677326
0.017458016 0.040211294 0.044136215 -0.0504227 0.018006373 0.0672739 -0.02330011 0.05970155
-0.054666385 -0.052352656 0.0756488 -0.11248471 0.03527767 0.029629566 -0.083156615 0.05332592
0.05893946 0.08107622 -0.05713272 0.08565991 0.024404002 -0.07627857 -0.049282722 0.012794882
0.0730825 -0.08170783 0.028181128 -0.023697643 -0.054822005 0.054133087 0.010007095 0.025700158

network_body._body_endoder.seq_layers.0.bias f4 [256]
00000000: 95a7 993a 95bc 55bc 5732 adbc 9e36 f13c
00000010: 00f8 583d 45e1 e23c cdd0 e83c e475 41bc
00000020: 2b67 3d3c 8e8b 0dbb 8604 58bc a015 7f3c
00000030: 90d4 c4bc cda6 2c3c 5e35 da3c 59d5 3bbb
00000040: 43d8 c33b 1a4d 293c e38c 993a 99a4 2c3b
00000050: af19 2d3c cab1 0d3d 729c 32bc 4af1 c43a
00000060: 6e08 71bc 2705 51bd 2add 42bc 7609 20bc
00000070: c2b6 a93c 290e 2dbc 951b a2bc 3902 65bc
00000080: ec6f deba 1581 d03c 766d 3bbd acb4 5d3c
00000090: 3413 823c 7672 c33c 20ff 053d 06eb 163d
000000a0: a131 fe3c 5332 d43c 82a7 2dbc 47dd 11bd
000000b0: 6985 62bc c361 d9bc 86b1 6a3c db49 3bbb
000000c0: 4757 8f3d a3da 193d 7620 2f3d 1f8b b13c
000000d0: ec87 5a3c 5eb8 3abc 6c97 a43c 0f8e f23c
000000e0: 8c2d 033d a7f2 493c d419 1abd 1c9b 9e3c
000000f0: 8729 023d 1272 57bc 2a31 9e3c 9cbe 3cbc
00000100: 96e7 dd3c 9f55 94bc 2765 58bc 4783 723c
00000110: 5750 803d 3a44 2cbc df94 21bb 15d2 baba
00000120: 297b 9ebc aa99 a03c e518 75bc c037 1ebd
00000130: 16ca fa3c 0e66 cabc 6da7 17bb 6dfa 1f3c
00000140: 10ac 18bb ed19 3abc 0734 6f3d 15b1 823b
00000150: 5348 513d 1ad6 4c3d b9b3 33bc 9ef5 d2bc
00000160: 3dfc b93c 1a7d 933c 79f3 ee3c def9 513c
00000170: 5443 86bc b775 903b 45fc 4f3c b057 0ebc
00000180: 95c9 0f3d 1c36 4b3d 8fbf 673d a74b 963c
00000190: 8427 3a3c dc1d e83b 9f98 273b 14ef ec3c
000001a0: 1284 553d 0f9e 49bc 0b2e 32ba de8e cebc
000001b0: 4978 f9bc 51b5 f2bc 2411 c7bb fd0c 463d
000001c0: b11c 4e3c e776 21bd b31b 203d b13d c43c
000001d0: a2e0 693d f0b1 8e3d 4f5f 1e3d 8adc acb9
000001e0: 6448 a43c 78bf 643d 2183 1abc 7806 9c3b
000001f0: 041d bbbb 2362 423d e5d7 833c a6e6 523c
00000200: 6a4e b73c f03a 0b3d b17a 583c 4328 e93c
00000210: f13b 34bb 2b81 12bc 272b d03c ee1a 94bb
00000220: d78e 8a3d 9202 65ba c745 a3bc c2f2 3f3d
00000230: a179 8b3c ece8 2e3d 85f9 f43b d6c7 bd3c
00000240: 40dd 233d 61f1 28bb 6eac a13b c570 b83b
00000250: 847e acbc c284 a23c 1d74 1b3c 7b8a 93bb
00000260: e734 373d a541 f7ba d464 543c 23b7 a0bc
00000270: aefd 403d 161a ca3c 8329 4f3d 094c 7c3c
00000280: 3b41 023c fa96 ffbb f930 c43c 5036 013c
00000290: 09bf 593d a7a4 523d 1d07 923c ff3b 293d
000002a0: 2a14 863c 8e01 873c d4f0 8abb 4c48 253d
000002b0: b72a 833d ac98 b0bc 2e01 1f3c 0d92 873d
000002c0: e90e 53bb 39d1 c73c 95df bf39 b0eb 6c3c
000002d0: 914e cdbc 0a2a 49bb 0291 233d 40e1 80bc
000002e0: 8acb 4739 9610 a3ba 9378 a23b a360 0c3d
000002f0: 8e3f d73c b070 353c d3a2 1e3c 48d4 d43c
00000300: 81e0 1cbc 97bd 613c 7acb 0d3d 9b6e c0bc
00000310: 8247 cf3c 3789 273d ef65 4dbd 62b4 fcbc
00000320: ff1e 4a3d 62bc 423d 9905 4c3b 8af5 ba3c
00000330: d171 1f3c d17b 953c c0b5 9a3c 4459 003d
00000340: 6a7a df3c 2872 ed3b ed62 bb3b ba9d 4c3c
00000350: e0be 1e3d 7f93 fdbb 31d2 403d 78cc b7bc
00000360: 10d2 95bc ab4c d539 3945 a33c 1be8 ea3b
00000370: 73a5 e5bc 37dc 99bc cd20 433d e5eb 2c3c
00000380: 9318 6bbc c0a5 21bc e5a9 023d 1a22 473d
00000390: 1b39 dabb 9f87 bf3c 7bfc 213c 349b 743c
000003a0: b380 f63c 04cb d83c 8d82 29bd 3cee 2d3d
000003b0: c6e7 9d3c 518b 363c 0e90 213c 07b5 693d
000003c0: 9aea 0bbc 3cc7 303c 32e2 6a3d c9a4 7f3c
000003d0: b2e3 9dbc 77ce c43c 33ba d93c a585 523c
000003e0: c970 5fbc 1467 9d3a f396 bebc 487d 7abb
000003f0: 552e b03b ead8 a73c 9b6b bfbb f23c 5a3b
0.0011722917 -0.01304545 -0.021142168 0.029444989 0.052970886 0.027695308 0.028419876 -0.0118078925
0.011560242 -0.0021598074 -0.013184672 0.015569121 -0.024027139 0.010537815 0.026636776 -0.00286611
0.005976708 0.010333324 0.0011714961 0.0026343225 0.0105652055 0.03459338 -0.010901557 0.0015025523
-0.014711482 -0.051030304 -0.01189355 -0.009767881 0.020717029 -0.010562458 -0.019788543 -0.013977581
-0.0016970611 0.025452176 -0.045758687 0.013531845 0.015878297 0.02385829 0.03271401 0.03684523
0.031029524 0.025902903 -0.010599019 -0.035611417 -0.013825753 -0.026535874 0.014324551 -0.0028577957
0.06999069 0.037562024 0.042755567 0.021672783 0.01333807 -0.011396496 0.020091735 0.029608754
0.03202586 0.012325919 -0.037622288 0.019361071 0.031777885 -0.013149755 0.019310553 -0.011520054
0.027087968 -0.018107234 -0.01320771 0.014801807 0.062653236 -0.010514313 -0.0024655384 -0.0014253283
-0.019345837 0.019604523 -0.014959549 -0.038627386 0.03061394 -0.024706867 -0.0023140565 0.009764296
-0.0023295917 -0.01135872 0.058399227 0.003988395 0.051094364 0.05000887 -0.010968142 -0.025751885
0.022703284 0.018003989 0.029168831 0.012815921 -0.016389526 0.004408564 0.012694423 -0.0086878985
0.035104353 0.04961215 0.05657917 0.01834662 0.01136196 0.0070836376 0.0025573147 0.028922595
0.052127905 -0.0123057505 -0.0006797022 -0.025214609 -0.030452864 -0.029627474 -0.0060750414 0.04835223
0.012580083 -0.039420035 0.039088916 0.023955198 0.057098992 0.06967533 0.038665112 -0.0003297071
0.02005405 0.05584666 -0.009430678 0.0047615133 -0.005710246 0.04745687 0.016094157 0.012872374
0.022376258 0.033991754 0.013212846 0.028461581 -0.0027501548 -0.008941929 0.025411202 -0.004519812
0.06765526 -0.000873604 -0.019930733 0.04686237 0.01702577 0.0427026 0.007476034 0.023166578
0.040005922 -0.0025778639 0.0049338853 0.0056286776 -0.021056421 0.019838694 0.009488133 -0.004502592
0.044728186 -0.0018864168 0.012963492 -0.019618576 0.047116928 0.024670642 0.050576698 0.015398988
0.0079501225 -0.00779998 0.023949133 0.007886484 0.0531607 0.051426556 0.017825658 0.041316982
0.016367037 0.016480234 -0.0042401347 0.04035215 0.064046316 -0.021557175 0.009704871 0.06619654
-0.0032204932 0.024391757 0.0003659694 0.014460489 -0.025061877 -0.0030695223 0.039933212 -0.015732408
0.00019053943 -0.0012440856 0.004958221 0.034271847 0.026275422 0.01107423 0.009682375 0.02598013
-0.00957501 0.013778112 0.03461788 -0.02349024 0.025302652 0.040902343 -0.05014604 -0.030847732
0.049345966 0.047542937 0.0031131266 0.02282216 0.009731726 0.018247517 0.018885493 0.03133513
0.027280051 0.0072462745 0.00571858 0.012488777 0.03875625 -0.00773853 0.047075454 -0.022436365
-0.018288642 0.00040683648 0.019930469 0.0071687824 -0.028032994 -0.018781764 0.047638703 0.0105542885
-0.014349121 -0.009866178 0.031900305 0.048616506 -0.0066596395 0.023380099 0.009886856 0.014929581
0.030090665 0.026463993 -0.04138427 0.042463526 0.019275557 0.011141614 0.0098610055 0.057057407
-0.00853982 0.010789689 0.057344623 0.015603253 -0.019273613 0.024024231 0.026578045 0.012849246
-0.01363773 0.0012008869 -0.023265338 -0.0038221646 0.005376617 0.020489175 -0.005841685 0.0033300486

network_body._body_endoder.seq_layers.0.weight f4 [256, 63]
00000000: c178 753e e977 10be f599 9c3e 3836 093e
00000010: db07 a5bb 5a5d c93d a8ca 4e3e 2daa 8ebd
00000020: 0817 3d3d c98d f43c 3a33 0b3c 3115 02be
00000030: 575f 873d baf0 b33c e732 adbd f2d9 c1bd
00000040: bee8 82be ad32 53bd 08f8 75be 984d 883e
00000050: f291 f43d a5c6 09bc 504e 9f3d f86b 78bd
00000060: 722b 933c 97de 70bd 79e9 adbb b766 f93d
00000070: a170 63be 4ccc 9c3e 10eb 313e cac7 0f3c
00000080: c6ad 9ebe a3d7 cb3e 7125 b23d 9951 e9bd
00000090: 2c0a 3c3e 909b 4cbe 5bc6 3bbe e0dc 213e
000000a0: 7325 8f3c 1b6e 23be 2658 31bc ef4d 503e
000000b0: f021 62bd b218 c2bd 38e7 83bc f12c dabd
000000c0: 82c9 1fbe 3e15 463e c679 84bd 24b3 57bc
000000d0: 807e 2a3e 80fc 3f3d 936f 0dbe 6d43 84bd
000000e0: 238a a3bd d529 f4bc 241a 463d cb0c 1c3e
000000f0: 99c8 b53d ba1c dd3d 4d43 37be 720a d33d
00000100: 1100 793b 804d 2cbe 665a e13d 480b 3abe
00000110: f484 b4bd d4fb bebd afce 99be 85dd 14be
00000120: 55ce 5abe fec7 9d3d 5a44 f73e c382 05be
00000130: 0da0 863c ee61 8dbe a3fc b53d 3c46 033d
00000140: bf49 393c 7c8b 26be d2cf f73d 970c 58bc
00000150: 8fb7 e0bd bcd0 843d 21d5 23be dd7a a5be
00000160: 3759 0d3e 2002 3cbe 74e1 de3d c478 9fbc
00000170: 6842 113e f09a 823e d876 a93d 87d0 27bc
00000180: 23ea 0739 3cbb 943d ed0a e13b 3833 45bd
00000190: 1875 a93d 8782 3fbe dbc7 b2bd 3806 d53e
000001a0: 02f2 733d 2d57 e13d 3299 a83d 303d dd3c
000001b0: e1fa eebc 5836 843d 65b9 eebc 31b4 a43d
000001c0: c904 47bd f0e7 ae3d 5d57 153e 0468 243d
000001d0: 63d0 683e 0ea5 dbbd 28a0 32bd 0a3e 66bd
000001e0: a6e2 e43c 3fdd edbc 84d9 16bd f11b 8e3e
000001f0: 81d1 d539 9145 8cbd 6dd8 6a3e 7f48 e4bd
00000200: d516 83bb 2cb7 95be bc21 8dbe b998 29be
00000210: 7402 b4bc 9073 4ebc 717f 953b e390 18be
00000220: eaa1 26bd b408 ffbd 9720 42be dc35 503d
00000230: 2daa d33c 91a6 49bd 1d8a b53d f945 b73d
00000240: 89f8 ad3e d519 ccbd 9d92 523d 99df 44bd
00000250: d158 863d 60c6 4abe 3072 0bbe 1bc4 073c
00000260: 44c9 23be 147f 7c3d 7ad1 873e 7eba 7ebd
00000270: e7f0 5d3d b7c2 6dbd 912f 7e3d 5d44 e4bc
00000280: cc12 d03c 36fd 953e d90a f03d 0e9f f73b
00000290: 47d5 623e 7403 293d d5ce 07bd 3688 d5bd
000002a0: f00c 22be 2935 0ebe 0ead 8a3d 3409 613e
000002b0: 51d8 2bbe 76e1 76be 4a36 bcbd 00bf e3bd
000002c0: d2d0 0c3d b340 c43c c5ab 74bd 155c dbbd
000002d0: e766 dcbd 406d ffbc 3766 84bc 5a7c 0b3d
000002e0: 9921 0a3d d53d 2d3e 1305 383e 9913 30bd
000002f0: 4ff7 2ebe 1bfa 073e 5938 ebbd e61c 2b3e
00000300: 7789 6bbd 6016 983e 03fa 853e 83be 1c3d
00000310: 4ac8 4a3e e283 6bbd 3843 d83d 1925 bbbd
00000320: da64 2ebe 7353 d1bc 9e22 a7be dbf4 eebd
00000330: a2c3 1fbd a696 01be 93c1 8f3c cae1 7abc
00000340: 6f97 c5bd dea7 c4bd ffa9 89be 4752 e8bb
00000350: bf3b 7cbe 6620 50bc 7756 753e 9b7f debd
00000360: 8a91 44bc 813e 883e ed15 f53c 08d6 813c
00000370: 95f6 1d3d 58a6 5dbe 4152 8c3d 91ba 243d
00000380: 25ee 8b3e 1099 483e 446a 053d 1eff 58be
00000390: 5235 a63d 1490 47bd 7e2d 3d3d 49ac 84bd
000003a0: e8a9 78be c336 743d 4fcf 9cbd 8c40 d7bd
000003b0: f346 203e adc8 8fbc 1f8b 12be 37d6 43bd
000003c0: d6fc f7bc a806 533d 533c acbc e962 053e
000003d0: 0486 b03c 43ad 913c e170 573e dc20 3bbe
000003e0: 5b42 cebd 11ae e03d 6299 19be f36a b8bd
000003f0: 7a37 033e 559d 523e f7ab ce3d b10c 8abd
0.23971845 -0.14108242 0.3058621 0.13399589 -0.005036337 0.098322585 0.20194495 -0.06966052
0.046164542 0.029852765 0.0084961 -0.12703396 0.066099815 0.021965373 -0.084569745 -0.09465398
-0.25568193 -0.051562 -0.24020398 0.266217 0.11941899 -0.008409177 0.07778609 -0.060649842
0.017965052 -0.05880603 -0.005307373 0.121777944 -0.22210933 0.30624616 0.17374825 0.008775661
-0.30991954 0.39812955 0.08698548 -0.11392517 0.18363255 -0.19981217 -0.18337385 0.15806913
0.017473912 -0.1595997 -0.010824239 0.2034223 -0.055208147 -0.094773665 -0.016101465 -0.10653103
-0.15604213 0.19344041 -0.06468539 -0.013165269 0.16649818 0.046871662 -0.13812093 -0.06458173
-0.07985332 -0.029805103 0.048364773 0.15239255 0.088761516 0.10796495 -0.17896767 0.10304727
0.0037994424 -0.16826439 0.1100357 -0.18168366 -0.08814421 -0.09325376 -0.300405 -0.14537628
-0.21367772 0.07704161 0.48294336 -0.13038163 0.01643374 -0.27613777 0.08886077 0.032049403
0.011309086 -0.16264147 0.121001855 -0.013186595 -0.10972511 0.064851254 -0.15999271 -0.323203
0.13803564 -0.18360186 0.108828455 -0.019466765 0.14185488 0.25508833 0.08274621 -0.010242588
0.00012961826 0.072622746 0.0068677575 -0.04814455 0.08274287 -0.18702136 -0.08729526 0.41606307
0.05955697 0.110029556 0.08232345 0.027006716 -0.029172363 0.06455678 -0.029141137 0.08042181
-0.048588548 0.08540332 0.14584108 0.04013826 0.22735743 -0.10724841 -0.04360977 -0.05621151
0.027940106 -0.029036162 -0.036828533 0.27755693 0.00040782618 -0.06849206 0.22934122 -0.1114664
-0.0040005245 -0.29241312 -0.275648 -0.16562165 -0.021973826 -0.012600794 0.0045623113 -0.1489902
-0.040681757 -0.12452832 -0.18957745 0.050832614 0.025837982 -0.049231116 0.08864234 0.08948893
0.3397868 -0.099658646 0.051409353 -0.0480648 0.06559909 -0.19802237 -0.13617778 0.008286501
-0.15994745 0.06164463 0.26527005 -0.06218957 0.05418482 -0.058047023 0.06205708 -0.02786463
0.025399588 0.29294747 0.11720819 0.0075568026 0.22151671 0.04126306 -0.033156235 -0.10426371
-0.15825248 -0.13887466 0.06771289 0.21976167 -0.16781737 -0.24109444 -0.09190042 -0.11120415
0.034378834 0.023956632 -0.059734125 -0.10710923 -0.107618146 -0.031180024 -0.016162021 0.034054138
0.033723447 0.16918118 0.17970686 -0.04298744 -0.17086528 0.13279001 -0.11485357 0.16710243
-0.057504144 0.2970457 0.26167306 0.038267624 0.19802967 -0.05749882 0.10559696 -0.09137935
-0.1703066 -0.025552487 -0.32643598 -0.11667796 -0.03900493 -0.12655124 0.017548358 -0.015312621
-0.09648024 -0.096023306 -0.2688751 -0.0070898863 -0.24632166 -0.012703037 0.23958765 -0.108641826
-0.01199759 0.26610187 0.029917682 0.015849128 0.038565237 -0.21645486 0.06851626 0.040216986
0.27330127 0.19589639 0.032572046 -0.2119107 0.08115639 -0.048721388 0.046185963 -0.06478173
-0.24283564 0.059622537 -0.076567285 -0.10510358 0.15652065 -0.017551744 -0.14310883 -0.047811713
-0.030271929 0.05152002 -0.021024859 0.13026012 0.021548279 0.017782813 0.21039154 -0.18274254
-0.1007125 0.109707005 -0.14999917 -0.09004774 0.12814131 0.2056783 0.100913934 -0.06740702

network_body._body_endoder.seq_layers.2.bias f4 [256]
00000000: 0c14 003c 0d61 0e3c 736f e13c 436c 863c
00000010: 8aaf 0a3d 45ba b839 c128 babb 4f6f b03c
00000020: 80d6 a93b e54f db3c f927 6a3a eae8 893c
00000030: 2254 5d3c 792f 023d 3c67 69bc f8b1 9e3c
00000040: 3fa4 9a3c 0d63 cd3b ddd3 553c 53c0 603c
00000050: 9e6e 71bc 80e8 81ba 36e9 a3bb 4990 5c3c
00000060: 2f15 94bb 29f7 863b 278b e13b cf5f b23c
00000070: abf1 053d 1890 da3b 167a 44bc 4fbd 363c
00000080: 0b19 2c3c 6e27 f43b 9912 173c 44b3 a83c
00000090: 6bbb 45bb ef05 d8bc d30e 7b3c af39 973b
000000a0: 3098 683c d5fd a53c 2aac d73b 4d16 f23b
000000b0: 5461 1a3c 5a09 953c 26a9 153c a496 d13c
000000c0: 3a67 a63c bfe9 10ba 49e0 353c fe82 933a
000000d0: 6e8a 073c 6efe 0fbc 674c 643b 2cc4 583c
000000e0: 9b73 663b 1cb0 29ba 1abd 1b3d f12f 553a
000000f0: 1fb9 963b e01a 033c 9e68 813c f0c8 de3c
00000100: ca6b 803c c661 8f3c 81f7 5b3c 6db5 143d
00000110: 644a 343c 2312 823b bd93 973b eec9 fa3b
00000120: e34d d63b a7ac 2139 d1c5 49bb e4fa a43c
00000130: 4e0c 493c 6a2a 073c 6878 153d ca04 7f3b
00000140: edfc 3ebc cec8 863a 83b1 433c d58d 043c
00000150: 9f69 693c 364e d1bb 308b 4c3a 8a75 893d
00000160: 0d26 253c ae94 853d fd51 b63b 718b 233c
00000170: 8bf9 983a 3c46 ca3c ac71 7b3c 7c05 e93c
00000180: 2b41 a13c 37ff 6c3d 7e11 b6bc f9c1 c4ba
00000190: b34f 193c 02b9 613c 1991 6bbc 82a3 88ba
000001a0: 376a c93b d835 a03c fd0b 2b3d 8246 233b
000001b0: 632f 243b aa55 b33c cf6c 393b 0fec 9cbb
000001c0: 95d8 093c 8db4 1e3c db97 f43c 1fc4 853d
000001d0: 3e18 cd3c 01af 95bc a2f3 0a3b 2330 d63b
000001e0: e8eb 073c f724 153d e0eb ea3b 9888 f03b
000001f0: 6936 cc3c a8d6 f2bb 1dfb bcbb 1793 203c
00000200: 1f07 153c 8550 f43a 980e 66ba 2c70 3a3c
00000210: f2ee d53b 156b b73c 8b70 c03b 653d 36bc
00000220: 8aa8 f43c 2e0c dbbb 557d 03bb bcf6 013c
00000230: 50eb 66bc 0f47 a03b db27 c6bb b78a ba3a
00000240: 0ad6 113c e3f2 d53b 73bc b13c f811 b7bc
00000250: 6c76 b13c 9d05 0f3c e995 b03c 4e0f c03c
00000260: 2151 743d 8fa4 b03c bbcb 2d3b 2adb ad3a
00000270: 7b35 383c 5e60 083c 78a4 b4bc 156e f93b
00000280: 1418 003c bf7b c73b 745c 673c 8941 f23c
00000290: fcfd 9f3c 02d7 613d 4058 5d3c a4c0 413d
000002a0: 7657 7b3c 3190 b7bb 0c3b aa3b 6e56 af3b
000002b0: 7a5a 0d3b b8e6 3c3c 5812 533c 923a 593c
000002c0: 40b6 173c 01d4 ba3c b88f c83b 9c0e f23c
000002d0: b5ee 393c c74f 373d 47b0 fb3c 532a bd3b
000002e0: f545 2bbb a21d 4f3c 6ce4 583c 9e8e 453c
000002f0: acd4 bb3b 0066 3c3c bce8 c6ba 2245 023d
00000300: 5d5b 5b3d b424 253d 7530 1e3c 9592 9bbc
00000310: 32aa bd3c 65c9 5f3a 5e5e cd3a 41a2 9d3c
00000320: 60e3 b53a abe9 d73c 5b64 953b 85ff ea3b
00000330: cc7f bf3b 188f d6bb 3c02 bd3c e970 053d
00000340: d57c b93b e5e7 be3c 9245 8ebb c963 103c
00000350: 85d8 c53c 1cab 813a 2827 3d3d 5847 bf3c
00000360: 1f28 efbc 4d61 9d3c 2fee 08bc 6780 9f3b
00000370: 6799 813c 1b4e d43b 1fb5 28bc fc0e 143d
00000380: 357c 1cbb a9c6 a63c 8b57 5d3c ca7e e43b
00000390: a4ec ba3b c329 153c 429c d63c 1420 c53b
000003a0: 7070 ea3c a375 2aba fcb6 8f3b 942c a03c
000003b0: d5f5 1539 c13a f9bc 8f86 413c 4d42 403c
000003c0: f942 493c 9d4d ae3b 4ecc 833c c02f 963b
000003d0: fa9c 173d 73d9 3e3d 697e dc3c 4ba2 dc3a
000003e0: f95a c73b a9cc c63c d168 8c3c 2d58 c53c
000003f0: f56c d53c 8eef 0f3c c615 4f3c 4097 e43c
0.00781728 0.008690131 0.027518963 0.016409045 0.033858813 0.00035233996 -0.005681128 0.021537451
0.005183041 0.026771495 0.0008932348 0.016834695 0.013508828 0.031783555 -0.014245804 0.019371971
0.018877147 0.0062679113 0.013051 0.013717729 -0.014735846 -0.0009911209 -0.005002166 0.013462135
-0.004519127 0.0041188193 0.0068830433 0.0217742 0.032701176 0.0066700093 -0.011991998 0.011153533
0.010504018 0.0074509894 0.009220743 0.020593293 -0.0030171524 -0.026370017 0.015323359 0.0046150307
0.014196441 0.020262638 0.006581803 0.0073879124 0.009422619 0.018192936 0.009134566 0.025584526
0.020312894 -0.0005527995 0.011100837 0.0011254249 0.00827275 -0.008788688 0.0034835578 0.013230365
0.003516412 -0.0006473081 0.03802214 0.0008132449 0.004599705 0.008002013 0.015796956 0.027195424
0.015676398 0.017502677 0.013425709 0.036305834 0.011004064 0.003969447 0.004625766 0.0076534664
0.0065400465 0.00015418475 -0.0030788074 0.020139165 0.012271 0.008249858 0.03649178 0.0038912767
-0.011656982 0.0010283233 0.011944178 0.008090456 0.014246373 -0.0063874973 0.0007802723 0.06711872
0.010079873 0.06522499 0.005563973 0.009981976 0.0011671049 0.024691693 0.015346926 0.028444998
0.019684395 0.05786058 -0.022225138 -0.0015011422 0.009357381 0.013777019 -0.014377856 -0.0010424706
0.006146695 0.019556925 0.04175948 0.0024913852 0.0025052659 0.021891434 0.0028293615 -0.0047888826
0.008413454 0.009686601 0.029857567 0.06531548 0.025035974 -0.018271925 0.0021202345 0.0065365
0.0082959905 0.036412206 0.007169232 0.007340502 0.024928289 -0.007410843 -0.0057672397 0.009800694
0.009095936 0.0018639719 -0.00087759783 0.011379283 0.0065287286 0.022389928 0.005872791 -0.011123036
0.029865522 -0.0066848015 -0.0020063717 0.007932361 -0.014094189 0.0048912833 -0.0060472316 0.0014232014
0.008901129 0.0065291985 0.021696305 -0.022347435 0.021662913 0.008729366 0.021555858 0.023444798
0.059647683 0.021562843 0.0026519138 0.0013264169 0.0112432195 0.008323757 -0.022051081 0.0076119998
0.007818241 0.0060877497 0.014121164 0.029572265 0.019530289 0.055136688 0.01350981 0.047302857
0.0153406765 -0.0056019058 0.005195027 0.0053508794 0.002156882 0.011529617 0.012882791 0.013258593
0.00925976 0.02280617 0.0061206482 0.029547982 0.011348416 0.044753816 0.030723704 0.0057728677
-0.0026134227 0.012641342 0.013238054 0.012057928 0.0057321396 0.011498928 -0.0015175561 0.03180421
0.053553928 0.040318206 0.009655108 -0.018990794 0.023152445 0.0008536785 0.0015668382 0.019242408
0.0013876967 0.026356539 0.0045590824 0.0071715736 0.005844092 -0.00654782 0.023072354 0.032578383
0.005660633 0.023303935 -0.0043417895 0.008812853 0.024151096 0.0009892914 0.04617992 0.023349449
-0.029193936 0.019211436 -0.008357569 0.0048676017 0.015820218 0.0064790375 -0.010297089 0.036147103
-0.0023877744 0.0203584 0.013509641 0.0069731222 0.0057044793 0.009104195 0.026197556 0.006015787
0.028618068 -0.00065025146 0.004385827 0.019552507 0.00014301327 -0.030423524 0.011811866 0.011734557
0.012284034 0.005319311 0.016088631 0.004583329 0.03701494 0.046594094 0.026915746 0.0016833035
0.006083843 0.024267511 0.017139824 0.024089897 0.026052931 0.008785142 0.012639469 0.027904153

network_body._body_endoder.seq_layers.2.weight f4 [256, 256]
00000000: 6132 8e3d c117 9bbd ab3b 38bd 4e4c 33be
00000010: e4be a5bd 4726 37bc 6186 18bd 345c 583d
00000020: 9e7b 103d ce6f 623d ecf3 4abd 3b78 b8bd
00000030: 1984 293d 75a9 a13d ed34 a53d e49f 0d3e
00000040: 4d3b b03d 21a1 78bd 6771 ea3b 5f87 283c
00000050: e28e 1f3e 50e9 c7bd 7100 413d b987 8abd
00000060: 4b6b 893d 2ed0 1abe bc34 a83d 2724 013b
00000070: 2b6b ef3c 16b3 18bd bd74 d53c 99db 103e
00000080: 15c4 b9bc 400e 123e 44f7 d63c 8d61 503d
00000090: f32f febd e577 0d3e 65a9 ecbd fe44 bfba
000000a0: 51ea ce3d 481b 9e3d e396 8c3d 19d8 c7bc
000000b0: e9de a73d cae9 a13d 17c2 b33b 526b 0bbe
000000c0: 6a56 5fbd 456c 19be b46b 97bd c688 68bd
000000d0: 5a9d 083e 0cad ce3d fb6f 01bd 9e73 b1bc
000000e0: 19a5 f2bd fd7f b13d 1a5e f43d 44f8 9bbc
000000f0: f171 0ebd f980 cc3d fdf2 893c cee0 12bd
00000100: 257e debb 5345 ab3d a366 a3bb 338e 793d
00000110: 1f9d 17bd d517 ea3d c5a7 1b3e a841 49bd
00000120: 765f b83c 4ab6 1d3d e211 60bd de5c 9dbd
00000130: 57e2 943d 5dba 543d 1675 b63d c152 ee3c
00000140: ba6e 99bd 8771 913c ca9c 8d3b b50a 6e3d
00000150: 1ec2 f9bb 3509 5cbe f4db 383d 4eb8 cb3c
00000160: 0bf3 f63d e677 9cbd 1d13 a9bd d3f1 fa3c
00000170: 7b39 2e3d 2d26 a3bd d2ca 293c 4da1 323d
00000180: e13b 313d cb47 10bd a81a 94bd 6260 7e3d
00000190: 44f9 5a3d 975d 523d 96bf 2f3e 106d 6dbd
000001a0: cb2e 2cbe d12e ab3a 5b7c 1d3d adf5 853d
000001b0: 3e54 0b3e 046e 8f3d 846c 893c ab29 a3bd
000001c0: 4b70 993d 6514 af3c c980 38bd f914 b4bd
000001d0: d454 90bc 11f8 02be 1583 8e3d add5 1ebd
000001e0: c7be f6bb 6ab3 28bd a460 54bd f9ce cf3c
000001f0: b6e8 3bbd 97a3 80bc 0956 efbb 2f3d 003d
00000200: cbda 803c 1033 4a3c 9ed8 143c efcb e0bd
00000210: fe40 f93d b470 7d3d dda4 4f3d 11a7 1cbd
00000220: e3bb bbbd 2ba0 a23d 8ae7 1b3d c436 87bd
00000230: 38e9 14bd c493 eabc 2f6e 40bc 4bdb 1bbe
00000240: 9cdb 57bd 5bb8 533d 1d9c 413c 630e a33d
00000250: 6aba 023c 84d4 7abd 33cb 723d 645e f43d
00000260: 44e5 32bd 26cc 8d3c 7090 613d eccf a23d
00000270: 1b72 0fbd 24d6 0abe 8856 8d3d a81d 87bd
00000280: aa12 273d b160 55bb bb08 3bbd 5120 283e
00000290: d460 32bd 309e aabd b26d 8c3d e076 7cbd
000002a0: 866d febc 6f70 51bd 725c 9abc 817a 913d
000002b0: b890 903d 2307 e3bb 53b6 e2bd 960a bdbd
000002c0: ff8e 04be 2271 5b3d 21ae 6e3c a904 91bd
000002d0: 8e25 e4bc acf6 49bb 9cc9 123d be24 1c3c
000002e0: f60d cfbc 9210 f1bb f1ea a03d de24 973c
000002f0: df2b d03c 56b2 ea3d 34c8 15bd dccb 9abb
00000300: 2e14 883c 1a93 53bd 44c6 f2bc 8f5f 9cbd
00000310: c462 cbba d214 aebc 56e3 24bd dafa 403c
00000320: ebeb 2bbd 92db 023d 7804 d03d 16da 863d
00000330: 2e40 64bc 0c44 203d e07f e03d 9b4f 703d
00000340: 96d1 053e 44a7 ceba 608f b83d b33b 96bb
00000350: 12ae 25bd d09e 9a3d d4a2 4bbc 5d2c f83d
00000360: 1b06 09bd 3d45 083e 91bd f6bd 4dd5 fabc
00000370: b73d 94bd 87e9 c73d 5d97 00be b8d5 043e
00000380: 1ee8 43bd 6a72 573c 00db 8fbd 8a22 4bbb
00000390: 9bb7 be3c e4a8 c8bd 9f1c b4bd cbe0 c3bc
000003a0: 20b3 e93d 96ac 93bd b6e6 1d3e adbb 0bbe
000003b0: d238 583d f5f4 e43d 51c2 9dbd a2d5 023c
000003c0: f52a 6cbd 34cf ecbd c7bc ac3c 6f28 d4bc
000003d0: 7fca d4bb e286 593d 9428 c13b ab53 f83d
000003e0: 1565 243c 6de9 dbbc 36a0 dc3d e29d 3b3c
000003f0: 0f51 3a3c 72a8 7c3d 4344 d73d 85cd 453e
0.06943203 -0.0757289 -0.04497878 -0.17509577 -0.0809305 -0.01117856 -0.03723753 0.052822307
0.03527414 0.055282407 -0.04954903 -0.09007307 0.041385744 0.078936495 0.080667354 0.13830525
0.08605061 -0.06070054 0.007154632 0.010286181 0.15581849 -0.09761298 0.04711956 -0.06764168
0.06709918 -0.15118477 0.08213183 0.0019705386 0.029225906 -0.037280165 0.026056642 0.1414627
-0.022676507 0.14263248 0.026240952 0.05087428 -0.12411489 0.13815267 -0.11555747 -0.0014592705
0.10103286 0.07720047 0.06864717 -0.024395036 0.081968136 0.0790592 0.005485784 -0.13615158
-0.05452577 -0.14982708 -0.073935896 -0.056771062 0.13341275 0.100916 -0.031600934 -0.021661576
-0.11847896 0.0866699 0.11932011 -0.01903928 -0.03477663 0.09985537 0.016839499 -0.03585892
-0.00678994 0.08362832 -0.0049866005 0.060926627 -0.037015077 0.11430327 0.15200718 -0.04913488
0.022506457 0.038503923 -0.054704554 -0.07683729 0.072697334 0.051935542 0.08909051 0.029092195
-0.074918225 0.01775433 0.004321669 0.05811568 -0.0076220175 -0.21487887 0.04513164 0.024868157
0.120580755 -0.07640056 -0.08255599 0.030632889 0.042535286 -0.07966266 0.010363298 0.04361086
0.043269996 -0.035224717 -0.07231647 0.062103637 0.053460374 0.051358785 0.17162928 -0.05796534
-0.16814725 0.0013060217 0.038448673 0.065409996 0.13606355 0.07003406 0.016775377 -0.07966932
0.07492121 0.02137203 -0.045044694 -0.08793063 -0.017618574 -0.12789942 0.06958596 -0.038777996
-0.0075300667 -0.041186728 -0.051849976 0.025367247 -0.045876227 -0.015703006 -0.0073039574 0.03130835
0.015729329 0.012341276 0.009084849 -0.10976397 0.121705994 0.06187506 0.050694335 -0.038245264
-0.09166696 0.07940706 0.03806261 -0.066022426 -0.036355227 -0.028634913 -0.01174502 -0.15220372
-0.05269967 0.051689487 0.011817005 0.079617284 0.007979015 -0.061237827 0.059275817 0.11932066
-0.043675676 0.01730926 0.055069387 0.07949814 -0.03502093 -0.1355825 0.0690127 -0.06597453
0.040789284 -0.0032558853 -0.045662623 0.16418578 -0.043549374 -0.08330953 0.0685686 -0.061636806
-0.031058084 -0.051132616 -0.01884291 0.07103444 0.07058853 -0.006928341 -0.11069932 -0.09230535
-0.12945174 0.05357469 0.014567883 -0.07080967 -0.027849939 -0.0030817194 0.0358368 0.009530244
-0.025275212 -0.0073567117 0.078573115 0.018450197 0.025411544 0.11459796 -0.03656788 -0.004724009
0.016611185 -0.05165396 -0.029635556 -0.07635414 -0.0015517105 -0.021250162 -0.040255867 0.011778558
-0.041973036 0.03194768 0.10157102 0.06584565 -0.013931317 0.039127395 0.1096189 0.058669668
0.13068232 -0.0015766402 0.090117216 -0.0045847534 -0.04044921 0.07549822 -0.012428958 0.121178366
-0.03345309 0.13307662 -0.12047876 -0.030619288 -0.07238334 0.09761339 -0.1255774 0.12972152
-0.047828786 0.013149837 -0.07024193 -0.0030995929 0.02328091 -0.09797838 -0.087945215 -0.0239109
0.114111185 -0.072106525 0.1542004 -0.13645811 0.052788563 0.11179534 -0.077030785 0.007985504
-0.057658155 -0.11562958 0.02108611 -0.025898186 -0.006493866 0.05310715 0.00589473 0.121253334
0.010033865 -0.026844705 0.10772745 0.011451216 0.011371865 0.06168408 0.10511067 0.1931668
