AI Models/ReinforcementLearning/CarAgentv2.0.onnx (onnx, 295918 bytes, 7 tensors)

action_model._continuous_distribution.log_sigma f4 [1, 3]
-0.12383133 -0.21900399 -0.36358505
00000000: 489b fdbd 9542 60be d227 babe

action_model._continuous_distribution.mu.bias f4 [3]
-0.01625453 -0.01667297 -0.02148599
00000000: 3828 85bc c195 88bc 6303 b0bc

action_model._continuous_distribution.mu.weight f4 [3, 256]
0.048677363 0.028987695 -0.006770037 0.05058483 0.030569179 -0.022035427 0.0063280165 0.0074117077
-0.019146228 0.038156513 0.0045483555 0.022579506 0.055760372 -0.09384739 0.034822445 0.04087864
0.035929974 0.07380878 0.046814144 0.03920869 -0.051827375 0.05174704 0.051402487 0.05575897
-0.0028844741 -0.08991872 0.038625196 -0.017640727 0.01840112 0.028052766 0.009197579 0.015688388
0.041740134 0.028138801 0.03645721 0.009153548 -0.03713852 0.038988173 0.02003216 -0.0068133385
0.018395606 -0.0024853675 0.027175207 0.022754166 -0.007271973 0.03232094 0.0061231377 -0.023962064
-0.011125768 0.03608585 0.0387487 -0.04861715 0.021296795 0.047043156 0.025912486 -0.034665696
0.0016307582 0.02122655 -0.0104130935 0.032028466 -0.00091935555 0.016265426 -0.0063505345 0.007621291
0.054986183 0.02247739 -0.00013575755 0.015477914 -0.06596037 0.025623128 0.036250122 0.042981423
0.036459085 -0.06919339 0.039789654 0.017166292 -0.048000157 0.026719406 -0.043180272 -0.007405586
-0.142197 0.010948966 0.039513405 -0.0699199 0.005997812 0.03530516 -0.050492696 -0.033365965
-0.06293627 0.035138357 -0.043172292 0.005152945 -0.017311193 0.038351715 0.045182295 0.047203418
-0.022231221 0.045268763 -0.039775677 -0.019518334 0.046528123 -0.059215486 0.035268858 0.025645796
0.036334068 -0.021698589 0.046847433 0.02849618 -0.026794033 0.007693841 0.023766568 -0.053033218
0.00036361505 0.006250428 0.031301536 0.03255181 0.03578798 0.04383482 0.049814872 0.013862769
0.033453796 0.059070416 0.046763465 0.019322017 0.025584918 0.03782986 0.039479412 0.04171515
-0.06685408 -0.017729584 -0.11131615 -0.084881 -0.06198909 0.018731836 0.019805111 -0.062148895
2.7998532e-05 0.0137311565 -0.02405182 0.0010642916 0.05843412 0.042376507 0.036668755 -0.06667686
-0.044584014 0.00934167 0.010081058 0.021515988 0.012869752 -0.04074459 0.04157513 -0.06675847
-0.0443915 0.06559698 -0.059044186 0.021584393 0.029019218 0.017351827 0.05118184 -0.10078517
0.037673213 -0.08353694 -0.08346358 -0.04630504 0.024761546 -0.07620335 -0.059188236 -0.06617636
0.06623335 0.01002143 -0.017207906 -0.048903886 0.005190686 0.0025824595 0.05384985 0.01876775
-0.063341536 -0.06749916 -0.09474709 0.033539068 0.012671487 0.056491286 0.031474847 0.038224056
0.058016565 0.029699083 0.031401332 -0.1085791 -0.008162349 0.047050897 0.047843345 0.0054503107
-0.1208069 0.039460618 -0.011625111 -0.09878724 -0.000783573 0.00876304 0.04725863 -0.06403344
0.0077209445 -0.02396544 0.05276662 0.008967026 0.02445064 -0.09787755 0.041916963 -0.03459121
-0.029794628 0.021495797 0.0049768663 0.05625479 -0.06160321 0.052839905 0.021654224 0.0035356225
-0.07317285 -0.043649647 0.040882003 0.050196778 -0.008402496 -0.009166059 0.017149147 -0.0428697
0.0046611875 0.031328693 0.0397401 0.048385773 -0.030886224 0.055447873 0.060559165 0.015165359
-0.10173405 0.0037609774 0.01408698 0.01853708 -0.026546631 0.025746435 -0.040498257 0.008758908
-0.0864855 0.022698602 -0.02160209 -0.059797745 -0.015541059 0.024485532 0.030321565 -0.01697674
0.057741996 -0.08432221 0.024960306 0.075527 -0.054307077 -0.045455836 -0.11387823 0.054807812
00000000: ea61 473d 9a77 ed3c 30d7 ddbb 0a32 4f3d
00000010: 376c fa3c a483 b4bc 405b cf3b e9dd f23b
00000020: 8dd8 9cbc 014a 1c3d 5f0a 953b a8f8 b83c
00000030: fd64 643d 0f33 c0bd fba1 0e3d 5c70 273d
00000040: 4f2b 133d 0f29 973d 30c0 3f3d 4b99 203d
00000050: f148 54bd b4f4 533d 6a8b 523d 8563 643d
00000060: 7209 3dbb 4e27 b8bd 7435 1e3d 4983 90bc
00000070: f2bd 963c eace e53c 71b1 163c ef84 803c
00000080: b4f7 2a3d 5883 e63c 2854 153d c3f8 153c
00000090: 901e 18bd 10b2 1f3d 7c1a a43c 6d42 dfbb
000000a0: 62b2 963c 8ce1 22bb 8a9e de3c f266 ba3c
000000b0: bb49 eebb f662 043d 9aa4 c83b 174c c4bc
000000c0: da48 36bc c2ce 133d f5b6 1e3d c722 47bd
000000d0: 9e76 ae3c 53b0 403d 6c46 d43c 9efd 0dbd
000000e0: 2abf d53a 4de3 ad3c ae9b 2abc 4830 033d
000000f0: e800 71ba 123f 853c 2518 d0bb 06bc f93b
00000100: 3139 613d 8122 b83c 245a 0eb9 1497 7d3c
00000110: 3b16 87bd 98e7 d13c 027b 143d 4a0d 303d
00000120: 1f56 153d 44b5 8dbd 7afa 223d 53a0 8c3c
00000130: d09b 44bd a8e2 da3c ccdd 30bd 8faa f2bb
00000140: 179c 11be 4b63 333c cfd8 213d 2a32 8fbd
00000150: 4b89 c43b 259c 103d 6ed1 4ebd c0aa 08bd
00000160: bbe4 80bd 3ded 0f3d 6ed5 30bd 09da a83b
00000170: 34d0 8dbc b016 1d3d 1211 393d 5f58 413d
00000180: 401e b6bc bd6b 393d d2eb 22bd eae4 9fbc
00000190: 4694 3e3d f08b 72bd 1476 103d 2217 d23c
000001a0: 08d3 143d 3dc1 b1bc 18e3 3f3d d270 e93c
000001b0: 297f dbbc 9e1c fc3b 1bb2 c23c 5c39 59bd
000001c0: 96a3 be39 64d0 cc3b 0a36 003d 0c55 053d
000001d0: 6b96 123d 248c 333d ae0a 4c3d ab20 633c
000001e0: d906 093d d2f3 713d 0c8b 3f3d 3549 9e3c
000001f0: 7697 d13c 7cf3 1a3d 2ab5 213d 81dd 2a3d
00000200: cbea 88bd a23d 91bc b9f9 e3bd 17d6 adbd
00000210: 46e8 7dbd 8273 993c 543e a23c d78f 7ebd
00000220: 64de ea37 a5f8 603c 5308 c5bc b37f 8b3a
00000230: 9e58 6f3d fd92 2d3d fa31 163d e18d 88bd
00000240: ba9d 36bd ce0d 193c 062b 253c 4c42 b03c
00000250: a7db 523c cde3 26bd af4a 2a3d aab8 88bd
00000260: ddd3 35bd b657 863d 51d8 71bd c1d1 b03c
00000270: b6b9 ed3c 6b25 8e3c 0da4 513d 7568 cebd
00000280: 3a4f 1a3d 6a15 abbd f4ee aabd 5baa 3dbd
00000290: bad8 ca3c 8110 9cbd 5d6f 72bd 7987 87bd
000002a0: 5aa5 873d ed30 243c 98f7 8cbc 714f 48bd
000002b0: a116 aa3b 7b3e 293b a991 5c3d d3be 993c
000002c0: 35b9 81bd 003d 8abd c30a c2bd 4360 093d
000002d0: 129c 4f3c 6863 673d c5eb 003d d490 1c3d
000002e0: c7a2 6d3d 7e4b f33c af9e 003d b85e debd
000002f0: 60bb 05bc 71b8 403d 62f7 433d 8598 b23b
00000300: 9c69 f7bd 75a1 213d 4077 3ebc f750 cabd
00000310: b268 4dba db92 0f3c 4492 413d f723 83bd
00000320: faff fc3b 2c53 c4bc d021 583d 6fea 123c
00000330: b54c c83c 0674 c8bd 1fb1 2b3d 83af 0dbd
00000340: dd13 f4bc f417 b03c fb14 a33b 6c6b 663d
00000350: a653 7cbd a86e 583d 3364 b13c e7b5 673b
00000360: a6db 95bd f9c9 32bd e373 273d 239b 4d3d
00000370: 9faa 09bc 3d2d 16bc 5e7c 8c3c 2398 2fbd
00000380: e0bc 983b 8452 003d 84c6 223d 2930 463d
00000390: 1b05 fdbc 4f1d 633d e30c 783d 2078 783c
000003a0: f159 d0bd bb7a 763b 14cd 663c 13db 973c
000003b0: 5278 d9bc 30ea d23c 80e1 25bd 8681 0f3c
000003c0: 4f1f b1bd 6bf2 b93c def6 b0bc 7bee 74bd
000003d0: ed9f 7ebc e295 c83c ee64 f83c ce12 8bbc
000003e0: df82 6c3d 1fb1 acbd 8e79 cc3c e6ad 9a3d
000003f0: 1971 5ebd e62f 3abd fd38 e9bd 287e 603d

network_body._body_endoder.seq_layers.0.bias f4 [256]
0.00457147 0.014201463 -0.0014680672 -0.009951262 -0.062490247 0.012085889 -0.015572778 0.020573536
0.044165302 -0.0050756657 0.002236615 0.013140375 0.016043263 0.030211726 -0.020794509 0.04788507
0.057654772 -0.012608761 0.0012041035 0.0013882101 0.0026160646 -0.0010828716 0.0011966666 0.016412012
0.05159143 -0.021827854 0.030366562 0.0033647863 0.004783871 0.058360983 -0.00969047 -0.011623084
-0.011541846 0.0071108937 0.031614136 0.04442274 -0.008496369 -0.00033933987 0.0048090965 0.008452415
0.019434646 0.017528715 0.022559145 0.023424732 0.02565436 -0.028849775 0.001809276 0.0059641227
0.00594533 0.008235346 0.015320512 0.024822326 -0.0032982626 -0.012471464 -0.015208298 -0.007464738
0.010544319 0.0058009047 0.0015684871 0.028796336 -0.0019289808 0.00037524002 0.03324893 -0.024248613
0.025567882 0.0071622077 0.013162139 0.00039265596 0.014365729 0.039973114 0.016279595 0.025341019
0.038612746 0.019072857 0.08003951 0.038147017 0.029538838 0.034885645 -0.009869033 0.006951857
0.0007140471 0.023465555 0.012455764 0.0039518597 0.025518205 0.0023703112 0.006558067 0.012236025
0.0046053636 0.06489396 -0.01672815 0.000911584 -0.0073234164 0.003972916 -0.005271616 0.010825858
0.011769273 0.060110267 0.050871428 -0.0020329687 0.029869726 -0.006875021 0.07943803 0.013115539
-0.0015504388 0.015675316 0.08045676 0.057458628 7.691214e-05 0.01729163 0.03894256 0.0033096161
0.05061821 0.012109655 0.0067052725 -0.00904411 -0.0044289664 0.022133434 0.005985711 0.018166732
0.088713 0.037253063 0.035818353 0.046475172 -0.007247948 0.03929684 0.007122017 -0.00088938785
0.040500093 0.010049051 -0.004304935 0.022354232 -0.0075485986 0.0018078731 0.034224827 0.009119921
0.019274876 0.06915139 0.010352114 -0.0055419547 0.022935374 -0.009726502 0.054861862 0.06866137
0.023473578 0.009396294 -0.010355879 0.09328964 0.03442941 0.031833604 0.0006109368 -0.0187339
0.016927231 0.0377795 0.015764065 0.025581416 0.04842234 -0.0049123713 0.056810364 4.9472303e-05
-0.0040439535 -1.5370442e-05 0.03383726 -0.01326204 -0.017923722 0.0010486256 -0.0063563366 -0.005955288
0.032665003 -0.0013945894 -0.017372178 0.015019001 -0.020406818 0.009327721 -0.02594494 0.017056469
-0.029055197 -0.021398684 0.049877223 0.038665313 0.0042467047 -0.0053663207 0.0030145627 0.019242804
0.029050538 -0.006454269 0.0082342625 0.042929888 -0.009188281 0.039181314 0.047911156 0.016987229
0.024868166 0.014986909 0.022730377 0.012258859 0.0076641045 -0.0075080134 0.0031162873 0.004579301
0.08385422 -0.005918268 0.0073010833 -0.032692336 0.04567777 0.013832109 0.0027128605 -0.0019729608
-0.08329643 0.042240553 -0.002778101 0.019505959 -0.037251145 -0.0018363995 0.07985148 0.045089345
0.019239599 0.0023388618 0.012090866 -0.008770301 -0.015467144 0.020114841 0.042631622 0.004871568
0.025362821 0.051367886 0.012015304 0.043621574 0.022669217 0.016919997 0.0039594444 0.0011628495
0.0053900704 0.010490998 -0.022949575 0.015267161 0.00010702547 0.021848364 0.043315914 0.017669665
0.002603894 0.050844427 0.028414309 0.003060489 -0.020031452 -0.0024340453 -0.005786097 0.0131468205
0.029936584 0.016699225 0.047279783 0.015436461 -0.007068541 0.038920105 0.03114421 -0.024507225
00000000: 45cc 953b 41ad 683c 296c c0ba 9e0a 23bc
00000010: c6f5 7fbd e403 463c f724 7fbc d589 a83c
00000020: ade6 343d c551 a6bb 2c94 123b ba4a 573c
00000030: 296d 833c 957e f73c 3f59 aabc 2323 443d
00000040: 6927 6c3d fa94 4ebc 02d3 9d3a 9af4 b53a
00000050: 4872 2b3b 24ef 8dba 78d9 9c3a 7c72 863c
00000060: 8951 533d 54d0 b2bc 4cc3 f83c bf83 5c3b
00000070: 05c2 9c3b ed0b 6f3d c7c4 1ebc bf6e 3ebc
00000080: 031a 3dbc 8002 e93b d37d 013d 9ef4 353d
00000090: 5b34 0bbc 6de9 b1b9 a095 9d3b ff7b 0a3c
000000a0: 6835 9f3c 6198 8f3c f5cd b83c 39e5 bf3c
000000b0: 1829 d23c 5d56 ecbc 3a25 ed3a b06e c33b
000000c0: 0bd1 c23b 8bed 063c e202 7b3c 3158 cb3c
000000d0: aa27 58bb 1d55 4cbc 3a2c 79bc c39a f4bb
000000e0: 14c2 2c3c 8415 be3b b295 cd3a 4be6 eb3c
000000f0: dbd5 fcba ddbb c439 0830 083d 07a5 c6bc
00000100: bc73 d13c f4b0 ea3b 03a6 573c 64dd cd39
00000110: 3c5e 6b3c d9ba 233d c95c 853c f897 cf3c
00000120: 6628 1e3d ae3e 9c3c c1eb a33d 0c40 1c3d
00000130: 6ffb f13c 40e4 0e3d b9b1 21bc 67cc e33b
00000140: e42e 3b3a d63a c03c 4313 4c3c 9a7e 813b
00000150: 8e0b d13c 3957 1b3b 0ee5 d63b 9c79 483c
00000160: 97e8 963b 20e7 843d 7909 89bc 5ef7 6e3a
00000170: 45f9 efbb 3c2f 823b 85bd acbb f15e 313c
00000180: e9d3 403c 2f36 763d 8f5e 503d 8e3b 05bb
00000190: 5bb1 f43c db47 e1bb 68b0 a23d 8fe2 563c
000001a0: 1838 cbba 8569 803c 84c6 a43d bd59 6b3d
000001b0: e44b a138 2da7 8d3c 3c82 1f3d 25e6 583b
000001c0: 0a55 4f3d 9367 463c e7b7 db3b bf2d 14bc
000001d0: dd20 91bb 2d51 b53c c823 c43b 66d2 943c
000001e0: 29af b53d ab96 183d 44b6 123d c05c 3e3d
000001f0: 3280 edbb b9f5 203d cf5f e93b cf25 69ba
00000200: 6de3 253d c6a4 243c 6a10 8dbb 3920 b73c
00000210: 3c5a f7bb 28f6 ec3a 552f 0c3d b96b 153c
00000220: 58e6 9d3c 3e9f 8d3d ea9b 293c 4999 b5bb
00000230: f7e2 bb3c e85b 1fbc d5b6 603d 559e 8c3d
00000240: a94b c03c eaf2 193c b4ab 29bc a40e bf3d
00000250: da05 0d3d f463 023d 4627 203a d677 99bc
00000260: faaa 8a3c adbe 1a3d a423 813c 1e90 d13c
00000270: 8156 463d f5f7 a0bb fcb1 683d 7b80 4f38
00000280: 2483 84bb c6ef 80b7 f098 0a3d 0749 59bc
00000290: c5d4 92bc 0972 893a d148 d0bb 9424 c3bb
000002a0: bdcb 053d a8ca b6ba 1950 8ebc 4212 763c
000002b0: 332c a7bc 4cd3 183c 7c8a d4bc 02ba 8b3c
000002c0: 2a05 eebc 4b4c afbc 0f4c 4c3d 855f 1e3d
000002d0: f127 8b3b f6d7 afbb f88f 453b 16a3 9d3c
000002e0: 65fb ed3c 557e d3bb 00e9 063c 40d7 2f3d
000002f0: 728a 16bc 967c 203d 7d3e 443d cd28 8b3c
00000300: 53b8 cb3c a78b 753c 0e35 ba3c 62d9 483c
00000310: 2b23 fb3b c805 f6bb a03a 4c3b f60d 963b
00000320: c3bb ab3d 08ee c1bb ed3d ef3b 66e8 05bd
00000330: 9d18 3b3d 12a0 623c 3fca 313b ca4c 01bb
00000340: 5297 aabd 6e04 2d3d cd10 36bb f6ca 9f3c
00000350: a894 18bd 58b3 f0ba 2c89 a33d 9baf 383d
00000360: 5d9c 9d3c 9747 193b c518 463c 4fb1 0fbc
00000370: e769 7dbc e1c7 a43c 7f9e 2e3d ada1 9f3b
00000380: b1c5 cf3c 2267 523d d6db 443c 89ac 323d
00000390: cbb4 b93c ce9b 8a3c 3abe 813b c16a 983a
000003a0: 309f b03b 6fe2 2b3c bf00 bcbc 1d23 7a3c
000003b0: dd72 e038 57fb b23c 076c 313d f9bf 903c
000003c0: 18a6 2a3b 3f42 503d 20c5 e83c 7c92 483b
000003d0: 0019 a4bc 8184 1fbb 4d99 bdbb c365 573c
000003e0: 913d f53c d0cc 883c 72a8 413d 36e9 7c3c
000003f0: 389f e7bb b06a 1f3d 2422 ff3c 60c3 c8bc

network_body._body_endoder.seq_layers.0.weight f4 [256, 26]
0.38826478 0.20737416 0.14095394 0.13727942 0.22721185 0.1530418 -0.11295989 0.2656609
-0.17683731 0.150572 -0.2679754 -0.06588156 -0.15664196 -0.13597591 -0.21430244 0.25029692
0.26572084 -0.2503642 -0.11712775 0.08409185 -0.09131332 -0.01859968 0.17950928 0.32466736
0.2741886 -0.17271593 -0.11632406 -0.4167632 -0.29048243 0.19337724 0.10820863 0.176855
0.071752116 0.13212161 -0.03088717 -0.025945663 -0.20567411 0.51513135 0.3071683 -0.42356008
-0.19888747 -0.26577204 0.12765977 0.25667676 0.054772936 0.18070321 0.1278111 -0.06844187
-0.1326238 0.47743905 -0.1498727 0.46990937 0.23653822 -0.014432084 0.4127653 0.15847813
-0.019130785 0.025410535 0.1967584 0.08548809 0.16027269 -0.2173341 0.108726904 0.5220089
-0.0020198908 -0.4103927 0.061391775 0.31224123 0.101083085 -0.19033916 -0.23183046 -0.11537141
0.05174669 -0.034625296 -0.39588997 -0.05732456 0.19092417 -0.08825053 0.69701695 -0.0025615091
-0.22452167 0.1533564 0.18150428 0.12645864 0.20941354 0.19752878 0.013039597 -0.047879245
-0.123073526 0.2614209 0.3369766 0.40749413 0.09570451 0.15858571 0.01825152 -0.03645525
-0.021242542 0.22843172 -0.24350649 0.11519459 0.096791066 0.092135444 -0.2396302 -0.21675639
0.13799398 0.07359412 0.10339495 -0.34623578 -0.14202394 -0.009185406 0.16671233 0.0145188
0.11105787 -0.0993807 -0.2712446 -0.2444944 -0.38811767 -0.23437677 0.056596916 -0.2201532
0.46792838 -0.22232932 -0.22145389 -0.06547475 -0.16462584 0.20090666 -0.023601614 0.34773782
-0.27963784 0.15538019 -0.04832822 -0.058234546 -0.10179927 -0.43351537 0.08094722 -0.022841735
0.05794965 -0.02431045 -0.011015281 0.042660847 -0.05130217 0.12102746 0.014941671 0.31538674
0.042719226 0.003976692 -0.052987907 0.21512996 0.16989824 0.062634274 0.07000264 0.1458062
-0.071662106 -0.21741946 -0.06273828 -0.1171701 -0.059420723 -0.4101834 -0.056796674 0.08450209
0.3460731 -0.0102032935 -0.049850006 0.25375006 -0.20356932 0.27822095 -0.018829893 0.2797837
0.44563618 -0.10887752 -0.08989545 0.14158042 0.18613194 -0.06853022 -0.045750096 0.28152472
0.3137952 -0.19808336 0.02456869 0.06358954 0.036041502 -0.3858028 0.49542683 0.029639708
0.09035229 -0.4546242 0.33232442 -0.12478209 0.09664919 -0.13616931 -0.42649335 -0.11319852
0.047040496 0.019053664 0.017026482 0.017596444 0.007575192 -0.015471326 0.09436714 0.12484957
-0.08349919 0.0054635657 0.18632734 0.00034794267 -0.24337175 0.030086668 0.27955082 -0.23145856
-0.17337495 0.37561098 0.26859614 -0.438072 0.052698843 -0.033243485 0.04761263 0.09338916
0.026671113 0.095605895 -0.014333554 -0.2993011 0.23784783 -0.23959391 -0.14673094 0.26885763
-0.074576996 -0.05353574 0.2924465 0.1082071 -0.13572547 0.16809341 0.216543 0.039744407
0.33854988 -0.021197 0.30941322 0.32166216 0.054904796 0.36855543 0.36202747 -0.13570286
0.08071664 -0.19681108 0.167459 -0.17333059 -0.14320825 -0.22095531 -0.21205999 0.13133185
0.11152625 -0.12812784 -0.0008180094 0.021558112 -0.08602268 0.32856265 -0.19973949 0.08809685
00000000: a4ca c63e e459 543e 3b56 103e fa92 0c3e
00000010: 39aa 683e fdb6 1c3e 8457 e7bd b504 883e
00000020: d714 35be 8c2f 1a3e 1234 89be e9ec 86bd
00000030: c066 20be 453d 0bbe 1972 5bbe eb26 803e
00000040: 900c 883e bd2f 80be ace0 efbd 5938 ac3d
00000050: 7a02 bbbd 5b5e 98bc 48d1 373e cd3a a63e
00000060: 7362 8c3e 72dc 30be 4f3b eebd fc61 d5be
00000070: 1dba 94be af04 463e 7c9c dd3d 7a19 353e
00000080: c6f2 923d e34a 073e 1707 fdbc 008c d4bc
00000090: 3c9c 52be a6df 033f 2a45 9d3e dedc d8be
000000a0: 28a9 4bbe 4613 88be 3eb9 023e 236b 833e
000000b0: 9659 603d 430a 393e eae0 023e 402b 8cbd
000000c0: 89ce 07be e472 f43e 3b78 19be f697 f03e
000000d0: 1337 723e 8c74 6cbc f955 d33e 1748 223e
000000e0: 2ab8 9cbc c129 d03c 097b 493e 6114 af3d
000000f0: 861e 243e d58c 5ebe 36ac de3d 60a2 053f
00000100: 2560 04bb fe1e d2be f175 7b3d 15de 9f3e
00000110: a604 cf3d 45e8 42be f764 6dbe d947 ecbd
00000120: 56f4 533d 41d3 0dbd 17b2 cabe 28cd 6abd
00000130: a081 433e b2bc b4bd b46f 323f fede 27bb
00000140: 02e9 65be 7609 1d3e 42dc 393e 607e 013e
00000150: 8170 563e fc44 4a3e 09a4 553c 071d 44bd
00000160: f90d fcbd f6d8 853e 3288 ac3e 12a3 d03e
00000170: ba00 c43d 4b64 223e 3684 953c 1a52 15bd
00000180: d704 aebc 01ea 693e c459 79be 24eb eb3d
00000190: 653a c63d 82b1 bc3d 9f61 75be 63f5 5dbe
000001a0: 4b4e 0d3e 84b8 963d bbc0 d33d d145 b1be
000001b0: b96e 11be 637e 16bc a3b6 2a3e 43e0 6d3c
000001c0: 4f72 e33d 1c88 cbbd 92e0 8abe bd5c 7abe
000001d0: 5cb7 c6be 7700 70be 2bd2 673d d76f 61be
000001e0: 4f94 ef3e 4caa 63be cfc4 62be a017 86bd
000001f0: ad93 28be 7aba 4d3e 2c58 c1bc b10a b23e
00000200: b12c 8fbe fc1b 1f3e d0f3 45bd 5987 6ebd
00000210: 237c d0bd baf5 ddbe a8c7 a53d 971e bbbc
00000220: 9d5c 6d3d b526 c7bc 7079 34bc 24bd 2e3d
00000230: 3922 52bd 3fdd f73d e9cd 743c 5f7a a13e
00000240: 5bfa 2e3d e94e 823b d909 59bd 074b 5c3e
00000250: cef9 2d3e 6646 803d 8b5d 8f3d 384e 153e
00000260: 95c3 92bd 35a3 5ebe ed7c 80bd e1f6 efbd
00000270: 2563 73bd 8f03 d2be a1a3 68bd 6f0f ad3d
00000280: 7e30 b13e b72b 27bc 852f 4cbd 87eb 813e
00000290: 7a74 50be fa72 8e3e 2641 9abc cf3f 8f3e
000002a0: 6d2a e43e 2dfb debd 1b1b b8bd 75fa 103e
000002b0: 5f99 3e3e 9259 8cbd 7464 3bbd 0224 903e
000002c0: c4a9 a03e 5dd6 4abe 4744 c93c 3c3b 823d
000002d0: 41a0 133d f287 c5be 96a8 fd3e f9ce f23c
000002e0: 9f0a b93d 81c4 e8be 6d26 aa3e c18d ffbd
000002f0: 03f0 c53d f86f 0bbe 565d dabe a0d4 e7bd
00000300: 89ad 403d 6e16 9c3c 1f7b 8b3c 6b26 903c
00000310: 5139 f83b 727b 7dbc 8f43 c13d 22b1 ff3d
00000320: a001 abbd b607 b33b 98cc 3e3e 136c b639
00000330: 7236 79be 5178 f63c 4921 8f3e 7903 6dbe
00000340: 3489 31be 1550 c03e 6f85 893e f94a e0be
00000350: beda 573d 522a 08bd 7605 433d d142 bf3d
00000360: 617d da3c 06cd c33d 48d7 6abc fe3d 99be
00000370: 628e 733e 1b58 75be a340 16be b5a7 893e
00000380: d3bb 98bd 4b48 5bbd 8cbb 953e af9b dd3d
00000390: 9efb 0abe ae20 2c3e 73bd 5d3e 08cb 223d
000003a0: 6956 ad3e 55a5 adbc 696b 9e3e e7b0 a43e
000003b0: dae3 603d 4cb3 bc3e aa5b b93e b1f5 0abe
000003c0: c44e a53d d888 49be 5f7a 2b3e 937d 31be
000003d0: 2fa5 12be 1c42 62be 4126 59be db7b 063e
000003e0: e067 e43d f233 03be ae6f 56ba a39a b03c
000003f0: a92c b0bd 5d39 a83e 8288 4cbe 1f6c b43d

network_body._body_endoder.seq_layers.2.bias f4 [256]
0.0026450856 0.0046460372 0.031799346 -0.004431478 -0.019146562 0.017006233 0.020503853 -0.015357555
0.0040668785 -0.018495101 -0.008904047 -0.015866809 -0.009082554 0.019823724 -0.01116613 0.008717917
0.009945793 -0.0073908106 0.005170167 -0.010937712 0.025186915 -0.022302983 0.003019344 -0.014054392
0.0402185 0.061365683 0.024243552 0.006225749 0.017984098 0.004960026 0.025576705 0.004899397
-0.0049351663 0.010985037 0.009483156 -0.02788321 -0.0050372067 -0.034198053 0.002483833 -0.000686927
0.014806634 -0.032384165 -0.011849343 0.008207734 -0.008672255 0.0110707665 0.0028625713 0.0026522966
-0.018060107 0.007076707 0.008329355 0.020703249 -0.017042842 -0.012352867 -0.025907166 0.0127756195
-0.0010584125 -0.0148699675 0.019156959 -0.025770517 0.017491493 0.005621335 0.008804777 0.023937462
-0.016214453 -0.0038072614 -0.011705518 0.014641921 0.025613047 -0.0067346036 -0.004070447 -0.01632655
-0.0015012933 0.047899727 0.0072322725 -0.011753366 0.039230574 0.008683562 0.015925126 0.0040833442
0.076982185 0.023861522 -0.00737226 0.030780794 0.002266534 0.011446515 0.06317771 -0.00985014
-0.0013977973 -0.011059827 0.024279477 0.03013706 -0.0046530585 -0.009925776 -0.006345024 -0.0041479324
-0.0013426143 -0.012408158 0.01483585 0.024864664 -0.006808339 0.018213462 -0.0044261343 0.00085715175
0.0038649929 -0.014595625 -0.0008782159 -0.0144206965 0.018091038 -0.024948299 0.016831635 0.0006266445
-0.021453535 0.0026841923 0.0054654866 -0.004246666 0.010600116 -0.015393 -0.004878561 0.046541806
0.0008278398 0.00045110701 -0.006931712 0.0013879124 -0.008982439 0.017723328 -0.0026570247 -0.02121686
0.04480451 0.040101413 0.043094136 0.059883017 0.059771955 -0.013954279 -0.013362554 0.016605662
0.008086811 0.0038324303 -0.008514713 -0.026080117 0.014653719 -0.0067941197 -0.026847778 0.03921125
0.028453035 0.02115192 0.021184126 -0.015643 0.0028451555 0.0064848936 0.0031432037 0.048583936
0.0045363246 0.013191951 -0.0008111232 -0.018749652 0.0037324468 0.006301055 0.00525684 0.082491055
-0.0034037994 0.028985327 0.053290196 0.016427256 0.016490882 0.017494038 0.017639175 0.04393054
-0.010577954 0.0033226544 0.014381766 0.015903315 0.024224257 0.028623208 -0.007227249 -0.011073595
0.01662372 -0.0028279554 0.052421384 0.006454332 -0.0086034825 0.0037893336 0.006292487 0.015211822
-0.011596779 0.0057697636 0.007111795 0.05964523 0.008026419 -0.027999798 0.016134609 -0.011519131
0.04643049 0.0138307875 0.029849546 0.05749316 0.024226725 0.0023400392 -0.0021773311 0.017385688
0.01114716 0.024378393 0.0078070024 0.0075409766 0.009356092 0.05811492 0.0052613276 0.026267523
0.031315867 -0.023549858 0.009107323 0.012643513 0.02958177 -0.008319453 0.022605011 -0.013572539
0.0154815065 -0.0013779444 -0.004629025 -0.0045533907 0.0066364356 0.0151614575 0.029890645 0.023085052
0.027988737 -0.012827198 0.021572532 -9.520937e-05 0.0066414624 -0.0014621199 -0.011246667 -0.009057203
0.061221834 -0.011191541 0.013810137 0.0019809909 0.013014773 -0.015491351 0.0116361175 -0.030117413
0.008394878 0.0070470027 0.027360447 -0.0018187724 -0.0032138142 0.016196523 0.025081202 0.006035609
0.0061679534 0.04983597 -0.0051943976 0.005357708 0.04703016 0.012201078 0.07545932 0.0064473683
00000000: 2c59 2d3b c93d 983b 0840 023d ef35 91bb
00000010: 40d9 9cbc a850 8b3c b2f7 a73c 419e 7bbc
00000020: 7343 853b 0a83 97bc 48e2 11bc 1cfb 81bc
00000030: fece 14bc 5d65 a23c 25f2 36bc 98d5 0e3c
00000040: aef3 223c 9d2e f2bb 816a a93b 1734 33bc
00000050: ca54 ce3c bfb4 b6bc 30e0 453b 6544 66bc
00000060: 27bc 243d 955a 7b3d 6a9a c63c 5e01 cc3b
00000070: 6353 933c b787 a23b 3d86 d13c 1f8b a03b
00000080: 2db7 a1bb 96fa 333c 3d5f 1b3c 546b e4bc
00000090: 270f a5bb 4213 0cbd cec7 223b e412 34ba
000000a0: 8697 723c 42a5 04bd bf23 42bc bb79 063c
000000b0: 1316 0ebc 2962 353c fa99 3b3b 27d2 2d3b
000000c0: caf2 93bc b9e3 e73b d977 083c dc99 a93c
000000d0: 6e9d 8bbc ae63 4abc 443b d4bc d550 513c
000000e0: 6eba 8aba 2aa1 73bc 0eef 9c3c b11c d3bc
000000f0: 524a 8f3c 2d33 b83b e941 103c 7f18 c43c
00000100: 2cd4 84bc 3f83 79bb 80c8 3fbc abe4 6f3c
00000110: 74d2 d13c f3ad dcbb 6261 85bb 42bf 85bc
00000120: 0bc7 c4ba 8132 443d b3fc ec3b 3191 40bc
00000130: 3db0 203d 8045 0e3c 6975 823c 93cd 853b
00000140: d6a8 9d3d 3d79 c33c 0093 f1bb 0128 fc3c
00000150: 218a 143b 2a8a 3b3c 5163 813d 7b62 21bc
00000160: 4b36 b7ba 4734 35bc c1e5 c63c ffe1 f63c
00000170: af78 98bb b99f 22bc ebe9 cfbb 61eb 87bb
00000180: a9fa afba 964b 4bbc 1112 733c fbb0 cb3c
00000190: 7d18 dfbb 6634 953c 1b09 91bb 7bb2 603a
000001a0: d24b 7d3b 7d22 6fbc 1238 66ba c944 6cbc
000001b0: a833 943c 6060 ccbc 7fe2 893c 6745 243a
000001c0: 53bf afbc 46e9 2f3b d317 b33b 9e27 8bbb
000001d0: 1cac 2d3c ec32 7cbc 56dc 9fbb 9fa2 3e3d
000001e0: 6303 593a 8f82 ec39 6a23 e3bb 9dea b53a
000001f0: 142b 13bc 8330 913c 7a21 2ebb fbce adbc
00000200: ef84 373d 6141 243d 7a83 303d e547 753d
00000210: 70d3 743d 7da0 64bc 9dee 5abc 9908 883c
00000220: 8b7e 043c 8329 7b3b 4b81 0bbc f8a5 d5bc
00000230: 2716 703c 35a1 debb dfef dbbc fa9b 203d
00000240: 5716 e93c cb46 ad3c 558a ad3c c025 80bc
00000250: ca75 3a3b 3b7f d43b 35fe 4d3b f3ff 463d
00000260: 73a5 943b 0e23 583c 8ea1 54ba df98 99bc
00000270: 119c 743b 1579 ce3b 9241 ac3b 12f1 a83d
00000280: 4712 5fbb a372 ed3c d246 5a3d 7492 863c
00000290: e317 873c a84f 8f3c 0880 903c 83f0 333d
000002a0: 284f 2dbc e4c0 593b 80a1 6b3c ab47 823c
000002b0: f371 c63c 387b ea3c 8fd2 ecbb 066e 35bc
000002c0: 782e 883c 3855 39bb ceb7 563d dc7e d33b
000002d0: 9ff5 0cbc 7856 783b 3531 ce3b 023b 793c
000002e0: 6b00 3ebc 4910 bd3b 0f0a e93b 8f4e 743d
000002f0: 3e81 033c d55f e5bc ba2c 843c bdba 3cbc
00000300: e62d 3e3d 879a 623c 0987 f43c f37d 6b3d
00000310: 2077 c63c 585b 193b 8eb1 0ebb 6e6c 8e3c
00000320: 94a2 363c 32b5 c73c e2d1 ff3b 4c1a f73b
00000330: 4b4a 193c e909 6e3d 3767 ac3b fd2e d73c
00000340: 1145 003d a2eb c0bc e236 153c bd26 4f3c
00000350: 7855 f23c 514e 08bc 252e b93c 5b5f 5ebc
00000360: 25a6 7d3c 249c b4ba 13af 97bb 9c34 95bb
00000370: 7576 d93b c367 783c 3add f43c dd1c bd3c
00000380: a348 e53c 2b29 52bc e1b8 b03c 24ab c7b8
00000390: a0a0 d93b 9aa4 bfba f143 38bc aa64 14bc
000003a0: bfc3 7a3d ba5c 37bc ea43 623c 83d3 013b
000003b0: ea3b 553c 6fcf 7dbc 6aa5 3e3c cbb8 f6bc
000003c0: ac8a 093c 8bea e63b 0423 e03c e063 eeba
000003d0: db9e 52bb 92ae 843c 1877 cd3c 5cc6 c53b
000003e0: 8b1c ca3b cd20 4c3d c435 aabb b68f af3b
000003f0: b2a2 403d 08e7 473c 6a8a 9a3d 7244 d33b

network_body._body_endoder.seq_layers.2.weight f4 [256, 256]
-0.025672697 -0.07408627 0.09321897 0.03705182 -0.06130588 -0.14162375 -0.010817543 -0.12133929
-0.03098202 0.023975836 -0.09888606 0.0030192318 -0.0070525897 0.025055464 -0.0948166 0.06548666
-0.008249958 0.022076959 0.12199439 -0.040473744 -0.08677303 -0.0054624355 -0.087921456 -0.020397853
0.045464233 0.023768192 0.11651044 -0.024462145 -0.02591288 -0.08098519 -0.0075678886 0.016919002
-0.097577594 0.011145515 0.027006876 0.089804545 0.052238464 0.1444848 0.050451826 -0.08387006
0.09923937 -0.070583545 0.22502252 -0.15523285 0.043718036 -0.04870421 0.045195784 0.061428327
0.121111795 -0.18476273 -0.019023517 -0.118394196 0.16769424 0.0035085215 -0.043110903 0.18454026
0.012707003 -0.03222148 0.09170794 -0.147489 0.009527125 -0.030232303 -0.009721116 -0.020786844
-0.062666774 0.038438637 0.06504985 0.036872074 -0.012937127 -0.016318673 -0.049701326 0.016047807
-0.07039019 0.082946174 -0.08362117 0.13086133 -0.03879905 -0.06882266 0.013362884 0.041719697
0.0044458685 0.1609264 0.07250557 -0.13960849 -0.075533934 -0.038791534 0.09085968 -0.033946462
0.002988772 -0.0109225325 -0.067386806 -0.011466818 -0.015274268 -0.03731291 0.07144686 0.005690539
-0.022677137 -0.15899885 0.10561129 0.015892724 -0.09435013 -0.04954149 -0.037095554 0.055171017
0.07513754 -0.11805499 -0.0004641448 -0.029409608 -0.068607695 -0.039944418 -0.053585146 -0.0028741157
-0.043403685 0.011268715 -0.025555693 0.02927228 -0.04382963 0.019465756 0.04074362 0.1585412
-0.03508359 -0.011541598 -0.14037894 0.05983007 -0.10334942 -0.05774398 0.014963798 0.0044215983
0.039595827 0.06323074 -0.03815787 -0.052340794 0.024717165 0.11199561 -0.111010924 0.23406017
0.0335455 -0.144417 0.0034724933 -0.044935618 0.036314733 -0.10146718 0.12747394 -0.051445466
0.03180843 -0.10250469 0.028063107 -0.011672143 0.018971663 -0.122990064 0.089614 0.1195843
0.015776576 0.021751951 0.064133435 0.12784421 -0.08270503 -0.0467833 -0.027653247 -0.1405593
0.03658598 -0.016298445 0.015929798 -0.053319562 -0.13239552 -0.027445247 0.07506231 -0.059159793
-0.049364362 0.043104142 0.06600384 -0.0007780019 0.070989415 -0.053891018 0.012428553 0.035016585
0.030505657 -0.015030961 0.019162158 0.093733825 0.11669013 0.06869008 0.0060248226 0.13156144
0.12075247 0.052493945 0.00990388 0.056630697 0.04506578 0.029902246 -0.09626199 -0.01088672
-0.047132593 -0.19053604 -0.009821237 0.044855755 0.06400032 -0.054970864 0.020989668 -0.034882236
0.043152712 -0.033642963 0.04648094 0.1052296 -0.09098971 -0.12060197 0.052742198 0.13554175
0.13186742 -0.038304694 0.076071724 0.085376516 0.0042121173 -0.18516585 -0.1022307 -0.17041802
-0.06226228 -0.014557116 -0.028934153 -0.04587565 -0.02100374 0.07821462 -0.0808918 0.1133112
0.1783395 0.060822118 0.054418676 -0.021475745 -0.094646364 -0.15162438 -0.022635812 -0.016335625
0.015890004 -0.010961754 0.059966087 0.11633781 -0.026195565 -0.06036038 -0.12365449 -0.11055219
0.048210513 0.027572546 -0.05834349 0.18249363 -0.031634293 0.0886855 0.024275545 0.16623117
-0.03359203 -0.07966576 -0.14162154 0.10685558 0.0011264249 -0.04776134 -0.086305924 0.11889674
00000000: 8c4f d2bc 8bba 97bd 96e9 be3d a6c3 173d
00000010: e01b 7bbd d105 11be 103c 31bc bc80 f8bd
00000020: 01ce fdbc f968 c43c c684 cabd 4ede 453b
00000030: 6919 e7bb 1e41 cd3c 352f c2bd df1d 863d
00000040: d52a 07bc bdda b43c 32d8 f93d ccc7 25bd
00000050: 0fb6 b1bd 3bfe b2bb 2a10 b4bd 6619 a7bc
00000060: b438 3a3d 83b5 c23c 079d ee3d d664 c8bc
00000070: 4047 d4bc 90db a5bd 0dfc f7bb b899 8a3c
00000080: c3d6 c7bd ae9b 363c 863d dd3c 72eb b73d
00000090: 00f8 553d d3f3 133e 93a6 4e3d 11c4 abbd
000000a0: 033e cb3d 1b8e 90bd 4e6c 663e 5cf5 1ebe
000000b0: af11 333d 117e 47bd 371f 393d 459c 7b3d
000000c0: 7609 f83d 7132 3dbe 35d7 9bbc a878 f2bd
000000d0: 0ab8 2b3e 39ef 653b 0f95 30bd 1ff8 3c3e
000000e0: 0931 503c acfa 03bd 5fd1 bb3d 5b07 17be
000000f0: a917 1c3c bca9 f7bc 5145 1fbc 2c49 aabc
00000100: 7057 80bd d571 1d3d db38 853d 2c07 173d
00000110: 3ef6 53bc bdae 85bc 9e93 4bbd b176 833c
00000120: bb28 90bd afdf a93d 9341 abbd 8300 063e
00000130: c1eb 1ebd e5f2 8cbd ffef 5a3c 46e2 2a3d
00000140: a6ae 913b e4c9 243e cd7d 943d 87f5 0ebe
00000150: 89b1 9abd dfe3 1ebd a414 ba3d 720b 0bbd
00000160: 46df 433b 6cf4 32bc 1802 8abd 52df 3bbc
00000170: ec40 7abc 6cd5 18bd bb52 923d b377 ba3b
00000180: 67c5 b9bc 98d0 22be bb4a d83d 7531 823c
00000190: a43a c1bd 04ec 4abd 82f1 17bd 01fb 613d
000001a0: b6e1 993d d1c6 f1bd 7658 f3b9 6bec f0bc
000001b0: 3182 8cbd c29c 23bd 197c 5bbd a95b 3cbb
000001c0: 10c8 31bd 6ba0 383c 2c5a d1bc 6ccc ef3c
000001d0: b386 33bd a676 9f3c c8e2 263d a058 223e
000001e0: cfb3 0fbd f818 3dbc 7fbf 0fbe 6010 753d
000001f0: dca8 d3bd f484 6cbd b82a 753c 0ee3 903b
00000200: 3c2f 223d 1e7f 813d 6d4b 1cbd 4d63 56bd
00000210: a77b ca3c f45d e53d b259 e3bd 78ad 6f3e
00000220: 0267 093d 0de2 13be c592 633b 690e 38bd
00000230: c2be 143d 06ce cfbd 8788 023e 7bb8 52bd
00000240: 8e49 023d fbed d1bd 9ae4 e53c 843c 3fbc
00000250: 766a 9b3c 37e2 fbbd 8b87 b73d 9de8 f43d
00000260: e13d 813c 2631 b23c 6458 833d 98e9 023e
00000270: 4161 a9bd d89f 3fbd 1089 e2bc c7ee 0fbe
00000280: 2edb 153d 5184 85bc 357f 823c 9d65 5abd
00000290: b192 07be dbd4 e0bc 45ba 993d 8a51 72bd
000002a0: 4932 4abd f88d 303d 052d 873d d3f2 4bba
000002b0: e662 913d d4bc 5cbd 21a1 4b3c 8d6d 0f3d
000002c0: 00e7 f93c 6b44 76bc f5f9 9c3c 85f7 bf3d
000002d0: 3cfb ee3d 62ad 8c3d e06b c53b 0bb8 063e
000002e0: 124d f73d e403 573d e243 223c 97f5 673d
000002f0: e596 383d 8ef5 f43c 0225 c5bd 375e 32bc
00000300: 1b0e 41bd e11b 43be 41e9 20bc abba 373d
00000310: 9a12 833d 2129 61bd 86f2 ab3c ade0 0ebd
00000320: e6c0 303d 34cd 09bd cc62 3e3d 9e82 d73d
00000330: d058 babd 2afe f6bd 3408 583d 75cb 0a3e
00000340: 4108 073e 62e5 1cbd 7ecb 9b3d e2d9 ae3d
00000350: cd05 8a3b 1e9c 3dbe 545e d1bd 1082 2ebe
00000360: bc06 7fbd f880 6ebc 5107 edbc 1be8 3bbd
00000370: 0910 acbc fd2e a03d 9aaa a5bd b40f e83d
00000380: a19e 363e 9d20 793d 1ee6 5e3d e7ed afbc
00000390: f4d5 c1bd 6c43 1bbe bd6e b9bc 4ad2 85bc
000003a0: c12b 823c ee98 33bc 009f 753d 8542 ee3d
000003b0: 1598 d6bc 723c 77bd 913e fdbd 3069 e2bd
000003c0: 6378 453d d2df e13c 95f9 6ebd 9cdf 3a3e
000003d0: f692 01bd bea0 b53d 82dd c63c 8138 2a3e
000003e0: cc97 09bd cd27 a3bd 3d05 11be 19d7 da3d
000003f0: 8ca4 933a 65a1 43bd 29c1 b0bd 2280 f33d
