AI Models/ReinforcementLearning/CarAgentv6.0.onnx (onnx, 333806 bytes, 7 tensors)

action_model._continuous_distribution.log_sigma f4 [1, 3]
00000000: db07 3bbe b495 34bf 614d 12bf
-0.18264715 -0.7054093 -0.5714932

action_model._continuous_distribution.mu.bias f4 [3]
00000000: b855 5e3c 865a 0bbc 04da 97bc
0.013570242 -0.008505469 -0.018536575

action_model._continuous_distribution.mu.weight f4 [3, 256]
00000000: adf9 943d fd0c 2abd a513 b53c 80e6 5c3d
00000010: 933c b0bd e86d 2a3d 6841 6b3d 5ab2 0abd
00000020: bdaa d73c b604 e3bd 1c2d 493d f897 993b
00000030: 0295 4b3d 3e6b 1fbd b87c 843c 3ae6 cbbd
00000040: c2b5 b4bd 11a0 84bd 0aa4 563d 898e 193d
00000050: 3391 293d 6d65 85bd 02fd 5d3d 4bfd 463d
00000060: 328d be3c 621b febc 8b8b 2d3d 46c8 03bd
00000070: 5477 13be f5ca a7bc 1fd0 853c 31cc 8ebd
00000080: a24a 883d c331 053d 37d8 373c 0e18 3a3d
00000090: 5bd4 003d 56a5 d3bc 492a f93c 3bf1 783d
000000a0: 563a f6bc b58d f5bc 34ee b53b 475d 803d
000000b0: 1fa6 18bd 582c 5fbd 2aaa 9e3c c4a9 bebd
000000c0: e06f 153d f24a 413d 653c 043d 2a9f c83c
000000d0: c69c b33c 2c9a 943d bc5e c7bc 8ceb 953d
000000e0: d514 673d 5d2b 3f3c 6404 e93b ec53 99bc
000000f0: 64f3 473c e056 7c3d 7241 743d 8ca1 b9bd
00000100: a21d b53c d96d 29bd ed4b 953d 60c8 ccbd
00000110: b601 df3a a326 773d 7e0b 293d d499 843c
00000120: 4922 af3c 6f8a 653d 0731 03bd 00fa d83b
00000130: 549d 7dbd 6ce4 823d afcf e2bd 9cc2 96bc
00000140: 4dc1 263d c74b a33d b5e4 a1ba 34c8 24bc
00000150: 143a 5d3d c0e6 2e3d 874f 4c3d 3b31 e4bb
00000160: 94f2 343d 3c98 3cbd ba7d f23c 93ad 6e3d
00000170: f91a deba 0e83 adbd 5b0c a83b 5cca c03c
00000180: 7216 153d a479 febd 7d7d 493d ad3a 2a3d
00000190: 8c5d 39ba 7586 7fbc b29e c0bb ddff 08bd
000001a0: e806 503d 32e3 423c 62aa dcbd 9be5 8b3c
000001b0: 89d7 5c3d 9995 eabc 11af 0e3d 7fa3 283d
000001c0: 62aa 533d 9f5d c73b afba 9abd 5709 fbbd
000001d0: 97b5 1abe 1bf1 4e3d 2f18 293d 600a 4e39
000001e0: a6bf 433d 1d7b 48bd f8cb a7bb ae80 5c3d
000001f0: cbad 46bd 5c14 373c a3a2 623d c706 7b3d
00000200: 3cd7 e0bb b948 4c3c f90b 3b3d f6b7 56bd
00000210: c8fa ab3c 5b34 103d bfb6 aa3d 8ad9 463d
00000220: b9a1 8bbd b872 733d df73 2b3d 3747 8c3d
00000230: 66db 333d 18df 4ebd bf54 753d 3def 803d
00000240: 6a97 1f3d 5568 413c 374e 703d 05d3 fdbc
00000250: de41 f4bb c83b 5a3d dab8 c7bc a4eb ffbd
00000260: eb9e 5ebd 9284 8bbd 628e 2cbd 8915 453d
00000270: ac1c 7dbb e5d4 7b3d 3b7e 0abc 8679 773d
00000280: 7dcd 523d 2a1e 6ebc 647d 6c3d 331f dc3c
00000290: e129 813d 9c35 85bd e2d1 983d 41fb e7bb
000002a0: c2cb 93bb 1a85 92bc d2c0 8a3d 63b8 423d
000002b0: a6f8 21bd a913 82bd 572d 0fbe 4d2d 54bd
000002c0: aee3 f0bc 799e 1f3d 0fef 633d f8a5 6dbd
000002d0: 3c8a 2bbd a33c f4bd 7e36 5abd a545 733d
000002e0: c46c 943c d2c7 973d 83e4 debc ffa8 783d
000002f0: 5cf3 383c 1f06 973c 7662 143d b0f3 0fbe
00000300: fc18 6ebc 6d87 c2bd eb89 933d 1778 1c3d
00000310: 908e 38bc ab40 fd3c 7ef6 a3bc 791a 5abd
00000320: 383a 4abd 9d16 c6bd e58f 343d d920 ab3c
00000330: 5cc3 473d 8271 6e3d 9777 a33c 2218 79bd
00000340: 3354 1c3d 8b3a dfbc 2bea 533d 49a7 773d
00000350: 3558 36bc a7d0 88bd b339 a6bd 424b 1cbc
00000360: 73e4 2b3c d5d7 a5bb 8627 cc3c 254c 5cbc
00000370: 12eb 76bd 9912 7bbd 82ac 063d af76 edbc
00000380: e97c e23c adbf 123d 85f6 443d 2cf6 6fbd
00000390: ef16 a13c f962 6b3d 6c19 8bbb 8cf1 803d
000003a0: d1fd d8bc 0970 6ebd 7b4e 923d 6394 d9bd
000003b0: 7037 b53c d544 023d 0e45 d8bd adf7 3f3d
000003c0: e149 833d 2b6e 993d fc04 5dbd 3e80 b53d
000003d0: 2b7b b73b ea42 5cbd e232 12bc 98c5 523c
000003e0: 4f34 9f3d 9325 bebd 745d 0c3d d880 623b
000003f0: 4c36 37bd c2f5 113d 0d84 8b3c e6c4 573c
0.072741844 -0.041516293 0.022104094 0.05393076 -0.086053036 0.04160872 0.057435423 -0.033861496
0.026326532 -0.11084883 0.049115285 0.0046873055 0.04970265 -0.038920633 0.016172752 -0.099560216
-0.0882373 -0.06475843 0.052402534 0.037489448 0.04139824 -0.06513486 0.054196365 0.048581403
0.023260687 -0.031018917 0.042369407 -0.032173418 -0.14400989 -0.02048252 0.016334591 -0.0697254
0.0665486 0.03251816 0.011220983 0.045433097 0.031452518 -0.025835674 0.030415671 0.06077693
-0.030057114 -0.029974798 0.0055520777 0.06267791 -0.0372678 -0.05448565 0.01936825 -0.09309724
0.036483645 0.047190614 0.03228416 0.024489958 0.021925341 0.072559685 -0.024337165 0.073203176
0.05641635 0.011668053 0.007111119 -0.018716775 0.012204025 0.061606288 0.059632726 -0.09064016
0.022108857 -0.041364525 0.07289872 -0.09999156 0.001701406 0.06033958 0.041270725 0.016186632
0.021378653 0.056040224 -0.032029178 0.006621599 -0.061917618 0.06391224 -0.11074769 -0.018403344
0.04071169 0.07973438 -0.0012351485 -0.010057498 0.054010466 0.04270053 0.04988053 -0.0069638765
0.044176653 -0.04604362 0.029600967 0.058271002 -0.0016945294 -0.08472262 0.005128426 0.023533992
0.03639836 -0.12425545 0.04919194 0.041559864 -0.00070711295 -0.015596022 -0.005878293 -0.033447135
0.050787836 0.011894988 -0.107746854 0.017077258 0.053916488 -0.028635787 0.034834925 0.041171547
0.05167616 0.0060841586 -0.07555138 -0.12257641 -0.15108334 0.050522905 0.04128283 0.00019649556
0.047790192 -0.048945535 -0.0051207505 0.053833656 -0.048505586 0.011174288 0.055330884 0.06128576
-0.0068615954 0.01246851 0.045665715 -0.052421533 0.020993605 0.03520618 0.08335637 0.048547305
-0.068179555 0.059435576 0.04185855 0.06849521 0.043910407 -0.050505728 0.059895273 0.06295631
0.03896276 0.01180466 0.05866834 -0.030984411 -0.007454141 0.053279668 -0.024380136 -0.12496117
-0.054350775 -0.06812395 -0.042127974 0.04811624 -0.0038621826 0.06148233 -0.008452947 0.06041863
0.0514655 -0.014533559 0.05773677 0.026870346 0.06306816 -0.06504366 0.07461907 -0.0070795123
-0.004510374 -0.017885733 0.06775059 0.047539126 -0.03954377 -0.06351406 -0.1398214 -0.051801015
-0.029405441 0.03896949 0.055647906 -0.05801961 -0.041879877 -0.11925628 -0.053274624 0.05939259
0.01811827 0.074111596 -0.027208572 0.060708042 0.01128849 0.018435536 0.036226712 -0.14057803
-0.014532324 -0.09498487 0.0720404 0.038200464 -0.011264458 0.030914625 -0.020014998 -0.053247903
-0.049371928 -0.09672282 0.04408254 0.020889686 0.048770294 0.05821372 0.019954486 -0.06081403
0.038166236 -0.027249595 0.05173699 0.06046227 -0.011129429 -0.06680422 -0.08116474 -0.009539427
0.010491478 -0.0050611296 0.02492119 -0.013445889 -0.060282774 -0.061297033 0.03287936 -0.028987257
0.027647452 0.035827328 0.04808666 -0.058584377 0.019664256 0.057467435 -0.004244974 0.062960714
-0.026488217 -0.058212314 0.07143875 -0.10624006 0.022121161 0.031803925 -0.10560046 0.04686706
0.06410576 0.07491716 -0.05395983 0.08862351 0.0055993996 -0.05377475 -0.008923264 0.012864493
0.07773649 -0.092845105 0.03426881 0.003456166 -0.044729516 0.035634764 0.01703074 0.013169503

network_body._body_endoder.seq_layers.0.bias f4 [256]
00000000: f327 ae3b 6526 9bbc 0a0a 93bc 7bfb ec3c
00000010: cd78 533d aa0c e03c 9bbb e83c 80c9 3dbc
00000020: d2b3 943b 5a6d b2bb 3707 4bbc 37fa 9c3c
00000030: a57d 0cbd 9f2d 883c feb4 b53c 9086 babb
00000040: 841b 2eb8 f9ac 173c 1475 0d39 bc5f d238
00000050: c96d 533c 35d4 ff3c 03e9 47bc 5daa 113c
00000060: 6713 48bc a958 5cbd 0704 b5bc c805 11bc
00000070: c480 203d 18be b8bb edd2 b2bc 9239 84bc
00000080: 148e dd3b f1c5 9c3c 8c38 68bd 5a32 283c
00000090: da9c 8a3c b54e 0d3d 98fe df3c 2e5f e63c
000000a0: 947b 093d 9c38 fe3c 56b8 35bc 4b38 03bd
000000b0: 2dc4 efbb 6983 afbc aa25 1d3c 6bb3 6f3b
000000c0: 7dcb 8a3d f03c 093d 7e92 093d 5141 583c
000000d0: a217 623c 1646 41bc 7196 c93c 8cb4 073d
000000e0: 7bbe ca3c 3bd8 383c 0185 fabc 0f42 a63c
000000f0: a581 d83c 4fa0 7cbc 6132 4c3c b481 debb
00000100: 44db b13c e8ab a7bc 2b56 28bc 2045 143b
00000110: 32e3 713d 7ee2 76bb c654 84bb 9df9 b73a
00000120: 88c5 7fbc d58a c53c f763 26bc d050 19bd
00000130: 678a e93c 8665 d8bb 8e2c b1b7 f065 c33b
00000140: 951f ec3a 0219 97bc 81e1 613d 7fc7 823b
00000150: 364c 2b3d 078e 2d3d 9099 3dbc 0724 a5bc
00000160: 7ed8 933c 8c01 803c 3e11 873c fe79 5b3c
00000170: b571 29bd b101 e639 9df9 8a3c 1814 26bc
00000180: 28a4 013d 4e87 283d 993b 4a3d f77e a23c
00000190: 07f0 993c a802 873b 2c79 1b3b fbd3 bc3c
000001a0: 2a5c 4c3d 0d00 2cbc a34b 3c3b 4231 e6bc
000001b0: d94f babc 815d 0ebd 16be 23bc 71cd 383d
000001c0: a3ed b33c f617 10bd 91c3 b13c 631e bb3c
000001d0: 5a1f 433d 54a8 7a3d 66e9 233d f528 eeba
000001e0: 293d bf3c 1db9 3e3d df46 36bc b508 ed3b
000001f0: 9cdf d338 2548 2b3d b543 823c c770 a43c
00000200: 8edb 873c c70c cf3c 2318 7a3c 2f2e cb3c
00000210: d22e e73b af8d 14bc 30cc c63c 4e06 7bbb
00000220: 1e6e 8d3d 6c30 babb abc3 2b3b b651 3b3d
00000230: 5233 6d3c 08dd 083d 2a03 8e3b 3afb 9f3c
00000240: beff 0b3d 6a43 2eba 3cf6 38bb e89b ed3b
00000250: 24fa 7abc 3e10 ae3c 47aa 023c 1726 eabb
00000260: b070 233d 9740 0bbb 7932 513c 7327 c6bc
00000270: bcac 473d c7bf ba3c 3870 473d 89a6 d03c
00000280: da1e 8bbc 39a4 d2ba e0b5 cf3c 2695 923b
00000290: ff32 453d 26f1 353d bd6a 473c 0abf 2a3d
000002a0: d3f0 7b3c 0944 313c fb26 493c fbbd 083d
000002b0: 1d10 753d 6f08 bdbc 7153 a03c 4143 833d
000002c0: 6d67 29bb 0ef4 ab3c 32ae 50ba 4ba2 323c
000002d0: 66d9 b7bc a65e 7abb 825f 183d 3b9d 00bc
000002e0: 6759 583b b15e 25bc 5ace 983b 8957 0c3d
000002f0: fe2d 2f3c 5712 103c 7390 013c 5442 bf3c
00000300: 6c2c 14bc 6345 4a3c 4a89 093d 45dc 87bc
00000310: 2826 f43c 9188 0e3d 98e2 50bd ace9 eebc
00000320: 1d86 313d 8548 0d3d 037d 143a 7813 a43c
00000330: d776 383c 60f2 9e3c 121b 8f3c 9964 143d
00000340: 21f5 e13c a865 963b 8548 ab3b 6684 8b3c
00000350: 98ee f73c 9572 0bbb 3dc2 273d 43f4 eabc
00000360: 2ba5 80bc 04b7 193b dc2c b83c fd11 a4bb
00000370: 7bca f9bc ab52 6bbc 7abc 443d 8a84 873b
00000380: b21d a6bc 8393 4c3b 816f d13c 3875 493d
00000390: cba6 52bc fe29 913c 5167 a03b 1277 af3c
000003a0: aca0 c33c f6f3 cf3c f3a7 3abd d849 013d
000003b0: 9cd1 893c 891c 3a3c bd49 273c f993 6b3d
000003c0: b1f6 95bc bd32 c23b aca7 633d 62c2 8f3c
000003d0: 4d35 8ebc d91e e43c 1583 de3c 75e1 a63c
000003e0: cf8c bcbb c366 f8ba cce6 18bc d67d 43bc
000003f0: 4c9b 943b 1572 a13c 6b32 22bc 0467 963b
0.005314821 -0.018939206 -0.017949123 0.028928509 0.051628876 0.027349789 0.02840977 -0.011583686
0.004538038 -0.0054451646 -0.012391857 0.01916228 -0.03429951 0.016623316 0.02218103 -0.0056923106
-4.151046e-05 0.0092575485 0.00013490423 0.00010031412 0.012904593 0.031229118 -0.01220155 0.008890715
-0.012211657 -0.05379549 -0.022096647 -0.008851476 0.0391853 -0.0056378953 -0.021829093 -0.016140733
0.006761322 0.019137355 -0.056694552 0.010265911 0.016920496 0.03449889 0.02734308 0.028121557
0.03356512 0.031032853 -0.011091312 -0.032036107 -0.007317087 -0.021424966 0.009591499 0.0036575447
0.067770936 0.03350538 0.03358697 0.013199166 0.01379958 -0.011796495 0.024607869 0.033131167
0.024749031 0.011282022 -0.030581 0.020295171 0.026429007 -0.01541908 0.012463183 -0.006790364
0.021711 -0.020467713 -0.01027445 0.002262421 0.05905456 -0.003767162 -0.004038426 0.0014036183
-0.01561106 0.024114052 -0.010155669 -0.037430584 0.028508378 -0.0066038994 -2.1120792e-05 0.0059630796
0.0018014783 -0.018444542 0.055146698 0.003991067 0.041820727 0.042371776 -0.011572257 -0.02015878
0.018047567 0.015625738 0.016487714 0.013395784 -0.041368205 0.0004387028 0.016964728 -0.010136627
0.031650692 0.04114466 0.049373243 0.019835932 0.018791212 0.0041201897 0.0023723347 0.023050299
0.049892582 -0.010498059 0.0028731606 -0.02809966 -0.022743152 -0.03475714 -0.0099940505 0.0451178
0.0219639 -0.0351791 0.021699699 0.022841638 0.04763732 0.061195686 0.040017508 -0.0018170165
0.023344593 0.046563257 -0.011125295 0.007233704 0.000101029145 0.04181685 0.015901426 0.020073308
0.016584184 0.025274647 0.015264544 0.024802295 0.007055142 -0.009066983 0.024267286 -0.0038303318
0.06905769 -0.005682042 0.0026209156 0.045732222 0.014477568 0.033413917 0.0043338733 0.019528974
0.03417944 -0.0006647619 -0.002822294 0.0072512515 -0.015318427 0.02124798 0.007975168 -0.007145654
0.03990239 -0.0021248215 0.012768381 -0.024188733 0.048748717 0.022796525 0.048691005 0.025470035
-0.016982485 -0.0016070671 0.02535528 0.0044733463 0.048144337 0.04441943 0.0121714445 0.041686095
0.015377241 0.0108194435 0.01227736 0.033384304 0.05982982 -0.02307531 0.019571038 0.06409312
-0.0025849 0.020990398 -0.00079605274 0.0109029515 -0.02244253 -0.0038203388 0.03720046 -0.007849987
0.0033012272 -0.010093377 0.004663271 0.034263168 0.010692118 0.008793435 0.0079079745 0.023347057
-0.009043794 0.012345645 0.033578195 -0.016584525 0.02980335 0.03479821 -0.050997347 -0.029164158
0.04334079 0.03449299 0.000566438 0.020028815 0.011258802 0.019402683 0.017468963 0.03622875
0.027582707 0.004589755 0.005227151 0.017030906 0.030265138 -0.0021278013 0.040956724 -0.028680926
-0.015703758 0.0023455033 0.022482328 -0.005007027 -0.030492058 -0.014362971 0.048031308 0.004135673
-0.020277832 0.0031215854 0.025565865 0.049184054 -0.012857149 0.017720219 0.004895129 0.021419082
0.023880325 0.025384884 -0.045570325 0.031564564 0.016823582 0.011359342 0.010210452 0.057514165
-0.018306108 0.0059264586 0.055579826 0.017548744 -0.0173594 0.02784674 0.027162114 0.020371178
-0.0057540904 -0.0018951524 -0.00933237 -0.011931857 0.0045351144 0.019707719 -0.009899716 0.004589917

network_body._body_endoder.seq_layers.0.weight f4 [256, 63]
00000000: 4c6b 783e 5d69 11be dabd a03e d21a 073e
00000010: 11bd 97bc 2c2c dd3d 5580 453e b567 94bd
00000020: 41b7 153d abfa 623c d92c b23a 47f2 17be
00000030: 85c3 a63d 2278 d23c c4f0 b4bd 39e2 c3bd
00000040: 24e4 92be 4b93 10bd 87b0 80be 5900 893e
00000050: 348a 013e 7cf6 2cbc 5b86 b23d d0b8 62bd
00000060: 1cce a93c e7a2 7dbd 839c 12bd 4920 e63d
00000070: 86dd 62be 3410 a33e bd7e 383e 4915 a3bc
00000080: eb52 93be 7a52 d23e 92cb b63d bd37 e4bd
00000090: 5320 1c3e b43e 5ebe a70e 4ebe 4d4b 233e
000000a0: 433f fe3c 9d3c 4fbe c3a3 273c df82 593e
000000b0: 5e4d 6abd 354a bcbd 4e26 45bc 7fdf cdbd
000000c0: 89be 11be da4f 4c3e 0de2 78bd fb56 a4bc
000000d0: 99c4 1c3e 312d 473d 1ab6 07be 9195 44bd
000000e0: 25dd a1bd f25f c7bc b48b 583d 3a6d eb3d
000000f0: 125a c23d ae12 b73d 1b79 33be 2b35 c83d
00000100: b94b 80bb 19b3 11be 8295 c43d ede3 52be
00000110: ae43 bdbd 5219 bbbd 9443 a3be 7dad 20be
00000120: c415 65be ac05 993d ada8 023f 00dc 1abe
00000130: 9123 2d3b 840f a0be 3534 9d3d 1d8b 213d
00000140: 4129 1bbc b64c 1fbe abc5 023e 8438 b8bc
00000150: 3ec1 babd 58e4 563d d7e3 0bbe 6f76 bcbe
00000160: b255 f53d cba5 31be b9d5 ae3d 7ed2 f2bb
00000170: 62bb 1f3e 987b 853e 9141 eb3d 11d7 21bc
00000180: 0737 2dbd 911e 19bb c29f 55bc 5138 38bd
00000190: 02a9 ca3d 4692 49be a2d7 bbbd a102 d43e
000001a0: 70c7 a93d 57ac 163e d899 933d 3414 53bc
000001b0: 15a5 04bd 1ab9 6b3d 5f74 26bd 7ec6 aa3d
000001c0: 9d13 45bd 2000 fa3d 3a05 fe3d 27fd 00bc
000001d0: 4457 613e cef1 d8bd aa21 2ebd ffdc 64bd
000001e0: f814 a03c 30f0 27bd c7d8 7ebd 5254 8c3e
000001f0: 9d34 2cbc a956 6ebd e6f5 703e d02b ffbd
00000200: 1a35 b2bb 8d0e 99be 226f 81be 131f 34be
00000210: a592 03bd 3551 e6ba 74e4 6e3c 75e4 ffbd
00000220: 7190 01bd d1e0 21be 27c2 3fbe 0fc6 453d
00000230: 0638 233d dab1 84bd 4891 8f3d a46f ac3d
00000240: da44 c13e e8a6 9abd 62c5 5c3d 5f84 66bd
00000250: af3a 8a3d 45ad 45be 8542 f1bd ecc6 2c3c
00000260: 72fd 28be 6fec 9e3d 6c41 893e b6ba 87bd
00000270: d68e 583d 4de5 61bd b701 f53c 958b 60bc
00000280: 2ba6 453d 0e79 953e d488 163e 989b b73c
00000290: f45d 6b3e 33aa 1e3d 0c79 12bd 1674 bebd
000002a0: 1192 3fbe 3814 08be 0069 ac3d 5d7c 673e
000002b0: ed90 35be ce9c 71be 81fb b1bd 7321 bcbd
000002c0: f400 463d 3078 093d 8898 48bd 6b92 b6bd
000002d0: fd72 07be 535e f1bc 97a2 31bb 32aa 073d
000002e0: 229e 033d b73f 673e afde 403e 969a dcbc
000002f0: fba2 40be b404 073e f62b ddbd fbb5 273e
00000300: 18bc 7abd bad9 9f3e db68 853e 357f 343d
00000310: 98b2 593e f391 8bbd e7e5 dd3d 88d2 afbd
00000320: 1fd9 3dbe 6dc9 09bd d406 a3be 066f b4bd
00000330: 7dc2 1abd 390d 06be bf4b 6d3c 02c0 2dbc
00000340: 49dd cebd c257 bebd d7c1 8bbe c085 a6bb
00000350: ebb3 85be d687 c8bb 4d5e 7c3e 60c8 bebd
00000360: 1e7e fdbb 2d16 843e e346 383c 65b6 363c
00000370: a74a 083d ceb2 74be ac63 883d de51 783d
00000380: 0b00 8d3e 08f9 583e 7155 f03c 71d8 4cbe
00000390: 1b7b 9a3d 7cc9 4ebd 060d 363d 993d adbd
000003a0: 2db8 88be 7738 843d ba01 9fbd cca4 e7bd
000003b0: faab 223e 6784 2fbc 2c82 08be ff78 09bd
000003c0: 1d63 d8bc 1f1a 803d 8edc 86bc 4044 f53d
000003d0: fc04 163b d2cc 9e3c a57f 533e 9048 3bbe
000003e0: cedf 84bd 7c45 d73d 7b43 e7bd aee8 cabd
000003f0: edce f53d fb67 633e 7469 cd3d 6a70 7ebd
0.2425968 -0.14200349 0.31394845 0.13193825 -0.018522771 0.10799441 0.19287236 -0.07246343
0.036551718 0.013853709 0.0013593688 -0.14838515 0.08142761 0.02569205 -0.08834985 -0.09564633
-0.28689682 -0.03529672 -0.2513468 0.26758078 0.12650377 -0.010556813 0.087170325 -0.055352032
0.020728163 -0.061922934 -0.035793792 0.11236627 -0.22154817 0.318483 0.18017097 -0.01990761
-0.287742 0.4107855 0.08925547 -0.11143444 0.15246706 -0.21703607 -0.20122777 0.15946694
0.031036025 -0.20237966 0.010231915 0.2124133 -0.05720269 -0.09193841 -0.012033058 -0.10052394
-0.1423284 0.19952336 -0.060762454 -0.020061007 0.15309371 0.048627082 -0.1325306 -0.0479942
-0.07903508 -0.024337742 0.052867606 0.11495443 0.09489836 0.0893911 -0.17526667 0.09775766
-0.003915277 -0.14228477 0.09598829 -0.2059476 -0.092414245 -0.09135689 -0.31887496 -0.1569118
-0.22371584 0.07471785 0.5103863 -0.15122986 0.0026418904 -0.31261837 0.07675973 0.03943931
-0.009470285 -0.15556607 0.12770717 -0.022487886 -0.09118889 0.05246386 -0.13661133 -0.36809108
0.11979236 -0.17348401 0.08536858 -0.0074103465 0.15598825 0.26070857 0.11487115 -0.009877936
-0.042288806 -0.0023364166 -0.0130385775 -0.044975583 0.09895517 -0.19684705 -0.09171988 0.41408256
0.08289993 0.1471418 0.07207078 -0.012883235 -0.032383997 0.057549573 -0.040638324 0.08338641
-0.048114408 0.12207055 0.12403341 -0.007872856 0.22005945 -0.105929956 -0.042512573 -0.05587482
0.019541249 -0.041000545 -0.062218454 0.2740808 -0.010510591 -0.058188114 0.23531303 -0.124595284
-0.005438459 -0.29893914 -0.252801 -0.17589979 -0.032122273 -0.0017571809 0.014580835 -0.124947466
-0.03163189 -0.15808417 -0.18726407 0.048284587 0.03984835 -0.06479235 0.07010132 0.08419731
0.37747842 -0.07551366 0.053899176 -0.056278583 0.06749474 -0.19304378 -0.11780266 0.010545474
-0.16502932 0.0775994 0.26807725 -0.06627409 0.052870594 -0.05515032 0.029908044 -0.013705154
0.048254173 0.2919392 0.14700633 0.02241306 0.22985059 0.038736533 -0.03575997 -0.092994854
-0.18708064 -0.13288963 0.08418465 0.22606035 -0.17731066 -0.23594972 -0.08690549 -0.091860674
0.048340753 0.033561885 -0.04897359 -0.08914646 -0.13227458 -0.029463923 -0.0027104968 0.033121295
0.03213323 0.22582899 0.18834947 -0.026929181 -0.18812172 0.13185388 -0.107994005 0.16378014
-0.061214536 0.312208 0.2605656 0.044066627 0.21259534 -0.06814947 0.10834866 -0.085850775
-0.18539856 -0.03363936 -0.31841147 -0.088102385 -0.037783135 -0.13090982 0.014483391 -0.01060486
-0.101008005 -0.09294082 -0.27296326 -0.005081862 -0.2611383 -0.0061197085 0.24645348 -0.09315562
-0.0077359816 0.2579817 0.011247369 0.011151885 0.03327432 -0.23896334 0.06659636 0.06062495
0.27539095 0.21188748 0.029337617 -0.20004441 0.07543012 -0.05048512 0.044446014 -0.084590144
-0.26703015 0.06456082 -0.07764001 -0.113107294 0.15885916 -0.0107127195 -0.13330907 -0.033562656
-0.026414448 0.06254982 -0.01646259 0.11975908 0.0022891155 0.019384775 0.20654161 -0.18289399
-0.06488 0.105113 -0.11292168 -0.099076614 0.120023586 0.22207634 0.10029879 -0.062118925

network_body._body_endoder.seq_layers.2.bias f4 [256]
00000000: 7bab 213c 1824 393b aa66 b93c 6edd 7d3c
00000010: b789 da3c 5e40 00bc 856b d0bb 4d28 1d3c
00000020: bd7e 5d3a fb4e 7e3c c2ca 59bb cd90 6b3c
00000030: 8288 463c 6450 0b3d 65ba 59bc 721d 323c
00000040: ae9c 923b f103 81bb 40ca 3c3c 6521 2a3c
00000050: a320 b0bc 4ad4 9f39 e33f c6bb 6ef1 433c
00000060: 3c68 7bbc adbc bebb 0504 593b 3d6e 6b3c
00000070: 9b40 cd3c a272 c93b d508 6dbc 6810 40b9
00000080: 1825 1f3c 7f09 903b 37e7 913b a647 663c
00000090: dcf0 5abc e1e0 19bd d6a3 5f3c 5526 eeba
000000a0: f37f 743c 0bdf 553c 2b56 d73b ea7b c0bb
000000b0: 9794 ad3b 1eb2 743b b470 673b e87c 393c
000000c0: 6b5b 913c 9330 dbbb d5c9 5c3c 71cd 8ebb
000000d0: 3bdd e23b e6a4 46bc dde6 403b 7e99 7c3c
000000e0: fad1 4c3b 50ef 1eb9 0977 0d3d 7989 5fbb
000000f0: 3168 233b 448c 253c 9232 693c 577d 1b3c
00000100: 92d1 4f3c 8b89 5e3c 92c2 473c 1866 f73c
00000110: c44d 3b3c ad6c 2c3b f6ab 663b 8282 a73a
00000120: 0bec 163b c836 9d3b e054 5bbc f10c 953c
00000130: 0dd1 c9bb 966a 193c 33e9 cc3c bbb9 893a
00000140: 3327 86bb b0f5 7bbb 5fd3 953c 169e f53b
00000150: 1d4a 533c d4c0 20bc 4e29 1d3a 96ab 7e3d
00000160: 621b df3b 22fa 463d 7166 28bb f878 323b
00000170: 6502 d7bb 98b6 053c 6930 573c 30aa b23c
00000180: a44d ac3c 6739 2e3d f676 c8bc fd82 b4bb
00000190: 667b 713b 8604 88bc cf71 a0bc a499 26bc
000001a0: ce6f bb3b 322b 883c 4223 df3c de74 19ba
000001b0: 0bd5 f73a c5f0 a23c acae b6ba 0e1a 28bc
000001c0: ecbb 2e3c 869e a13c 5072 c83c 22a0 3c3d
000001d0: 8c0c 613c 0dd8 3abc 6d9a 303a f20c c63b
000001e0: a610 003b 7f6d 043d 235b 113c 5e91 c23b
000001f0: d187 ec3c ddc9 86bc bbfb c9bb 6955 323c
00000200: 2e30 da3b c3c2 b7bb 8d9d bdbb 52f5 2e3c
00000210: 7a51 b63b 0a03 233c c519 be3b 5f87 4ebc
00000220: 8a5b c73c 65a4 76bb 3f97 a2bb b6a0 183c
00000230: c853 9ebc dfcc b1b9 d12f 8ebb e0e4 b5b9
00000240: 6ef2 2a3b c02c a9ba b1d9 ba3c d0a6 24bd
00000250: 24ca d53a 6cb9 f73b dd00 9a3c 13ac 943c
00000260: 2940 3a3d 2382 f93b 1de8 51bc 831a b6ba
00000270: 4f1f 493c 3b56 e23b d30b a5bc 9a8c 453b
00000280: c796 cc3b 27d6 f03b 6086 693c 1565 013d
00000290: 8919 a03c 0d05 243d 98b6 873c 1d75 3e3d
000002a0: 3a89 c23b fa89 acbc 18b5 a23b 798e dabb
000002b0: 6921 d039 abc7 cd3b 2d18 b1ba ec02 493b
000002c0: 9119 01bb 33d4 8c3c 4939 153c abd6 573c
000002d0: 429c 013c 9c1a e63c 3b13 dd3c 3a63 3c3b
000002e0: 3fe4 76bc 892a 843c 9278 4d3c 4b6d ea3b
000002f0: 3484 d3ba cac3 a23c ab8b bcbb 8b3d d43c
00000300: f07c f13c 1e24 933c 4e63 423c f218 8abc
00000310: 1121 123b 78a0 e6ba b031 c03a 2a7b 183c
00000320: c5d3 e7b8 65fe 593c c1a3 b3ba 3822 cf3b
00000330: 3578 b03b 5309 cdbb be6c a63c b251 0d3d
00000340: 89e7 a63a 6c3a 4d3c 1eff a2bb 8871 053c
00000350: 3046 bb3c d37f 533b 9a2c f83c b3b6 cc3c
00000360: 1ef5 22bd 89a8 823b f494 e2bb 3368 d73b
00000370: eaaa 383c 98cb 9f3b 4c9b 2bbc 5133 b63c
00000380: ffc7 bbbb e7b8 7b3c 26a0 583c 80f5 a2bb
00000390: 27c4 cc3b 949b 0c3c 4b26 c83c 64ad d53b
000003a0: 4599 e03c d2d5 91bb 134f ce3b e924 133c
000003b0: 091b e4bb b656 5fbd 0a18 9c3b 75c8 273c
000003c0: eb29 533c fa5b 6a3a 99fd 823b 46b2 243c
000003d0: 16d1 273d bb74 193d 153f bf3c af22 5dbb
000003e0: fe47 aa3b 42b7 2d3b 63b2 8c3c 1c5d 4b3c
000003f0: 8a1f 6b3b 481f 68bb c738 f93b 6c81 073d
0.009867544 0.0028250273 0.022631962 0.0154946875 0.026676996 -0.007827846 -0.0063604736 0.009592128
0.00084493664 0.01552176 -0.0033232425 0.014377785 0.012117507 0.034012213 -0.013289069 0.010871278
0.004474244 -0.0039372374 0.0115228295 0.010383938 -0.021499937 0.0003048501 -0.0060500964 0.011959417
-0.015344676 -0.0058208317 0.0033113968 0.014369545 0.02505522 0.0061476985 -0.014467438 -0.00018316659
0.009713434 0.0043956633 0.004452612 0.014055168 -0.013363089 -0.037567977 0.013649901 -0.0018169383
0.014923084 0.013053666 0.0065715513 -0.0058741467 0.0052972543 0.0037337611 0.003531498 0.011321284
0.017743787 -0.00668914 0.013475855 -0.0043579866 0.0069233454 -0.012124276 0.002943448 0.015417455
0.0031253085 -0.00015157205 0.03453735 -0.003410904 0.002493393 0.010104243 0.014233248 0.009490333
0.012684243 0.0135825975 0.012192385 0.03020005 0.011432115 0.0026309893 0.0035197712 0.0012779983
0.0023028876 0.00479779 -0.013386935 0.018194648 -0.006158954 0.009363791 0.025013542 0.0010507623
-0.0040940284 -0.0038446002 0.018289266 0.007495652 0.012896088 -0.009811599 0.00059952296 0.062175356
0.006808684 0.04857839 -0.0025695825 0.0027232748 -0.0065615647 0.0081612095 0.0131341005 0.021809667
0.021033116 0.042535212 -0.024470787 -0.005508779 0.0036847233 -0.01660372 -0.019585518 -0.010168467
0.0057201153 0.01662216 0.027238492 -0.00058539014 0.0018908096 0.019890198 -0.0013937554 -0.010260118
0.010664921 0.01972891 0.024468571 0.046051152 0.013735902 -0.01140405 0.00067368784 0.0060440237
0.0019541173 0.032330986 0.008871826 0.0059377393 0.028873356 -0.016453678 -0.006164042 0.010884621
0.0066585755 -0.005607934 -0.005786604 0.010678606 0.005563912 0.009949455 0.005801412 -0.012605517
0.024335641 -0.0037634608 -0.0049618776 0.00931566 -0.01932706 -0.00033912712 -0.0043391963 -0.00034693535
0.002608444 -0.0012907013 0.022808881 -0.040198147 0.0016310853 0.007559946 0.01879924 0.018148458
0.045471344 0.0076143905 -0.012811688 -0.0013893399 0.012275531 0.006907252 -0.02014724 0.003014362
0.00624356 0.0073497477 0.014253229 0.03159054 0.019543426 0.04004388 0.01656656 0.046498407
0.005936769 -0.021061886 0.0049654357 -0.006669816 0.00039697744 0.006279906 -0.0013511233 0.0030671908
-0.0019699077 0.017191028 0.009107896 0.013173739 0.00791079 0.02808886 0.026986709 0.0028745667
-0.015069067 0.016133564 0.012540953 0.007154142 -0.0016137422 0.01986875 -0.0057539544 0.025908252
0.02947852 0.017961558 0.011864496 -0.016857598 0.002229754 -0.0017595431 0.0014663246 0.009306708
-0.000110543835 0.013305281 -0.0013705419 0.006321218 0.0053854235 -0.006257215 0.020315524 0.03450174
0.0012733798 0.012526136 -0.00497426 0.008144744 0.022860616 0.0032272234 0.030294705 0.024989462
-0.039784543 0.003987376 -0.0069147293 0.006573701 0.011271218 0.004876565 -0.010474037 0.022241266
-0.0057306285 0.015363908 0.013221776 -0.0049731135 0.006248969 0.008582015 0.024432322 0.006520914
0.027416835 -0.004450538 0.0062960475 0.008980968 -0.0069612307 -0.054526053 0.004763608 0.010240664
0.012888412 0.0008940097 0.0039975164 0.010052269 0.040970884 0.03746484 0.02334551 -0.0033742597
0.0051965704 0.0026506935 0.017174905 0.012412336 0.0035876953 -0.0035419036 0.0076056453 0.03308241

network_body._body_endoder.seq_layers.2.weight f4 [256, 256]
00000000: f3c7 933d 530a 96bd 19b1 a6bb 5abf 34be
00000010: 256d 89bd 7a27 1c3c f6c7 44bd cd22 313d
00000020: 3877 2b3d 46d7 763d 12eb 4cbd b633 cbbd
00000030: 79d6 dd3c c52b ae3d 5a05 a03d b9d1 043e
00000040: 6d3c b23d 0f07 4abd 94ac 193a 7996 9e3c
00000050: 3e98 2b3e 8172 ddbd de3e 5f3d df31 a4bd
00000060: 9d8d 953d 7a03 1ebe 70b5 a63d 0cb6 da3b
00000070: a00a 123d a73c 08bd b53c a83c e00a 1e3e
00000080: 2d21 05bd 423b 253e 74d7 663c 5c63 ee3c
00000090: 1193 07be cb4f fb3d 17c2 eabd b329 7bbc
000000a0: c11c c63d e34d c33d 0d79 a53d d77a 08bd
000000b0: e4a7 a73d 2bcc c23d 6dd6 60bc f2ef fabd
000000c0: 476d 83bd c257 25be f884 77bd be26 9abd
000000d0: a9fc 153e 3ed8 de3d 7d37 f0bc 1d99 8dbc
000000e0: 6083 e7bd 4ed6 b03d 7c71 133e cd7c 13bd
000000f0: a134 2ebd 489d f53d b96c 713b cc40 04bd
00000100: 0352 133b 1ab5 bd3d 818f 563c c165 3a3d
00000110: effb 3abd d3e8 cd3d bd8b 193e ef96 15bd
00000120: db57 163c 80f5 ff3c e7b6 7ebd dfaa ccbd
00000130: a1f3 883d 208c 513d 7a5d b83d b7c1 073d
00000140: b5b6 61bd b492 a43c 9724 593c bd49 9c3d
00000150: 6e2a 76bc b246 44be a05a 233d 2619 943c
00000160: 6e90 bf3d 3436 a1bd b239 b6bd 7884 633c
00000170: 2bab 3d3d 7834 8fbd c42c 6dba 0711 443d
00000180: 31e6 553d 0077 22bd 5b91 70bd 41cd 2d3d
00000190: dff7 493d 09e4 4b3d d7d1 313e 31bc 26bd
000001a0: b9ea 3ebe f789 7f3b c762 0f3d 91e6 943d
000001b0: 9d42 0c3e 56ff a83d 13df bc3b 6df7 a2bd
000001c0: b060 8c3d 8352 ce3c f1c4 02bd bea1 d1bd
000001d0: 063b 90bc 278b 12be bb54 8f3d b556 2cbc
000001e0: 21aa ca3c c9cd d2bc 6cf3 65bd b840 f03c
000001f0: 776b 2bbd 4d7c abbc 0816 cebb 1bac 463d
00000200: 8b7f 8f3c 2d7a 913c 5dac e43c 516b e3bd
00000210: bf79 103e 4040 8e3d d840 fb3c 93ff 4fbd
00000220: 8041 c6bd 060f 9d3d dc3d f23c e7b2 95bd
00000230: d2d8 e9bc 87f6 15bd c290 ebbc acb5 1cbe
00000240: 7f46 1abd 4f10 353d efb9 edbb 2413 a73d
00000250: c891 2c3c 8905 84bd 1391 783d b879 fd3d
00000260: d2d3 51bd 713c 453d 57ef 993d 2ba7 c13d
00000270: 1a9d dcbc 73d5 f6bd 1293 af3d 4cb5 97bd
00000280: 2151 423c 3fef 4d3c 0582 f9bc 6330 1d3e
00000290: aa6c 42bd 0e10 bebd 8033 753d b988 64bd
000002a0: 4d85 b4bc 02ec a0bd f9cb 62bc ac62 8e3d
000002b0: ee30 8d3d f8da 17bc d6bb e5bd e6ca d6bd
000002c0: acca 02be 9e82 193d b512 9d3c 658e 6abd
000002d0: d382 21bc c717 453c f2b1 013d 1148 b03c
000002e0: 09d6 c8bc 8ba4 66bb 06e7 b43d d9b6 bc3c
000002f0: 6433 953c 62c8 dc3d 9f22 66bc e9d9 393c
00000300: d548 923d 722c 5abd bae7 f3bc db11 e2bd
00000310: b328 cfbc e177 b5bc bd30 0fbd 3d84 9cba
00000320: 4715 22bc fde5 553d 76ce c93d f624 4c3d
00000330: d6a4 523b 3c74 9d3c aa9b e83d 0952 773d
00000340: 7890 103e 7e30 aeba 0d89 b13d cabe e2bb
00000350: 3ea7 28bd fdf1 993d 3c7b 66bc 533d d63d
00000360: d475 afbc 174a 173e e772 00be 9786 5fbc
00000370: 99c2 84bd 5dd9 c73d f0ce 01be 75d1 0e3e
00000380: 0c72 6bbd fd1f 5b3b 6689 a8bd e73e 32bb
00000390: 442e 843c 2e7f 8ebd eb26 cebd bcc7 febc
000003a0: 31f5 de3d 8c2b 63bd c9c3 1a3e bf98 fbbd
000003b0: 606b f63c e39d ad3d feaa a8bd edd6 193d
000003c0: f6b1 a2bd 8a2f dfbd 5113 dd3a 79b8 29bc
000003d0: b7a0 7db8 e7b8 783d c53b 873c ef7a ef3d
000003e0: 1911 d03c d816 6cbc def2 043e 4d90 883c
000003f0: dc4b 9b3a b6e4 853d a0c3 cc3d e040 503e
0.07215872 -0.07326188 -0.0050870297 -0.1765112 -0.06710271 0.009530896 -0.04804226 0.04324608
0.041861743 0.060263894 -0.050028868 -0.099219725 0.027079808 0.08504442 0.07813521 0.12970628
0.087029316 -0.049323138 0.0005862203 0.01935886 0.16757295 -0.108128555 0.054503314 -0.08017325
0.07302401 -0.15431014 0.08140075 0.0066745337 0.035654664 -0.033260968 0.02053676 0.15433836
-0.032502342 0.16135886 0.014089454 0.029100113 -0.13239695 0.12271079 -0.11462801 -0.015329766
0.09673453 0.0953634 0.08079729 -0.033320274 0.081863195 0.09511598 -0.013722998 -0.12252797
-0.064173274 -0.16146758 -0.060429543 -0.07526921 0.14647163 0.10881089 -0.029323334 -0.017284924
-0.11304355 0.086346254 0.1439876 -0.03600769 -0.04253066 0.1199289 0.0036838485 -0.032288358
0.0022479303 0.09263058 0.013095737 0.045507196 -0.04565042 0.10054173 0.14994712 -0.036520895
0.00917622 0.031244993 -0.062186148 -0.099935286 0.066870935 0.051159024 0.09002204 0.033143725
-0.055105884 0.020089485 0.013253353 0.07631252 -0.015024764 -0.19167593 0.03988135 0.018078398
0.0935372 -0.078716666 -0.08897723 0.0138865635 0.046305817 -0.069924295 -0.0009047503 0.0478678
0.05222148 -0.03966427 -0.05873237 0.042432074 0.049308654 0.04977802 0.17365204 -0.040706817
-0.18644227 0.0038992146 0.03500631 0.072705396 0.13697286 0.082518265 0.005763897 -0.07957349
0.06854379 0.025185829 -0.0319261 -0.10235928 -0.01760627 -0.14310895 0.06998583 -0.010518719
0.024739327 -0.025732892 -0.05614035 0.029327735 -0.041850533 -0.020933295 -0.0062892474 0.048503976
0.017516872 0.017758453 0.02791422 -0.11104453 0.14108942 0.069458485 0.030670568 -0.050780844
-0.09680462 0.07668881 0.029570512 -0.073095135 -0.02854577 -0.03661206 -0.02875555 -0.15303677
-0.037664887 0.044205006 -0.007254831 0.08157948 0.010532804 -0.06446368 0.06068523 0.12376732
-0.0512274 0.048153345 0.075163536 0.09455713 -0.02693038 -0.12052431 0.08572973 -0.074076265
0.011860163 0.012569248 -0.030457506 0.1535049 -0.04746691 -0.09280406 0.059863567 -0.05579445
-0.022036219 -0.07857515 -0.013842576 0.06952414 0.06894098 -0.009268515 -0.112174675 -0.104879186
-0.12772626 0.037478082 0.01917396 -0.057264704 -0.009857851 0.012029595 0.031663842 0.021518739
-0.024516122 -0.003519329 0.08833127 0.023036407 0.018212982 0.107804075 -0.01404634 0.011343458
0.07142798 -0.053265043 -0.029773582 -0.11038562 -0.025287962 -0.02215189 -0.03495859 -0.0011941266
-0.009892768 0.052221287 0.098538324 0.049839936 0.0032141707 0.019220464 0.113578156 0.06038097
0.1411761 -0.0013289598 0.086687185 -0.0069197165 -0.04117512 0.07516859 -0.014067467 0.104609154
-0.02141849 0.14774357 -0.12543832 -0.013642929 -0.06482429 0.09758256 -0.12676597 0.13947089
-0.05748181 0.0033435815 -0.08229332 -0.0027198137 0.016135342 -0.06957851 -0.10066017 -0.0311011
0.1088661 -0.05546145 0.15113749 -0.122849934 0.030080497 0.0847738 -0.08235739 0.037558485
-0.079440996 -0.10897739 0.0016866719 -0.010358923 -6.0469578e-05 0.06072321 0.016507993 0.116933696
0.025398778 -0.014409743 0.12983271 0.01667037 0.0011848169 0.06537764 0.0999825 0.20337248
