AI Models/ReinforcementLearning/CarAgentv3.0.onnx (onnx, 295918 bytes, 7 tensors)

action_model._continuous_distribution.log_sigma f4 [1, 3]
0	0xbe2c2c7d	-0.16813846
1	0xbea9e301	-0.33181003
2	0xbeac1347	-0.33608457

action_model._continuous_distribution.mu.bias f4 [3]
0	0x3cc03490	0.023462564
1	0x3c68a0b0	0.014198467
2	0xbc9113ca	-0.017709631

action_model._continuous_distribution.mu.weight f4 [3, 256]
0	0x3d092351	0.033480946
1	0x3c27cf44	0.010242287
2	0x3cea6f0b	0.028617403
3	0x3d15b5ae	0.036550216
4	0x3ce1eb53	0.027578032
5	0x39bbaff3	0.00035798512
6	0x3c8e43d3	0.017366325
7	0x3cf03a79	0.029324757
8	0x3d377d3e	0.044797175
9	0x3cd6cc55	0.02622048
10	0x3cd77888	0.026302591
11	0x3d1a94a3	0.037739407
12	0x3baa3fe5	0.005195605
13	0x3cbaa3db	0.02278321
14	0xb9fc04dc	-0.00048068806
15	0xbcccc2a5	-0.024995157
16	0xbd75e0de	-0.060028903
17	0x3cc821b9	0.024430143
18	0x3caaa1fa	0.02082919
19	0x3d1875f1	0.037221853
20	0xbced98fb	-0.02900361
21	0x3ce0fda7	0.0274647
22	0xbc24096d	-0.010012013
23	0x3c8e0caf	0.017340032
24	0x3d02fc67	0.03197899
25	0x3cf22fa0	0.029563725
26	0xbd3b5895	-0.045738775
27	0x3ceac5b3	0.028658723
28	0x3d07dfa0	0.03317225
29	0x3c0f81cd	0.008758974
30	0xbce51598	-0.027964398
31	0x3d1adc9c	0.037808046
32	0x3c57a172	0.01316105
33	0x3cf6dca4	0.030134507
34	0xbd3accfb	-0.04560564
35	0x390ca76e	0.00013413813
36	0xbd129b40	-0.03579259
37	0x3d3e3227	0.046434548
38	0x3d3c8328	0.046023518
39	0x3b464e20	0.0030258968
40	0x3c8f92ec	0.017526112
41	0xbd3799d7	-0.044824447
42	0x3ce5d48d	0.028055454
43	0xbd79e32d	-0.061007667
44	0xbcfcc3d1	-0.030855091
45	0xbd173778	-0.036918133
46	0xbbba482c	-0.005684873
47	0xbcb91a09	-0.022595422
48	0x3d630475	0.055424172
49	0x3c50af3f	0.012737094
50	0x3c468784	0.01211727
51	0x3ccc5ae4	0.024945684
52	0xbab10cb3	-0.0013507813
53	0xbd2a1aa4	-0.041529313
54	0x3c8596a0	0.016307175
55	0xbcc085f2	-0.02350137
56	0xbc0271b5	-0.00796168
57	0x3cfb2be9	0.030660586
58	0x3b2fb046	0.0026807948
59	0x3d2fa011	0.04287726
60	0x3c379236	0.011204293
61	0x3cb18b02	0.02167273
62	0x3ba5c8ab	0.005059322
63	0x3cbdb5ca	0.023157973
64	0xbd978d64	-0.07400015
65	0x3cc72158	0.024307892
66	0x3d16a196	0.036775194
67	0x3a329e63	0.00068137626
68	0xbc407867	-0.011747456
69	0x3cbb1283	0.022835976
70	0xb9abef72	-0.00032794062
71	0xbc52c68a	-0.012864718
72	0xbcbabeb5	-0.022796014
73	0x3c2916c8	0.010320373
74	0xbab4ba7c	-0.0013788487
75	0x3cc293d9	0.02375214
76	0x3d1ed3ae	0.038776092
77	0x3cce681a	0.025196124
78	0x3d5caa7a	0.053873517
79	0x3cd4781f	0.025936184
80	0xbce9ea29	-0.02855404
81	0x3d036d37	0.032086577
82	0xbc2e908b	-0.010654579
83	0xbcd05096	-0.025429051
84	0xbad88d88	-0.0016521672
85	0x3cc33889	0.023830669
86	0x3c88c847	0.016697062
87	0xbc1757d7	-0.009237251
88	0x3c32e151	0.010917977
89	0x3cf4f7c5	0.029903302
90	0xbc3dbdf2	-0.011580931
91	0x3ca645b8	0.020296916
92	0x3d46bdec	0.048520967
93	0x3d366919	0.044533823
94	0xbd4da094	-0.050201967
95	0xbd6fa8cd	-0.05851059
96	0x3d24c710	0.040228903
97	0xbd453564	-0.04814662
98	0xbd661d4a	-0.056180276
99	0x3d3b71a7	0.045762684
100	0x3c5bfe28	0.013427295
101	0x3d303b28	0.043025166
102	0x3cbcbc75	0.023039082
103	0x3c9a4995	0.018833915
104	0xbd1c9dcf	-0.038236436
105	0x3cecd56e	0.028910365
106	0xbd3df267	-0.04637375
107	0xbac21ae2	-0.0014809037
108	0x3d7d01a8	0.061769158
109	0xbcbfc664	-0.02341003
110	0xbd3f8192	-0.046754427
111	0x3c176804	0.009241108
112	0x3cff7fe6	0.031188916
113	0x3c8fb23c	0.017541043
114	0x3d4b0dbd	0.04957365
115	0x3cf7aa65	0.030232618
116	0x3d0bc2cc	0.03412132
117	0xbbcf532c	-0.0063270535
118	0x3d05c40a	0.03265766
119	0x3d1315df	0.03590953
120	0xbd4328ec	-0.047646448
121	0x3c931e3e	0.017958757
122	0x3ce5fee5	0.028075645
123	0x3ce0e01b	0.027450612
124	0x3c9fbdd7	0.019499702
125	0x3d2b6ee7	0.04185381
126	0x3cf57cfb	0.029966822
127	0x3d2b530f	0.041827258
128	0xbd13b578	-0.036061734
129	0x3d2ae151	0.041718785
130	0x3c55ab7e	0.013041375
131	0xbc113552	-0.00886281
132	0x3c835ad2	0.016034517
133	0xbd172b24	-0.036906376
134	0x3c986fa0	0.018607914
135	0xbc87b87a	-0.016567457
136	0x3cfffafb	0.031247607
137	0x3d201526	0.03908267
138	0x3d13c744	0.036078706
139	0xbd2df5e5	-0.04247083
140	0x3d120414	0.03564842
141	0x3cb04899	0.021518992
142	0x3ce284de	0.027651247
143	0x3bd333ca	0.0064453827
144	0x3d3b5d08	0.04574302
145	0x3c1dfd3c	0.009642895
146	0xbd3d34bf	-0.04619288
147	0x3d304808	0.043037444
148	0x3ce9e692	0.028552327
149	0x3cddbb89	0.027066963
150	0xbd433ab7	-0.047663417
151	0x3d29d364	0.041461363
152	0xbcae1df3	-0.021254515
153	0xbccec0ad	-0.02523836
154	0xbd8c085e	-0.068375334
155	0xbd57b797	-0.05266532
156	0x3c73ae5d	0.014873114
157	0x3d2fcdbf	0.042920824
158	0x3cc7136f	0.024301259
159	0xbbc416ed	-0.0059841783
160	0xbd0c633f	-0.034274336
161	0xbd00a34f	-0.031405743
162	0x3d46fe0f	0.048582133
163	0xbb1dd5d7	-0.0024083757
164	0xbcc5884a	-0.02411284
165	0x3cf65e22	0.030074183
166	0x3d49da43	0.049280416
167	0xbcc60109	-0.024170415
168	0x3cdf9349	0.02729191
169	0xbc2cabf3	-0.010539043
170	0x3d2c59a2	0.042077668
171	0xbd2c310e	-0.04203897
172	0x3d2d17d9	0.04225907
173	0x3cbf136e	0.023324694
174	0xbc7f7fb5	-0.015594413
175	0x3d4968f5	0.04917236
176	0x3cfd6436	0.030931573
177	0x3cb96dc2	0.022635344
178	0x3d503e94	0.05084093
179	0xbce16221	-0.027512612
180	0x3d2c26c2	0.04202915
181	0xbd138c8b	-0.036022704
182	0xbd63eb28	-0.055644184
183	0xbc0c73d4	-0.008572537
184	0x3c8e058b	0.017336627
185	0x3d1f67d1	0.038917366
186	0x3d389dd3	0.045072388
187	0xbcef0cbb	-0.029180875
188	0x3d2dcab2	0.042429633
189	0x3b1a41d8	0.002353778
190	0x3cf77192	0.030205522
191	0x3d600a2b	0.054697197
192	0xbd82af92	-0.06381144
193	0x3d16e726	0.036841534
194	0xbd1a7fa8	-0.0377194
195	0x3cd34985	0.025791893
196	0x3d133d05	0.035946865
197	0x3c987350	0.018609673
198	0x3d01ef34	0.031722263
199	0xbd11bc9b	-0.03558026
200	0x3cea23f7	0.028581602
201	0x3ce09d9f	0.02741891
202	0xbcbd0343	-0.023072844
203	0x3ce2a45a	0.02766626
204	0x3c988e79	0.018622624
205	0xbbf51c4f	-0.0074801813
206	0xbb2e02b1	-0.0026551897
207	0xbba23e83	-0.0049512996
208	0x3c59380c	0.0132579915
209	0x3d227c52	0.039669342
210	0x3d6e6601	0.058202747
211	0x3d34d75e	0.044150703
212	0xbd107553	-0.03526814
213	0x3c10067b	0.008790608
214	0xbd89b202	-0.067234054
215	0x3cfc50a3	0.03080017
216	0xbd61f425	-0.055164475
217	0xbd32a190	-0.04361111
218	0xbcd8a13d	-0.026444072
219	0x3cfa3b7d	0.030545944
220	0x3ca15ab2	0.019696567
221	0xbcff6d65	-0.031180093
222	0x3d1eefe8	0.03880301
223	0x3a5d034b	0.00084309716
224	0x3b8c5612	0.0042827213
225	0xbd0253be	-0.031818144
226	0x3b37570a	0.0027975463
227	0x3d12f16d	0.035874773
228	0xbd378fe2	-0.04481495
229	0x3d2f1551	0.04274494
230	0xbd893419	-0.0669939
231	0xbcb13bee	-0.021635022
232	0xbd5af4dd	-0.053456176
233	0xbaf35f02	-0.0018567743
234	0xbd4bc0bd	-0.049744356
235	0xbcd4c119	-0.025970982
236	0x3cd5ca93	0.026097571
237	0x3cc8a793	0.024493968
238	0x3a34b28a	0.00068930595
239	0x3be312da	0.0069297375
240	0x3c91245c	0.017717533
241	0x3c96e02d	0.018417442
242	0x3adec40c	0.0016995682
243	0x3d55c9e9	0.05219451
244	0x3c57aa6d	0.013163191
245	0x3d1d58f9	0.03841493
246	0xbd1a5423	-0.037677895
247	0x3d07fec4	0.033201948
248	0x3d12b5ff	0.035818096
249	0x3d3c5bb7	0.045985904
250	0x3ce35f91	0.02775553
251	0x3b8e337c	0.0043396335
252	0x3d2a3121	0.04155076
253	0x3d1a21f0	0.03763002
254	0x3ba831c5	0.005132886
255	0xbcef3e86	-0.029204618

network_body._body_endoder.seq_layers.0.bias f4 [256]
0	0x3c8cd1cb	0.01718988
1	0x3c8f7872	0.017513487
2	0x3c9f6834	0.019458868
3	0x3cf2d820	0.029644072
4	0x3c93abeb	0.018026313
5	0xbc8291d3	-0.015938675
6	0x3bab4118	0.0052262656
7	0x3cc4fbeb	0.024045905
8	0x3b699733	0.00356431
9	0xbc8788c9	-0.016544716
10	0x3d109fc7	0.035308626
11	0x3c99431d	0.01870876
12	0xbc6e297a	-0.014536256
13	0xbb94f63d	-0.0045459555
14	0x3c371554	0.011174519
15	0x3be0d28f	0.006861038
16	0x3c29e704	0.01037002
17	0x3c824f3e	0.015906926
18	0x3d3b92e5	0.045794386
19	0x3d8fefc9	0.07028157
20	0x3d5c96c4	0.05385472
21	0x3cd395d6	0.025828283
22	0x3c713380	0.014721751
23	0x3c2a537f	0.010395884
24	0x3c92f442	0.017938737
25	0x3ccef3d5	0.025262753
26	0x3c654ecd	0.013995838
27	0x3d04c618	0.03241548
28	0x3c1ebacf	0.009688093
29	0xbb0c9218	-0.0021449383
30	0x3d4b9d63	0.049710643
31	0x3bf80044	0.007568391
32	0x3c5e01c5	0.013550227
33	0xbc00cccc	-0.007861327
34	0x3c2c29d5	0.01050802
35	0x3cf5d5f0	0.03000924
36	0x3c2735e3	0.010205719
37	0x3d0ae6a1	0.03391135
38	0x3cf2dd3d	0.02964651
39	0x3c29e935	0.010370542
40	0x3bdc77eb	0.0067281625
41	0x3d036989	0.032083068
42	0x3b99f854	0.0046987925
43	0x3c2abb1e	0.010420589
44	0x3c2ab6e9	0.010419586
45	0x3d42f98d	0.04760127
46	0x3cd1169d	0.025523478
47	0x3cff6070	0.031173915
48	0x3c346216	0.011009714
49	0x3c324686	0.010881072
50	0x3cb0d059	0.021583723
51	0x3b331c18	0.0027329978
52	0x3d47fac9	0.04882315
53	0x3d03707f	0.032089707
54	0x3c80d97f	0.01572871
55	0x3bae8a1b	0.005326522
56	0x3c24609b	0.010032798
57	0x3c88c8eb	0.016697368
58	0x3d0a51c4	0.033769384
59	0x3a8e2847	0.0010845744
60	0xba2ae058	-0.0006518415
61	0x3bca274a	0.0061692344
62	0x3d3a0cb1	0.04542226
63	0x3c0b1f55	0.008491357
64	0x3bc68dad	0.0060593695
65	0x3cd12227	0.02552898
66	0x3c0156bb	0.007894213
67	0xbb162439	-0.0022909774
68	0x3cd1975b	0.025584867
69	0x3c9f3056	0.019432228
70	0x3ce0fbb8	0.027463779
71	0xbb61f0e3	-0.0034475855
72	0xbcab5ef1	-0.020919295
73	0xbb3684a8	-0.0027850065
74	0x3c744875	0.014909853
75	0x3bc77eea	0.0060881274
76	0x3d6f6b88	0.05845216
77	0x3c966260	0.018357456
78	0x3c034f59	0.008014523
79	0x3cfe804d	0.031067038
80	0x3bb1e7c1	0.0054292385
81	0x3cca0369	0.02465983
82	0xbc13b83e	-0.009016095
83	0x3d7db2a5	0.061937947
84	0x3c01c04f	0.007919385
85	0x3acc68be	0.001559518
86	0x3cbf425e	0.023347076
87	0xbc62e22e	-0.013847871
88	0xb9c8f9e9	-0.0003833317
89	0xbc0b8038	-0.008514456
90	0x3cb50e74	0.022101618
91	0x3cd26d61	0.025686922
92	0x3c56de49	0.01311452
93	0x3ce317b2	0.02772126
94	0x3ccddc91	0.025129588
95	0x3c1723e7	0.009224868
96	0x3c5d36a1	0.013501794
97	0x3c5c1a29	0.013433971
98	0x3c4a1111	0.0123331705
99	0xbb9e2e0e	-0.0048272675
100	0x3c23d97d	0.010000584
101	0x3ce09180	0.02741313
102	0x3c21af38	0.009868436
103	0xbc5efd3e	-0.013610182
104	0xbc301514	-0.010747213
105	0xbc8336f7	-0.01601742
106	0x3bca945e	0.0061822375
107	0x3c36b359	0.011151158
108	0x3bb90aec	0.005647054
109	0xbc9bb581	-0.019007446
110	0xbbc089e4	-0.005875813
111	0x3cd85acc	0.026410483
112	0xbc9bba96	-0.01900987
113	0x3c5d1b18	0.013495229
114	0xbc96f1e6	-0.018425893
115	0x3b0c711e	0.0021429728
116	0x3c0faafd	0.008768794
117	0x3b827022	0.0039806524
118	0xbb1e0d3c	-0.0024116775
119	0x3995bb61	0.00028559103
120	0x3d02d5aa	0.031942047
121	0xbc14ec54	-0.009089548
122	0x3c88a5ce	0.016680624
123	0xbc2d617b	-0.010582323
124	0x3c8ab993	0.016934192
125	0xbc3e8e34	-0.011630584
126	0xbb757b32	-0.0037457463
127	0x3c06a55f	0.0082181385
128	0x3ca80c0e	0.02051356
129	0x3c1eaa9b	0.00968423
130	0x3cfe103a	0.031013597
131	0xbc70e414	-0.014702816
132	0xbbf63690	-0.0075138286
133	0x3ca296ff	0.019847391
134	0x3c001a57	0.00781878
135	0x3c8c2526	0.017107558
136	0xbaeaca36	-0.0017913047
137	0x3c2b24e9	0.010445812
138	0x3c8bd337	0.017068489
139	0x3c42f821	0.011899979
140	0x3c8bac42	0.017049912
141	0x3b1e2ede	0.0024136822
142	0x3cfaa0e1	0.030594291
143	0x3c13a422	0.0090113
144	0x3ce14e15	0.027503053
145	0x3bd0798c	0.0063621458
146	0xbc90d92e	-0.017681684
147	0x3c76e301	0.01506877
148	0xbc71b341	-0.01475221
149	0x3cbc7578	0.023005232
150	0x3ce77c6d	0.028257573
151	0xbace8c34	-0.0015758337
152	0x3cf77a8f	0.030209808
153	0x3d076923	0.03305925
154	0x3ca5af1e	0.020225104
155	0x3b080c0b	0.0020759131
156	0x3c1e984c	0.009679865
157	0x3d857b13	0.06517615
158	0x3c0a808a	0.008453498
159	0x3c495c77	0.012290112
160	0x3b8c8d63	0.0042893155
161	0x3cb18124	0.021668024
162	0x3cb74094	0.02236966
163	0xbbc234f9	-0.005926725
164	0x3b511477	0.0031903067
165	0x3c0cc869	0.008592703
166	0x3ca9e54b	0.020739218
167	0x3d221edb	0.039580207
168	0x3a86341c	0.0010238918
169	0x3c8706b6	0.016482692
170	0x3bfb8328	0.007675547
171	0x3cbd0274	0.023072459
172	0x3d570d3d	0.05250286
173	0x3cbe1fb8	0.023208484
174	0x3c5206cc	0.012819003
175	0x3d777ded	0.060422827
176	0x3c322fd0	0.010875657
177	0xbcd41230	-0.025887579
178	0x3c07dea2	0.008292826
179	0x3c8643a6	0.01638968
180	0x3bc9fa78	0.0061638914
181	0x3d2767a2	0.040870316
182	0x3bf729cb	0.007542824
183	0xbd38bc7b	-0.045101624
184	0xbbbd6871	-0.0057802727
185	0x39843709	0.00025218006
186	0x3aa69835	0.0012710156
187	0x3bc27ff7	0.0059356648
188	0x3cbed1ae	0.023293342
189	0x3ca63d84	0.020293005
190	0x3c6a56bb	0.014302905
191	0x3cc91973	0.024548268
192	0xbc4c1f61	-0.012458653
193	0xbb669497	-0.0035183781
194	0x3ce78e94	0.028266229
195	0x3c20f155	0.009823163
196	0x3bb5f46a	0.005552818
197	0x3b696141	0.0035610946
198	0x3b095d1a	0.0020960034
199	0x3c05c9eb	0.008165817
200	0xbc43f8bf	-0.011961161
201	0x3c92baa8	0.01791127
202	0xbc0051cf	-0.007832005
203	0x3b764c8c	0.0037582247
204	0x3cf2d334	0.029641725
205	0x3c8fa74c	0.017535828
206	0x3c025f01	0.007957221
207	0x3cd932a0	0.026513398
208	0x3c74bdbb	0.014937813
209	0x3c208dd3	0.0097994385
210	0xbc4647ca	-0.012102077
211	0x3aa44f93	0.0012535922
212	0x3c7bbbdd	0.015364614
213	0x3be51139	0.0069905785
214	0xbc89f5d4	-0.016840853
215	0x3be9edae	0.0071389293
216	0xbaa2a8bf	-0.0012409909
217	0x3cfbbf8e	0.030730989
218	0x3caf792d	0.021420086
219	0x3d0c0b51	0.03419048
220	0xba8114a7	-0.0009848074
221	0x3c579251	0.013157443
222	0x3b4cefb1	0.0031270797
223	0xbbeebc7c	-0.0072856527
224	0x3b139e88	0.0022524912
225	0x3c4fa8d7	0.012674532
226	0x3c2dce90	0.01060833
227	0x3d1cf0ac	0.03831546
228	0xbd35d536	-0.044392787
229	0xbaf5628f	-0.0018721389
230	0x3bee1f38	0.007266905
231	0x3d021a92	0.03176362
232	0x3d192c0b	0.03739552
233	0x3c883ada	0.016629625
234	0xbb897597	-0.004194926
235	0xbcce04bd	-0.025148744
236	0x3a8978b0	0.0010488238
237	0x3c479051	0.012180404
238	0x3cb11ba4	0.021619625
239	0x3cb9dcaa	0.022688229
240	0xbacff80f	-0.0015866774
241	0x3c9d55c8	0.019205943
242	0x3c4b641a	0.012414003
243	0x3cde5184	0.027138479
244	0x3cd1266a	0.025531013
245	0x3c683cd4	0.014174659
246	0x3d26e677	0.040747132
247	0xbbf24ec8	-0.0073946454
248	0x3c832362	0.016008083
249	0x3d19ebfe	0.037578575
250	0x3c95368a	0.018214483
251	0x3c2fc6ec	0.010728579
252	0x3c613d55	0.013747533
253	0x3ae925c5	0.0017787745
254	0xbc40d96f	-0.01177059
255	0x3cd10a88	0.025517717

network_body._body_endoder.seq_layers.0.weight f4 [256, 26]
0	0xbd8077b7	-0.06272834
1	0x3e0a41c8	0.13501656
2	0x3d3418e8	0.043969065
3	0xbe6f041e	-0.23341414
4	0x3cae8a31	0.02130613
5	0x3d947eb7	0.072507314
6	0x3e334e15	0.17510255
7	0x3dbc7963	0.0920284
8	0xbe90a948	-0.2825415
9	0xbf0d27fa	-0.55139124
10	0x3e830735	0.25591436
11	0xbde544c1	-0.111947544
12	0xbce6ed56	-0.028189342
13	0x3ef1a5f4	0.47196925
14	0x3e1dfa49	0.15427507
15	0xbcdc3ef3	-0.026885485
16	0xbd3b1e99	-0.045683477
17	0xbe4af16b	-0.19818656
18	0x3e41d7a1	0.18929912
19	0xbe925255	-0.2857844
20	0x3decb536	0.11558001
21	0xbcd67d43	-0.026182776
22	0x3e0d6999	0.13809814
23	0xbe0af93a	-0.13571635
24	0xbc64a89e	-0.013956217
25	0x3e87df74	0.2653767
26	0x3edbb4c5	0.42911354
27	0xbdb6cb4f	-0.08925497
28	0xbdd9895e	-0.10621904
29	0x3bd3837c	0.006454883
30	0x3f05e6c5	0.5230525
31	0x3e03cdb1	0.12871434
32	0xbe414f7a	-0.18877974
33	0xbe216da9	-0.15764488
34	0x3e82cfbf	0.25549123
35	0xbe055c53	-0.130235
36	0xbe190581	-0.14943506
37	0x3e64f5cc	0.22359389
38	0x3e5189b5	0.20462687
39	0xbeab0924	-0.3340541
40	0xbe68dc2f	-0.22740243
41	0x3e8f2fdc	0.279662
42	0x3c336e3f	0.010951578
43	0x3e01aded	0.12664004
44	0xbec1d4c4	-0.3785764
45	0x3d340a25	0.043954987
46	0x3ef51fd5	0.47875848
47	0x3e5896c3	0.21151261
48	0xbe059dd9	-0.13048495
49	0xbe65edf1	-0.22454049
50	0xbe298e42	-0.16558173
51	0xbe3fa403	-0.1871491
52	0x3cb559fd	0.022137636
53	0xbd6311df	-0.055436965
54	0xbe3eb249	-0.18622698
55	0xbe1876a7	-0.14889012
56	0x3d3ca738	0.04605791
57	0x3db89e69	0.09014589
58	0xbe0a863b	-0.13527767
59	0x3e47a8a0	0.19497919
60	0xbe7e31ed	-0.24823733
61	0xbe02b492	-0.12764195
62	0xbe8a3264	-0.2699157
63	0x3e79194b	0.24326055
64	0x3d9661f2	0.073429
65	0x3e8f7392	0.2801786
66	0xbc72e2bf	-0.014824568
67	0x3d7a745a	0.061146118
68	0x3df2ab71	0.11849106
69	0x3dde6f19	0.10861034
70	0x3e56a62e	0.2096183
71	0x3c52c8b9	0.012865239
72	0xbe5d0bac	-0.21586484
73	0xbe967e93	-0.29393443
74	0xbd301c43	-0.042995702
75	0x3e8145a8	0.25248456
76	0xbe084d33	-0.13310699
77	0xbeaf6f61	-0.34264663
78	0xbe1999bd	-0.15000053
79	0x3e240934	0.16019136
80	0x3e420dd7	0.18950592
81	0x3ee6294d	0.44953385
82	0x3e40f784	0.1884442
83	0xbe53b3ff	-0.20674132
84	0xbe68dd58	-0.22740686
85	0x3ce56cad	0.028005922
86	0x3d70512d	0.058671165
87	0x3d9e1392	0.077185765
88	0x3eab888a	0.3350261
89	0xbd8a4899	-0.06752128
90	0x3e8789d8	0.26472354
91	0xbe888490	-0.26663637
92	0xbe6b5ebe	-0.2298536
93	0x3e82fbc0	0.25582695
94	0x3dbe98cd	0.09306488
95	0x3e80f94f	0.25190207
96	0x3cfd45a4	0.030916996
97	0x3cf6bce1	0.030119361
98	0xbd379d0b	-0.044827502
99	0xbeb06e00	-0.34458923
100	0x3e8230c6	0.25427836
101	0x3d6f4ed1	0.058424775
102	0x3ddc56a0	0.1075871
103	0x3e82f682	0.25578696
104	0xbcd88148	-0.026428834
105	0xbd0742c7	-0.03302267
106	0x3e35efd5	0.1776727
107	0xbe5afcef	-0.21385549
108	0xbe87e8bb	-0.26544747
109	0x3d3e11b2	0.046403594
110	0x3e7ad1f7	0.24494158
111	0x3e8c17a7	0.27361795
112	0x3ea99178	0.33118796
113	0xbe376917	-0.17911182
114	0x3dcd03b1	0.1001047
115	0x3dc769f0	0.09737003
116	0x3e9a7043	0.30163774
117	0x3de5c10b	0.11218461
118	0xbe1ec085	-0.15503128
119	0xbdb5c1b0	-0.088748336
120	0xbe5e2aa4	-0.21695954
121	0xbe4d4c64	-0.20048672
122	0x3b8712c9	0.0041221124
123	0xbe8746b4	-0.2642113
124	0xbde5327f	-0.11191272
125	0xbd83ec92	-0.064416066
126	0x3e1545ab	0.14577357
127	0xbd07101b	-0.032974344
128	0x3efc08b0	0.49225378
129	0xbe11069f	-0.14162682
130	0x3cdde097	0.027084632
131	0x3cd014f7	0.025400622
132	0x3d80cfad	0.06289611
133	0xbe1dd7ce	-0.15414354
134	0x3e225b7d	0.15855213
135	0x3e0b40ad	0.1359889
136	0xbe15e4a0	-0.14637995
137	0xbea8e9d1	-0.32990888
138	0x3db4b04a	0.08822687
139	0xbe988efd	-0.2979659
140	0xbd9c8339	-0.07642216
141	0xbe349ee6	-0.1763874
142	0xbb50ef10	-0.0031880774
143	0xbdbd6b1c	-0.09248945
144	0x3df25e86	0.11834435
145	0x3e87dbd7	0.26534912
146	0xbd2a4b03	-0.041575443
147	0xbdac53b4	-0.084144026
148	0x3da5982c	0.08085665
149	0x3e83ef52	0.25768524
150	0xbe3c0573	-0.18361454
151	0x3daee3a7	0.08539515
152	0x3e5b19e8	0.21396601
153	0x3e105303	0.14094166
154	0x3e06b28c	0.13154048
155	0xbc4a8ab6	-0.012362173
156	0xbd29ac14	-0.041423872
157	0xbd68225a	-0.056673385
158	0xbcefb06d	-0.029258931
159	0xbe281842	-0.16415504
160	0xbd17f805	-0.037101764
161	0xbc8ed582	-0.017435793
162	0x3eb6a3ec	0.35671937
163	0x3e581248	0.21100724
164	0x3ece4499	0.4028671
165	0xbc49b300	-0.012310743
166	0x3db680da	0.08911295
167	0x3e7d9b90	0.24766374
168	0x3e2224e9	0.15834393
169	0x3e493ce4	0.19652134
170	0xbe5b167d	-0.21395297
171	0xbe1a82f3	-0.15089016
172	0xbec4e031	-0.38452294
173	0x3ebe3de8	0.37156606
174	0xbf318f19	-0.69358975
175	0x3e1b8c66	0.15190277
176	0x3cb7118f	0.02234724
177	0x3d211897	0.03933009
178	0x3ecc01b6	0.39845055
179	0x3a10e4b9	0.00055272464
180	0x3d4d666a	0.050146498
181	0xbe14458f	-0.1447966
182	0x3d4fe880	0.05075884
183	0x3e7c601c	0.24646038
184	0x3eadb565	0.33927456
185	0xbccffe26	-0.025389742
186	0x3de5f4c1	0.11228324
187	0xbe1b2eea	-0.15154615
188	0x3dcf1907	0.101121955
189	0xbf00a285	-0.50247985
190	0x3e89403f	0.26806828
191	0xbe1d733b	-0.15375988
192	0xbd764af0	-0.06013006
193	0x3e6ee39b	0.23329012
194	0xbdbe7be9	-0.09300978
195	0xbc2b44d7	-0.010453424
196	0x3e80ef57	0.25182602
197	0xbe107180	-0.14105797
198	0xbe21d0b6	-0.15802273
199	0x3d848d8b	0.0647231
200	0x3eba5002	0.36389166
201	0x3bb75fc9	0.0055961353
202	0x3e667e35	0.22509082
203	0x3cdfcaed	0.027318442
204	0xbe7288bb	-0.23684971
205	0x3eae5ac1	0.34053615
206	0x3e23f80a	0.16012588
207	0xbe1f0b70	-0.15531707
208	0xbe851358	-0.2599132
209	0xbe043ee0	-0.1291461
210	0x3f176ca4	0.5915015
211	0x3ebaec77	0.36508533
212	0x3eb5920e	0.35462993
213	0x3eaa6bf5	0.3328549
214	0x3d6fd956	0.058556877
215	0xbe82984b	-0.25506815
216	0xbea5ec06	-0.32406634
217	0x3dffdd2e	0.124933586
218	0x3e3f6df2	0.18694285
219	0x3d470e16	0.048597418
220	0xbc2ea962	-0.010660501
221	0x3e85e313	0.26149806
222	0xbe89b1af	-0.26893374
223	0x3d8d6648	0.06904274
224	0xbe86161e	-0.2618875
225	0xbe202ba7	-0.15641652
226	0xbdb4b5eb	-0.088237606
227	0xbe822ab9	-0.2542322
228	0x3e9efd83	0.3105279
229	0xbc2a131a	-0.010380531
230	0x3d3d2fc1	0.04618812
231	0xbd4b0712	-0.04956729
232	0xbc890ee4	-0.016730733
233	0x3eba03a7	0.36330912
234	0x3e061861	0.13095237
235	0x3e6dac83	0.23210339
236	0x3e1bf7a2	0.15231183
237	0xbd46a5a8	-0.048497826
238	0x3e5b4aa3	0.2141519
239	0x3e309739	0.17245187
240	0xbce1cc6c	-0.027563296
241	0x3ddfcef9	0.10928149
242	0x3d22546b	0.03963129
243	0xbe487181	-0.19574548
244	0x3c6dc991	0.014513389
245	0xbeb3d21b	-0.35121235
246	0xbe114eee	-0.14190266
247	0xbd91713d	-0.071016766
248	0xbe804899	-0.25055388
249	0x3ab753b1	0.0013986734
250	0xbe87c12f	-0.26514575
251	0x3d4a19da	0.04934106
252	0x3df6bc7e	0.12047671
253	0x3ef2c793	0.47417888
254	0xbe2a39c7	-0.16623603
255	0x3e43eabe	0.19132516

network_body._body_endoder.seq_layers.2.bias f4 [256]
0	0x3bda1330	0.0066551194
1	0x3c68d8b8	0.014211826
2	0x3cf1ef9b	0.029533198
3	0xb9d08dc3	-0.00039778472
4	0x3c92466a	0.017855842
5	0xbbbb38fb	-0.0057135797
6	0x3c2425f7	0.010018817
7	0x3bb4845b	0.005508942
8	0x3c8e3a81	0.017361881
9	0x3c0c7def	0.008574947
10	0x3b3d1b32	0.002885532
11	0x3c9c7568	0.019098952
12	0x3bd4d935	0.0064956197
13	0x3bbb11f1	0.005708926
14	0x3c8fd48c	0.017557405
15	0xbca589a1	-0.020207228
16	0xbbcae8d3	-0.0061923056
17	0x3c059a3b	0.008154447
18	0x3b39b23f	0.0028335003
19	0x3cbfab19	0.023397015
20	0x3c58d438	0.013234191
21	0x3c722af2	0.014780747
22	0xbbb39c84	-0.0054813046
23	0xbc599a8a	-0.013281474
24	0x3ca33590	0.019923002
25	0x3c02bed5	0.007980068
26	0x3c66f549	0.0140965665
27	0x3c2ce1dd	0.010551897
28	0x3c4b175c	0.012395706
29	0x3ccc3790	0.024928838
30	0xbcdf6ee8	-0.027274564
31	0x3c105a66	0.008810615
32	0x3bf73dac	0.0075451937
33	0x3cad424e	0.02114978
34	0xbc1bb9a1	-0.009504707
35	0x3c264700	0.010148764
36	0x3ba0afb2	0.004903757
37	0x3cb0ae06	0.021567356
38	0x3cebc673	0.028781151
39	0x3c07dbdc	0.008292165
40	0x3d04396a	0.032281317
41	0xbbbd1bf3	-0.005771154
42	0x3c90841c	0.01764112
43	0xbc98305f	-0.018577753
44	0xb9ca975f	-0.00038641223
45	0xbc9a5258	-0.018838093
46	0xbc988bcc	-0.018621348
47	0x3cb538e5	0.022121856
48	0x3c7e9f92	0.015540974
49	0x3c1159a7	0.008871472
50	0xbaf7225c	-0.0018854844
51	0x3b8be1b6	0.00426885
52	0x3c1baab4	0.009501148
53	0xbbb3d1d1	-0.0054876585
54	0x3c309254	0.010777075
55	0x3b1a325c	0.0023528552
56	0x3b52ca4d	0.0032164038
57	0xbb33bdb1	-0.0027426297
58	0x3cc9cc8d	0.02463367
59	0x3b2f9a2f	0.0026794781
60	0xbb091a37	-0.0020920166
61	0x3d1135a7	0.035451557
62	0x3b8d701c	0.004316343
63	0x3a56e184	0.00081970566
64	0xbcd0765d	-0.025447065
65	0x3c038100	0.008026361
66	0x3cb1283b	0.021625629
67	0x3c20b59e	0.009808926
68	0x3c045b6e	0.008078439
69	0xbc0c922f	-0.008579775
70	0xbbd260f3	-0.0064202487
71	0x3bcee898	0.0063143484
72	0x3cf2014f	0.02954164
73	0x3bc8cf73	0.0061282455
74	0xbc2c101d	-0.010501889
75	0x3b51118b	0.0031901326
76	0x3c9b5736	0.018962484
77	0x3c9a7515	0.018854657
78	0x3ca16028	0.019699171
79	0x3c14afd0	0.00907512
80	0xbbfe8665	-0.007767486
81	0x3c85422c	0.016266905
82	0x3cb6ddf0	0.022322625
83	0xbc915ed0	-0.017745405
84	0xba74240b	-0.0009313232
85	0x3b90d433	0.0044198274
86	0x3c98d9d2	0.018658552
87	0x3cb88d2f	0.02252826
88	0x3b28f9d5	0.0025783677
89	0x3c9d0440	0.019167066
90	0x3c06f30c	0.008236658
91	0x3c77c951	0.015123681
92	0x3bbe9b43	0.0058168485
93	0x3c618186	0.013763791
94	0x3c97bdfa	0.018523205
95	0xbcdcc2b8	-0.026948318
96	0x3c883cba	0.01663052
97	0x3b1b5d0a	0.0023706579
98	0xbca1e3c7	-0.019761933
99	0x3c4c77f7	0.012479774
100	0x3adccc39	0.0016845531
101	0x3c2e724c	0.010647368
102	0xbb321149	-0.0027170947
103	0x3c5089a3	0.012728128
104	0xbc8fe952	-0.01756731
105	0x3c077170	0.008266792
106	0x3c44a25a	0.012001598
107	0x3ce9b4cf	0.028528599
108	0x3cc07492	0.023493085
109	0xbb9ccc54	-0.0047851
110	0xbc8bf8ae	-0.017086353
111	0x3ccc0188	0.024903074
112	0x3c83b37c	0.016076796
113	0x3d01a4f9	0.03165147
114	0x3c59e212	0.013298528
115	0x3ca1940e	0.019723918
116	0x3cc88768	0.02447863
117	0x3cb6dc89	0.022321956
118	0x3c81abb5	0.015828947
119	0x3c803332	0.015649412
120	0xbc7bd419	-0.015370392
121	0x36d52674	6.352371e-06
122	0x3cb12811	0.02162555
123	0x3bdd2a3c	0.0067494195
124	0x3ca00bb2	0.019536827
125	0x3cef4861	0.029209318
126	0x3ca23d99	0.019804763
127	0x3c9f17fa	0.019420613
128	0xba71026e	-0.00091937825
129	0x3ce07a36	0.027402025
130	0x3aaf71b4	0.0013385327
131	0xbb844bbb	-0.004037348
132	0xbbab353e	-0.005224853
133	0xbb77b98c	-0.0037799804
134	0x3d03ebbe	0.032207243
135	0xbb60dd92	-0.0034311754
136	0x3c9e9750	0.01935926
137	0x3d284f7c	0.041091427
138	0x3cb20484	0.021730669
139	0xbc1d9bfd	-0.00961971
140	0x3c0badd4	0.008525331
141	0x3c4f20b0	0.012642071
142	0x3cbf76df	0.023372112
143	0x3c8cc7e6	0.017185163
144	0x3cdfd81a	0.027324725
145	0x3b8252b3	0.0039771437
146	0xbbb5f182	-0.0055524716
147	0x3c8cb5bc	0.017176501
148	0xbc106c45	-0.008814876
149	0x3c9f26a6	0.019427609
150	0xbc5c00f9	-0.013427966
151	0x3baa9205	0.005205395
152	0x3bd94d00	0.0066314936
153	0xbc6b038f	-0.01434411
154	0xbc4a7ea4	-0.012359295
155	0x3c0c1bd8	0.00855156
156	0x3c09f20b	0.008419524
157	0x3b08712a	0.0020819404
158	0x3c899f18	0.016799495
159	0xbbdabde1	-0.0066754674
160	0xbbe65cc0	-0.0070300996
161	0x3c40706d	0.011745554
162	0x3ca287fb	0.019840231
163	0x3c4a9e83	0.012366894
164	0xbcc6f35f	-0.02428597
165	0x3c8c0981	0.017094376
166	0x3cc14d11	0.023596318
167	0x3bd56a31	0.006512903
168	0x3ce0b340	0.027429223
169	0xbba857eb	-0.0051374338
170	0x3b8eefbe	0.0043620756
171	0xbc1ec419	-0.009690308
172	0x3c6a4642	0.014298977
173	0x3c13b394	0.009014983
174	0xbbd56015	-0.006511698
175	0x3c5603ee	0.01306246
176	0x3c18cb18	0.009325765
177	0x3d13c6ff	0.03607845
178	0x3cd1869b	0.02557688
179	0xbc3d6d76	-0.011561742
180	0x3c6bf6cf	0.0144021055
181	0xbae77285	-0.0017658031
182	0x3b5e6c96	0.0033939234
183	0x3c379cb7	0.011206797
184	0xbaaaae05	-0.0013021833
185	0x3b90a753	0.004414478
186	0x3cbd73e9	0.02312656
187	0x3c8a9dc6	0.016920935
188	0x3c9efacb	0.019406697
189	0x3b4f3ef0	0.0031623207
190	0x3bc0ac02	0.00587988
191	0x3c11fb44	0.008910004
192	0xbc61cad2	-0.013781266
193	0x3cf96d9b	0.030447772
194	0xbc8fbffe	-0.017547604
195	0x3c872a20	0.016499579
196	0x3cb26ed0	0.021781355
197	0x3c9b2793	0.018939769
198	0x3cae7117	0.02129416
199	0x3c733ef5	0.014846553
200	0x39acb739	0.00032942908
201	0x3ccb7a7f	0.024838684
202	0xbce8d9a2	-0.028424088
203	0xbaf72435	-0.0018855395
204	0x3b2e1337	0.0026561746
205	0xbc6150f3	-0.01375221
206	0xbbf3d6a6	-0.0074413596
207	0xbc581aeb	-0.0131900115
208	0xbc30a1b0	-0.010780737
209	0x3bcee66e	0.0063140905
210	0x3c9c8161	0.019104661
211	0x3c2108d8	0.009828769
212	0x3bc62bdd	0.0060477094
213	0x3ad838be	0.0016496403
214	0xbbbc01a2	-0.0057374993
215	0x3cb0d00c	0.02158358
216	0xbc94415a	-0.018097568
217	0xbc7744a4	-0.015092049
218	0xbc78e6c4	-0.015191738
219	0x3cbf92af	0.023385374
220	0xbb5617f5	-0.0032668088
221	0xbc9db85a	-0.019252945
222	0x3ca89b9f	0.020582018
223	0x3c1c8fa4	0.009555731
224	0x3bdd490f	0.006753094
225	0xbc9161c6	-0.017746817
226	0x3ca16f5c	0.01970642
227	0x3cd19c13	0.025587117
228	0xbc36d810	-0.011159912
229	0x3c73c99b	0.014879609
230	0xbbbc47b7	-0.0057458538
231	0xbcdc0408	-0.026857391
232	0xbcb4b31d	-0.022058064
233	0x3cdb2dd8	0.026755258
234	0xbcb6bbeb	-0.022306403
235	0x3c776d9c	0.0151018165
236	0x3c35a84e	0.01108749
237	0x3c66195f	0.014044135
238	0x3d12a5d1	0.035802666
239	0x3a6adec6	0.00089595874
240	0xbc128ef0	-0.008945212
241	0x3d0cbd39	0.034360144
242	0x3be921b6	0.0071146144
243	0x3b3760ab	0.0027981203
244	0x3bddc44a	0.0067677842
245	0x3be1ea0e	0.0068943566
246	0xbc5586c5	-0.01303262
247	0x3d259267	0.040422823
248	0x3cdf1738	0.027232751
249	0x3c5e053d	0.013551054
250	0x3c7029b5	0.014658381
251	0x3cfa870c	0.030581973
252	0x3c862483	0.016374832
253	0x3b8bebd3	0.004270056
254	0xba81d813	-0.0009906314
255	0x3c58073c	0.013185319

network_body._body_endoder.seq_layers.2.weight f4 [256, 256]
0	0xbd55815c	-0.05212532
1	0xbcf2f030	-0.029655546
2	0x3dbb325d	0.091404654
3	0xbd700d62	-0.058606513
4	0x3bfbc9e8	0.007683981
5	0xbb8b2707	-0.004246596
6	0x3decd30b	0.11563691
7	0xbb7b4f34	-0.003834677
8	0xbd944999	-0.072406
9	0xbd0fc6a4	-0.035101548
10	0x3d6341bd	0.055482615
11	0xbbb3c3d2	-0.00548599
12	0x3d71dd2d	0.05904882
13	0xbd477b6f	-0.0487017
14	0xbcfe4fb7	-0.03104387
15	0x3c607602	0.01370001
16	0xbd106f97	-0.03526267
17	0x3d1a9cbd	0.037747134
18	0xbdb4955d	-0.08817551
19	0xbdf7657b	-0.12079903
20	0xbcb64ebb	-0.022254338
21	0x3cf7303e	0.03017437
22	0x3cac04d7	0.020998402
23	0x3d83e1e3	0.06439569
24	0x3d56da15	0.052454073
25	0xbdbc7876	-0.092026636
26	0x3dad175c	0.08451721
27	0xbd852ae4	-0.06502321
28	0x3c455ba9	0.012045779
29	0x3d8ae925	0.0678275
30	0xbc0a8b84	-0.008456115
31	0x3dbd9a21	0.092579134
32	0x3de1e207	0.110294394
33	0x3d598b82	0.05311156
34	0x3da8e07b	0.08245941
35	0xbc15f144	-0.0091517605
36	0xbdf6dad9	-0.12053461
37	0x3ddf01de	0.10889028
38	0x3d99ac18	0.075035274
39	0xbda3904a	-0.07986505
40	0x3be00fb0	0.0068378076
41	0xbd7470a9	-0.059677754
42	0xbddb45ae	-0.1070665
43	0x3dd2b9a5	0.10289315
44	0x3ce3ab37	0.027791603
45	0xbb0fc80b	-0.0021939303
46	0xbb87f1f8	-0.004148718
47	0x3d52c572	0.05145783
48	0x3d81ae6d	0.06332097
49	0xbc7f26b9	-0.015573197
50	0xbc7d456f	-0.015458449
51	0x3df29d08	0.118463576
52	0x3d842914	0.064531475
53	0xbc7e0ba0	-0.015505701
54	0xbde6e330	-0.11273801
55	0xbc44e191	-0.01201667
56	0xbc04de8b	-0.008109699
57	0xbd328dd5	-0.043592293
58	0xbd0c3e7f	-0.03423929
59	0x3d86d476	0.065834925
60	0xbe0497fd	-0.12948604
61	0xbbdebd1f	-0.0067974473
62	0x3dfc4b5f	0.123190634
63	0xbd1fd582	-0.039021976
64	0xbd435699	-0.047690008
65	0x3d0b47a3	0.034003865
66	0x3db1ce9f	0.08681988
67	0xbd1ea56d	-0.03873198
68	0x3ce69fd2	0.02815238
69	0xbcf559d0	-0.029950052
70	0x3c7c7f72	0.015411245
71	0x3de89c3d	0.11357925
72	0xbcf448c9	-0.029819863
73	0xbdb1bb23	-0.086782716
74	0x3d1cce50	0.038282692
75	0x3ccf3607	0.025294317
76	0xbd4fd168	-0.050736815
77	0x3d5b2149	0.05349854
78	0xbbe73526	-0.0070558963
79	0xbcb55713	-0.022136247
80	0x3c5ba288	0.01340545
81	0x3d6f80d7	0.05847248
82	0x3ba1fac0	0.004943222
83	0x3bc4c4db	0.0060049123
84	0xbd00ba69	-0.031427775
85	0xbd96d74c	-0.07365283
86	0x3d27ca68	0.040964514
87	0xbd09ba8f	-0.03362518
88	0x3de32618	0.1109125
89	0x3d92c25d	0.07165978
90	0x3d69b819	0.057060335
91	0xbd35fa23	-0.044428002
92	0x3e26eb4c	0.16300696
93	0x3d0668f5	0.03281494
94	0x3da5bd41	0.08092738
95	0x3c856965	0.016285608
96	0xbc942281	-0.018082859
97	0x3d201b8d	0.039088774
98	0xbd4a4225	-0.049379487
99	0x3d228e00	0.039686203
100	0xbd5e2976	-0.05423876
101	0x3cff565b	0.031169107
102	0xbb2aa8ce	-0.0026040557
103	0x3d429a5b	0.047510486
104	0x3e0e78ef	0.1391332
105	0x3d2a4444	0.04156901
106	0xbc4424aa	-0.011971632
107	0x3bc9bdcc	0.0061566588
108	0x3e112205	0.14173134
109	0xbdfbac3b	-0.1228871
110	0x3e1b1cc8	0.15147698
111	0x3b3153ff	0.0027058122
112	0x3cbe8e7c	0.023261301
113	0x3d89f885	0.067368545
114	0x3d5bd6dd	0.053671706
115	0xbdd1a33d	-0.10236213
116	0x3b15b02b	0.00228406
117	0xbbaba256	-0.005237858
118	0x3dbd65ba	0.092479184
119	0xbd39db07	-0.045374896
120	0x3d3960ec	0.045258448
121	0x3db5aed2	0.08871235
122	0xbd15e43e	-0.03659462
123	0x3dbfc87f	0.093644135
124	0x3da2f1fb	0.0795631
125	0x3c46741e	0.012112645
126	0x3d0becab	0.03416125
127	0x3d1778d7	0.036980476
128	0xbca00fd4	-0.019538797
129	0x3dcd4f5b	0.100249015
130	0x3d9078a7	0.070542626
131	0xbd4741fc	-0.048646912
132	0x39dc65ec	0.00042037608
133	0x3c0909b0	0.008364126
134	0xbd1b6bad	-0.037944485
135	0x3ceb1c23	0.02869994
136	0x3d72ef67	0.059310343
137	0xbd0313fc	-0.03200148
138	0x3c33a8f5	0.010965575
139	0x3d94cc02	0.07265474
140	0xbd160e53	-0.036634754
141	0x3d940838	0.0722813
142	0xbddc7688	-0.107647955
143	0x3df4db36	0.11955874
144	0x3c8f7e84	0.017516382
145	0xbd7d8620	-0.06189549
146	0xbb380888	-0.0028081257
147	0x3ca77ca6	0.02044518
148	0xbd24de36	-0.04025098
149	0xbc9b9fca	-0.018997092
150	0x3d6965ae	0.056981735
151	0xbd8c61ba	-0.06854577
152	0x3c0fa7e3	0.008768055
153	0x3df06d74	0.117396265
154	0xbe1c43d0	-0.15260243
155	0xbc7790ef	-0.015110238
156	0x3b8b000d	0.0042419494
157	0x3d283f4b	0.041075986
158	0x3d791252	0.060808487
159	0xbda4a74f	-0.08039724
160	0x3d8497d2	0.0647427
161	0xbdcf75fd	-0.10129926
162	0xbb6f6aac	-0.0036532087
163	0x3c909884	0.01765085
164	0xbd3a8339	-0.0455353
165	0x3da9c9ed	0.082904674
166	0x3d05cd1f	0.03266632
167	0x3b1fff2c	0.002441357
168	0xbd138cc1	-0.036022905
169	0x3d91b374	0.07114306
170	0xbd1d8cf1	-0.03846449
171	0xbbeb1cf0	-0.0071750805
172	0xbd689467	-0.056782153
173	0x3da32412	0.07965864
174	0xbd30853f	-0.043095823
175	0xbca880a5	-0.020569155
176	0x3dd1cee4	0.102445394
177	0xbb3e91ff	-0.002907872
178	0x3cf53b4a	0.029935498
179	0x3d7aed37	0.061261382
180	0x3caec105	0.021332273
181	0x3dd1d61f	0.102459185
182	0x3c47dcc8	0.012198634
183	0x3bf9f6f3	0.0076283156
184	0x3c335b1e	0.010947017
185	0xbd27d244	-0.04097201
186	0xbdef7553	-0.116923
187	0x3e0fd823	0.14047293
188	0xbd0167d3	-0.031593155
189	0x3db6027e	0.08887194
190	0xbad21505	-0.0016027993
191	0x3c69162e	0.014226479
192	0x3e3c4120	0.18384218
193	0xbd973192	-0.07382502
194	0x3c399afb	0.011328454
195	0xbc5ea5f6	-0.013589373
196	0x3ce865f9	0.028368937
197	0x3d9d93d1	0.07694209
198	0x3dba0f66	0.09084968
199	0x3d09c760	0.033637404
200	0x3c04e399	0.008110904
201	0x3db6aefe	0.08920096
202	0x3d01f285	0.031725425
203	0x3c56cc0a	0.01311017
204	0x3cf21f16	0.029555839
205	0xbc06f09d	-0.008236078
206	0xbdb79a6b	-0.08965
207	0x3cb2c978	0.021824583
208	0x3d0c73c5	0.034290094
209	0x3df6dd99	0.12053985
210	0xbde12a78	-0.109944284
211	0x3d9cc9ef	0.07655703
212	0x3d519d72	0.051175542
213	0x3cff472f	0.031161873
214	0xbc3aca40	-0.011400759
215	0x3cee4335	0.029084781
216	0xbc8e54ac	-0.01737436
217	0x3cc9bd58	0.024626419
218	0x3c40dae9	0.011770942
219	0xbb44f4be	-0.0030053104
220	0x3cb7194a	0.022350926
221	0xbcb4c082	-0.022064451
222	0x3dd05772	0.10172929
223	0xbca0a86f	-0.019611565
224	0x3d83a64d	0.06428204
225	0xbceca2c4	-0.028886206
226	0xbd7d45b8	-0.061834067
227	0xbc051421	-0.008122475
228	0x3bc019fb	0.005862472
229	0xbcbd5cd7	-0.023115559
230	0x3c9f3bf5	0.01943777
231	0xbda3242c	-0.079658836
232	0xbc36f76e	-0.01116739
233	0xbc8c2797	-0.017108722
234	0x3d89c931	0.06727827
235	0x3ccc27ab	0.024921259
236	0x3d7c1ec2	0.06155277
237	0x3d2a48fa	0.041573502
238	0x3ccf3cfa	0.02529763
239	0xbd838eab	-0.06423696
240	0x3d245e2e	0.04012888
241	0xbd8cf15d	-0.06881974
242	0xbd27dd1f	-0.040982362
243	0x3c7920e4	0.015205596
244	0xbd5d06ec	-0.05396168
245	0xbc763f7c	-0.015029784
246	0x3dc8dcdf	0.09807753
247	0xbdf0823c	-0.1174359
248	0x3da9f826	0.08299284
249	0xbd3daeb9	-0.046309207
250	0x3d841f99	0.06451339
251	0xbdb10019	-0.08642597
252	0x3d509953	0.05092747
253	0xbce198f1	-0.027538748
254	0xbcab048c	-0.020876192
255	0x3c98f219	0.018670129
