AI Models/ReinforcementLearning/CarAgentv4.0.onnx (onnx, 333806 bytes, 7 tensors)

action_model._continuous_distribution.log_sigma f4 [1, 3]
000000 11 80 03 be 24 0c bf be a1 e6 c8 be
       -0.12841822 -0.3731395 -0.39238456

action_model._continuous_distribution.mu.bias f4 [3]
000000 05 ef bc bb d9 74 2f bc df b4 6e bc
       -0.005765798 -0.010709011 -0.01456949

action_model._continuous_distribution.mu.weight f4 [3, 256]
000000 c8 a6 53 3d 45 d5 2c bd 4c 2e 9d bc 1d 26 0c 3d
       0.051672727 -0.042195577 -0.019187115 0.034216035
000010 a3 34 9b bd ed 6b 48 3c b8 42 49 3d ce 58 c6 bc
       -0.07578399 0.012232763 0.049135894 -0.024212267
000020 11 23 e3 3c 92 43 8f bd 60 f6 00 3d 7e 2f f1 bb
       0.027726682 -0.0699531 0.03148496 -0.007360398
000030 f5 b6 1f 3d de 23 a9 bc 1c 92 0e 3d 6e 90 cb bd
       0.03899284 -0.020646986 0.03480731 -0.09939657
000040 49 f3 79 bd ee cf 28 bd 56 d1 14 3d c5 e0 de 3c
       -0.06102303 -0.041213922 0.03633245 0.027206788
000050 73 26 5e 3d a3 68 72 bd 1d 55 33 3d 22 f7 05 3d
       0.054235887 -0.05918182 0.043782342 0.032706387
000060 48 4c b8 3c 87 60 36 bd fe 69 2d 3d 3b 85 6f bd
       0.022497311 -0.04452565 0.04233741 -0.058476668
000070 34 8e 02 be fe cf a9 bb 1d 98 38 3c 79 b3 84 bd
       -0.12749559 -0.0051822653 0.011266735 -0.06479544
000080 38 1c 62 3d fe 80 a0 3c 39 27 20 bc 3f e7 21 3c
       0.055202693 0.019592758 -0.009774976 0.0098817935
000090 e4 f3 af 3c 34 23 40 3c 0a a8 a2 3c 04 a0 1a 3d
       0.0214786 0.011727143 0.019855518 0.03775026
0000a0 4f 18 f6 bc 60 28 8a bc da 11 af 3b c5 01 90 3c
       -0.030040888 -0.016864955 0.0053427042 0.017578969
0000b0 21 d4 ff bc 53 ad c0 bc b4 87 80 3c ea 1e ae bd
       -0.03122908 -0.023520147 0.015689708 -0.0850199
0000c0 96 9d de 3c 54 3c 70 3d 48 7d 3b 3d dc a5 dd 3c
       0.027174752 0.058651283 0.045773774 0.027056627
0000d0 68 29 d2 b6 ff 92 74 3d e2 54 2c bc ba 67 62 3d
       -6.263308e-06 0.0597105 -0.0105182845 0.055274703
0000e0 a2 2f 2d 3d 5b 62 9b 3c 27 a0 47 bd 53 eb c8 bc
       0.042281754 0.018967798 -0.048736718 -0.024526274
0000f0 be 07 37 3c 16 f5 3d 3d 86 dd 21 3d d2 a1 b0 bd
       0.0111712795 0.04637631 0.0395179 -0.08624615
000100 f0 89 97 3c 16 f1 5d bd b5 c5 65 3d 7e e3 a8 bd
       0.01849839 -0.054184996 0.05609675 -0.08246516
000110 22 e8 7a bb ab b1 1a 3d 58 14 cc 3c 8c 81 5f 3c
       -0.0038285335 0.037767094 0.024912044 0.013641726
000120 75 7b a2 3c 75 6e 23 3d 62 9a 65 bc d3 90 d3 bc
       0.01983426 0.039900262 -0.0140138585 -0.025825894
000130 fc 0e 2a bd 90 df 53 3d dc 09 94 bd f0 6f 3a bb
       -0.041518196 0.051726878 -0.07228443 -0.0028448068
000140 fc b1 2f 3d d0 e3 91 3d 78 13 83 bc 67 81 1b 3c
       0.04289435 0.0712353 -0.016000494 0.009491301
000150 b2 5c 08 3d 35 8f f9 3c 8a e3 40 3d c6 b2 81 bd
       0.033291526 0.030463794 0.047092 -0.063329265
000160 e1 e2 13 3d 7a 53 8c bd cf f7 e4 3c 53 d0 46 3d
       0.03610504 -0.068518594 0.027950196 0.048538517
000170 c9 39 53 bc 7d 2a 1a bd 69 df 25 bc a2 a7 d7 bc
       -0.012892195 -0.037638176 -0.010124066 -0.02632505
000180 17 b3 06 3d e7 96 c7 bd 89 fc b6 3c cc 19 2c 3d
       0.032885637 -0.09745579 0.022337215 0.04201679
000190 e4 8c a0 bc 85 59 7b bc 3b c5 9d 3c 40 0e 2e bd
       -0.019598432 -0.015341167 0.019259086 -0.04249406
0001a0 f2 58 e2 3c 57 52 ad bc 50 ba 97 bd df 6a 77 3c
       0.027630303 -0.021157427 -0.07408583 0.015101164
0001b0 ff 61 36 3d bf c1 1b bd 0a 76 f8 3c f6 a2 3e 3d
       0.04452705 -0.038026568 0.030329723 0.04654213
0001c0 3b b2 02 3d 3c 05 ff ba 94 be 80 bd 64 79 9f bd
       0.031908255 -0.0019456516 -0.0628635 -0.07786825
0001d0 3d 3d bd bd 72 b2 57 3d 81 89 08 3d 6e 4a 63 bb
       -0.09240196 0.052660413 0.03333426 -0.0034681815
0001e0 dc 58 47 3d 32 3a 63 bd ee 28 07 bd b2 9d 4a 3d
       0.048668727 -0.05547542 -0.032998018 0.049466796
0001f0 fe 46 d3 bc 5a d0 8b 3c c5 7f 3c 3d 99 a0 28 3d
       -0.025790688 0.017067123 0.046020288 0.041168783
000200 d6 4f f7 bc c7 5b 6e 3c 99 c4 19 3d 94 3e d0 bc
       -0.030189436 0.014548249 0.037541006 -0.025420465
000210 be 20 f0 3c a0 49 a9 3b 1c 46 8f 3d e7 71 51 3d
       0.029312488 0.0051662475 0.06995794 0.051134016
000220 2a c2 33 bd 3f f8 44 3d b5 16 c2 3c 92 31 86 3d
       -0.04388634 0.04808831 0.023692468 0.065524235
000230 15 54 77 3c b5 1c 8a bd d1 79 51 3d 6a f2 72 3d
       0.01509573 -0.06743757 0.051141564 0.059313215
000240 bd 13 51 3b fb 45 6e 3c ee 0d 31 3d a1 cf 3e bc
       0.0031902634 0.014543052 0.043226175 -0.011646182
000250 c0 15 31 bd c9 91 30 3d 5e 62 9c bc 07 5b ad bd
       -0.043233633 0.04310778 -0.019089874 -0.08464628
000260 b3 2d 8e bd 85 1c 8e bd 5e 5e ad bc 56 cc 10 3d
       -0.0694231 -0.069390334 -0.021163162 0.03535112
000270 aa 20 20 3b 8e ec 27 3d dc 46 17 3b 0f 31 41 3d
       0.0024433532 0.04099708 0.0023083007 0.047165927
000280 42 54 10 3d 13 e6 04 bc 9f 61 40 3d 41 e1 d8 3c
       0.035236605 -0.008111495 0.0469681 0.026474597
000290 63 eb 1d 3d ea 1e 9a bd 4d f2 4d 3d 24 39 41 bc
       0.03855456 -0.07525428 0.050279904 -0.011793409
0002a0 da 8a b5 bc 43 58 3a bd d6 c9 5a 3d 7a 77 29 3d
       -0.022160936 -0.04549433 0.053415142 0.041373707
0002b0 d9 93 cb bc 66 94 3b bd e8 cc aa bd 8f 22 0d bd
       -0.024850773 -0.04579582 -0.08339864 -0.034456786
0002c0 06 3d 6e bd a5 31 f5 3b 0a f1 5c 3d 6f 69 84 bd
       -0.058163665 0.0074827247 0.05394081 -0.06465422
0002d0 ec f1 7f bc 95 5b e6 bd 70 75 1b bd 61 3e 7f 3d
       -0.0156216435 -0.11247937 -0.037953794 0.06231535
0002e0 cf c7 6d bc c9 ac 3a 3d 32 94 75 bc 95 45 63 3d
       -0.01451297 0.045574937 -0.014988946 0.05548628
0002f0 da c9 44 bb 66 bb 02 38 7b c1 e6 3c 87 12 ea bd
       -0.003002754 3.1168944e-05 0.02816843 -0.11429315
000300 a0 d3 54 bd ce 75 9d bd ac b7 7e 3d 67 b2 13 3d
       -0.051959634 -0.07688485 0.062186882 0.03605881
000310 4d eb b2 bc b1 2b 98 3c 0a a6 bd 3b 29 b7 67 bd
       -0.021840716 0.018575521 0.0057876157 -0.05657116
000320 08 5b 67 bd 17 26 36 bd 87 23 31 3d eb 0d 8b bb
       -0.0564833 -0.04446992 0.043246772 -0.0042436025
000330 63 84 fa 3c 3c a3 31 3d ed 36 c8 bc 3e 64 1d bd
       0.030580705 0.043368563 -0.024440253 -0.038425677
000340 0e 2f 1b 3c 4e a8 3d bd 1e 1d f2 3c 3e fd 60 3d
       0.009471668 -0.046303086 0.0295549 0.05492901
000350 71 58 2a bd 16 0e 65 bd d6 85 8e bd 72 5f 5f bc
       -0.04158825 -0.055921637 -0.06959121 -0.013633596
000360 08 15 c1 3c 44 e4 9d bc 39 f5 ac 3c 40 b5 ef b9
       0.023569599 -0.019273885 0.021113025 -0.00045720674
000370 3f c0 42 bd eb ff 46 bd 4f 8c 8f 3c e3 15 60 bd
       -0.04754662 -0.048583906 0.017522959 -0.054708373
000380 e9 a0 ca 3b d2 6d e9 3c 15 1f 16 3d 18 55 27 bd
       0.0061837328 0.02849475 0.036650736 -0.040852636
000390 6a 26 7c 3b fe 3d 3f 3d bd e5 f7 bc 8d 98 51 3d
       0.0038475045 0.04668998 -0.030260915 0.051170874
0003a0 e9 cd 30 bd 03 5b af bc a4 3b 51 3d e2 94 a1 bd
       -0.04316512 -0.021405702 0.05108227 -0.07889725
0003b0 5e 4c c7 3c 47 16 0a 3d 3d 4c 64 bd 33 fa 35 3d
       0.024328407 0.03371265 -0.05573677 0.04442806
0003c0 9c 2a 42 3d 74 de 76 3d 71 b9 47 bd 90 48 8d 3d
       0.047403917 0.06027074 -0.048760835 0.06898606
0003d0 ad 2e 28 3c ab 9b 61 bd cf 08 42 bd 32 1f 25 3c
       0.010265035 -0.055080097 -0.04737168 0.010078238
0003e0 34 fb 6b 3d 57 f8 99 bd e1 a2 d0 3c 3d 9e a0 bc
       0.057612613 -0.0751807 0.025468292 -0.019606704
0003f0 f4 73 5e bd f7 b6 f7 3c e8 77 d2 3a f5 c2 2a 3b
       -0.0543098 0.030238612 0.0016057463 0.0026056145

network_body._body_endoder.seq_layers.0.bias f4 [256]
000000 b9 03 f7 3b ca d8 34 bc 7c ab b7 bc f6 00 c9 3c
       0.0075382856 -0.011038015 -0.022420637 0.024536591
000010 90 ed 5d 3d a8 f9 d9 3c 19 af d2 3c 81 87 90 bb
       0.054181635 0.026608303 0.025718259 -0.0044106846
000020 dc bd 95 3c 3b a3 3b bb a5 55 06 3b c7 23 9d 3c
       0.018279009 -0.0028631228 0.0020497825 0.019182099
000030 35 c6 0b bc b8 24 a4 3c 7d 21 fc 3c 68 b8 a1 ba
       -0.008531143 0.02003704 0.030777687 -0.0012338283
000040 51 7e 11 3c 43 83 f2 3b 57 ca 41 3c 42 71 10 3c
       0.008880214 0.0074009015 0.011828027 0.008816065
000050 16 cc 6d 3c e4 2b 04 3d f6 e1 0d bb 99 f5 21 bc
       0.01451399 0.03226842 -0.0021649576 -0.009885215
000060 c7 a8 86 bb c2 bf a8 bc f0 f7 05 3b e5 85 92 bb
       -0.0041094753 -0.02059925 0.0020441972 -0.004471528
000070 a6 c2 0b 3d e2 46 43 39 98 e0 0e bc ea 3e 0d bc
       0.034121178 0.00018623055 -0.0087205395 -0.008620957
000080 a9 e3 ef 3b 47 26 df 3c b4 52 dd bc f9 9e 51 3c
       0.0073208404 0.027239932 -0.027016975 0.01279425
000090 72 3a a8 3c f0 ad a1 3b 45 80 d9 3c a1 5b 1b 3d
       0.020535681 0.004934065 0.026550421 0.03792918
0000a0 79 23 e4 3c 27 7e cd 3c 4a b6 9c bb bf b3 a1 bc
       0.027848946 0.025084568 -0.0047824727 -0.01973903
0000b0 1c cb 25 bc 74 b4 4d bc fa 4e 60 3c 27 c9 dd 3a
       -0.010119226 -0.01255523 0.0136907045 0.001692091
0000c0 99 18 4f 3d fc 68 0a 3d 40 a4 18 3d dd 85 5d 3c
       0.050560568 0.033791527 0.037266016 0.013520685
0000d0 31 47 83 3c ea 8d 03 bc fa 54 99 3c 92 2a 07 3d
       0.016025158 -0.00802944 0.018717278 0.032999583
0000e0 66 fd 94 3c e8 75 dc 3b 41 a6 b4 bc 5a 98 ad 3c
       0.018187236 0.0067279227 -0.022051932 0.021190811
0000f0 72 91 d8 3c 44 a3 7f 3a 12 dc d5 3c f8 69 4b bb
       0.026436541 0.00097518065 0.026105914 -0.0031038504
000100 6d 0b ca 3c 60 31 c7 bb d7 a2 05 bc da b4 9e 3c
       0.024663651 -0.006078884 -0.0081565 0.019373346
000110 b0 6d 5f 3d f9 e2 2e bc 0a 29 e4 3a e2 de 98 3b
       0.054547966 -0.010674232 0.001740725 0.0046652416
000120 3d 79 4b bc e2 2a 8d 3c 9b 1a 63 bb 5a 59 cf bc
       -0.012419042 0.017232362 -0.003465331 -0.02531116
000130 bf 8f e5 3c df 13 9e bc 25 73 78 ba 5d df 53 3c
       0.028022645 -0.019296585 -0.0009477607 0.012931672
000140 37 2b fb 3b ca bf 32 3b ce 8e 3b 3d a6 4b fa 3b
       0.0076650637 0.002727496 0.045790486 0.0076384125
000150 fb 23 2a 3d 38 38 1c 3d 9d be c9 bb 41 ef 92 bc
       0.04153822 0.038139552 -0.006156756 -0.01793635
000160 c5 4a 80 3c 3f 23 9d 3c e2 33 a0 3c c8 99 91 3c
       0.015660653 0.019181846 0.01955599 0.017773524
000170 6c 3e af 3a c8 bf 19 3c 04 1c a8 3c 14 f6 d5 bb
       0.0013370044 0.009384103 0.020521171 -0.006529579
000180 31 c0 0a 3d 0d ae 50 3d 46 b9 35 3d cf 27 56 3c
       0.033874694 0.050947238 0.044366144 0.013071015
000190 27 2d 5d 3c 99 df 93 3c d1 7d 68 3c 50 60 e6 3c
       0.013499535 0.018050956 0.014190153 0.028122097
0001a0 f6 a0 2c 3d 56 9e f9 bb eb 6a b8 3b 71 6f 2f bc
       0.04214569 -0.007617752 0.00562798 -0.010707722
0001b0 29 cf 35 bc bb de b3 bc 66 7e 3e bc 59 c0 41 3d
       -0.011096754 -0.021956792 -0.011626815 0.047302578
0001c0 c2 9f 68 3c 24 6a e0 bc 44 c6 f7 3c 0a 44 c6 3c
       0.0141982455 -0.027394362 0.030245908 0.024202365
0001d0 b6 d1 33 3d 00 e7 73 3d ba 0b 2c 3d cf ae d3 bb
       0.043901168 0.05954647 0.04200337 -0.006460048
0001e0 8d 5f 96 3c 2f 0f 36 3d ee bc 8b 3b 7c e9 61 3c
       0.018356109 0.044448074 0.0042644655 0.013788577
0001f0 0f 2e 81 3a 5c 53 1b 3d 72 26 74 3c 46 7c 40 3c
       0.0009855645 0.037921295 0.014901744 0.011748379
000200 82 12 b4 3c e0 d8 cf 3c 94 5c a5 3c cb bb 92 3c
       0.021981481 0.025371969 0.020185746 0.017911812
000210 e3 30 20 ba f8 b8 68 bb e5 09 07 3d ee 26 9b b8
       -0.00061108003 -0.003551064 0.03296842 -7.398227e-05
000220 e2 2b 73 3d 84 a7 f5 b9 26 0f 9b bb 39 18 0e 3d
       0.05936802 -0.0004685485 -0.0047320304 0.03469107
000230 77 69 8c 3c d1 eb d9 3c 98 0d 2e 3c 57 78 73 3c
       0.017140133 0.026601704 0.010623358 0.014860234
000240 42 c6 d8 3c d0 21 97 bb 49 7a 96 3b 3e c8 1a 3c
       0.026461724 -0.004612185 0.0045922142 0.0094471555
000250 68 b1 c6 ba 57 bf 6e 3c a2 d6 74 3c de 0d d0 3b
       -0.0015159072 0.014571986 0.014943751 0.0063493093
000260 20 93 22 3d da 1f 50 bb 09 e1 61 3c ae b4 29 bc
       0.03969109 -0.0031757266 0.013786563 -0.010358019
000270 57 06 15 3d 5c 0f 82 3c 2d 34 10 3d 43 1c 9f 3c
       0.036383 0.015876465 0.03520601 0.019422656
000280 cf b7 3c 3c ff 2b ec bb 38 3a d2 3c 08 80 a6 3b
       0.011518433 -0.007207393 0.025662526 0.0050811805
000290 3f ad 41 3d 9e db 42 3d 3b 4b 66 3c e0 67 16 3d
       0.04728436 0.047572725 0.014056022 0.036720157
0002a0 94 55 b7 3c f8 95 74 3c a9 18 25 3b 54 96 0b 3d
       0.022379674 0.014928333 0.00251917 0.03407891
0002b0 3d 7c 79 3d ac 3b 21 bc 37 12 80 3c c0 23 57 3d
       0.0609095 -0.009840887 0.015633686 0.05252433
0002c0 de 40 83 bb b8 a5 ba 3c b2 fa 21 3c c9 cf 02 3c
       -0.0040055355 0.022784099 0.009886431 0.00798411
0002d0 07 bd 52 bc eb 69 10 3c 72 c9 bc 3c 32 8f 69 bb
       -0.01286245 0.008814315 0.023045275 -0.003563833
0002e0 d5 a4 c7 3b 00 16 9d 3b dc f3 14 3c 25 8c 00 3d
       0.0060926476 0.0047938824 0.009091344 0.031383652
0002f0 28 1b b6 3c 65 ba 46 3c 81 72 95 3b fe dd 8b 3c
       0.022229746 0.012129401 0.004560769 0.017073628
000300 32 54 e8 ba ab d5 4a 3c 84 e2 0f 3d a0 20 22 bc
       -0.0017725287 0.012380044 0.03512813 -0.009895474
000310 a0 a0 da 3c 7d 9d ed 3c 53 88 ff bc f5 f4 9a bc
       0.02668792 0.02900576 -0.031192934 -0.018915633
000320 34 44 1f 3d b5 a5 24 3d 42 27 18 3c 25 40 f4 3c
       0.038883403 0.040197093 0.009286704 0.029815743
000330 ba a5 56 3c a9 6a b6 3c 2b 58 cf 3b 0a 40 01 3d
       0.013101036 0.022267656 0.006327649 0.031555213
000340 e2 29 b6 3c c5 f8 d2 3b d7 a7 09 3c f9 51 f0 3b
       0.022236768 0.006438347 0.008401833 0.0073339907
000350 a6 ab 11 3d 74 42 12 bb 27 ab 18 3d b2 66 c0 bc
       0.035564087 -0.0022317441 0.0372726 -0.023486469
000360 59 3e 25 bc 31 ba 3c 3b 64 72 8e 3c 65 f0 bf 3b
       -0.010085666 0.0028797502 0.01738853 0.0058575147
000370 5a f3 83 bc 75 c0 5d bc 81 f4 21 3d 62 db 2f 3c
       -0.01610725 -0.013534655 0.039539818 0.010733457
000380 fa cf a1 bb ce 66 93 bb 57 51 06 3d c8 ed 21 3d
       -0.004938123 -0.0044983393 0.032792415 0.039533406
000390 ba 7c 03 3b bf 64 5b 3c da b7 71 3c 12 15 b4 3c
       0.0020063356 0.013390719 0.014753306 0.021982703
0003a0 74 e1 00 3d 30 e7 8e 3c 05 41 aa bc c4 35 fa 3c
       0.03146501 0.017444223 -0.020782957 0.030543216
0003b0 cd 7a 41 3c ae 9d b5 3c 41 b5 35 3c 87 9d 53 3d
       0.011809063 0.022169914 0.011090578 0.0516639
0003c0 45 c2 09 3c b4 ce 72 3c 2b 81 66 3d 5a de 5e 3c
       0.008408134 0.01481979 0.056275528 0.013602817
0003d0 0c af f4 bb 87 f4 c8 3c 91 cd 9c 3c 14 ee e2 3b
       -0.0074671563 0.024530662 0.01914099 0.006925354
0003e0 e8 32 93 bb 86 ad 11 3b 99 04 00 bc bd e9 c9 bb
       -0.0044921525 0.0022228672 -0.007813596 -0.006161897
0003f0 a7 61 47 3c e5 dd 83 3c ba 2b a7 3b 01 dd 74 3b
       0.012169278 0.016097018 0.005101648 0.0037363174

network_body._body_endoder.seq_layers.0.weight f4 [256, 63]
000000 da f9 73 3e 8c 4c dd bd ef 95 90 3e 5d 36 16 3e
       0.2382578 -0.10805616 0.2823939 0.14669175
000010 39 a8 86 3c 57 c7 b3 3d 2e 28 5c 3e 01 85 a0 bd
       0.016437637 0.087782554 0.21499702 -0.078378685
000020 e6 48 50 3d 9a 60 02 3d d6 7f 7b 3c e3 cc 0e be
       0.05085077 0.031830408 0.015350303 -0.13945346
000030 7d 51 09 3d ce d8 eb 3b 7c b4 a6 bd 57 c1 d1 bd
       0.03352498 0.007197476 -0.081398934 -0.10241955
000040 3b 50 6d be a6 b9 a2 bd f0 2a 6b be 03 31 87 3e
       -0.23175137 -0.07945566 -0.22965598 0.2640458
000050 4b 49 f2 3d fd 01 0d bc 0a ea 62 3d de f9 8d bd
       0.11830386 -0.008606431 0.05539898 -0.06932424
000060 5e cd b3 3c 65 a3 63 bd 2a a2 fe 3b c6 a4 ef 3d
       0.021948513 -0.055575747 0.0077707963 0.1170135
000070 98 d2 59 be e0 3c 97 3e 23 46 27 3e 38 3e 26 3c
       -0.21271741 0.2953863 0.16335349 0.01014667
000080 89 76 af be c4 96 c6 3e 7d 58 b0 3d a9 18 e8 bd
       -0.34270123 0.387869 0.08610628 -0.113328286
000090 73 5d 36 3e 8b 43 18 be 57 30 30 be 51 f9 1b 3e
       0.17809086 -0.14869516 -0.1720594 0.15231825
0000a0 e8 c6 95 3c 53 c6 32 be 8b 80 82 bd 2f 09 41 3e
       0.018283322 -0.17458467 -0.06372174 0.1885116
0000b0 cc b7 58 bd ca 24 cc bd 25 b9 39 bb 6f 0c b9 bd
       -0.052909657 -0.099679545 -0.0028339115 -0.09035575
0000c0 1f 3a 1f be 77 33 45 3e 46 33 8c bd 1d 16 df bb
       -0.15549515 0.19257914 -0.06845717 -0.006808056
0000d0 28 9a 19 3e 36 15 2b 3d c0 9b 1b be 94 22 7e bd
       0.15000212 0.041768275 -0.15196133 -0.062044695
0000e0 04 11 ad bd 94 8c 91 bc d0 4b 7f 3d 19 8e 3e 3e
       -0.08450511 -0.017767228 0.06232816 0.18608893
0000f0 21 c9 d0 3d 5a 2a 97 3d 33 a0 39 be 6d 19 bf 3d
       0.10194612 0.07381125 -0.18127517 0.093310215
000100 60 14 54 3c 9f f6 12 be 93 9d 21 3e 2c cf 0c be
       0.012944311 -0.14351891 0.15782766 -0.13750905
000110 db ca a9 bd cb 02 9d bd 2a c9 91 be 47 2d 16 be
       -0.08290645 -0.07666548 -0.28473788 -0.1466571
000120 b0 c4 58 be b2 f1 a3 3d 5b 6f f0 3e 44 d5 e3 bd
       -0.2116878 0.08005084 0.46959957 -0.111246616
000130 c3 e9 8c 3c b3 0f 7b be 5a 9c d5 3d ed 61 56 3d
       0.01720131 -0.24517708 0.10430212 0.052339483
000140 ea 52 e9 3c 5f c4 2f be 33 10 e4 3d 5a 5b ad bc
       0.02848192 -0.17164753 0.11135902 -0.021161724
000150 1a 9a bb bd b9 46 aa 3d c1 10 09 be 95 bf 8c be
       -0.09160252 0.083142705 -0.13385297 -0.27489915
000160 82 f5 16 3e 53 26 36 be 22 00 02 3e e0 f3 7a bc
       0.14742091 -0.17788057 0.12695363 -0.015316933
000170 64 a3 0b 3e 0a a6 70 3e eb 2f ba 3d 7c 20 a9 bc
       0.13636547 0.23500839 0.09091171 -0.020645373
000180 2b 7e 17 3d 02 ec 05 3e 60 8a 0f 3c 0b 51 0e bd
       0.036985558 0.13078311 0.0087610185 -0.034745257
000190 5b 2c a6 3d 01 c5 33 be 3f fc ac bd b0 37 d4 3e
       0.08113929 -0.1755562 -0.084465496 0.41448736
0001a0 18 72 32 bc a7 1b a2 3d fb 4c ad 3d 26 5f 90 3d
       -0.01089146 0.079154305 0.084619485 0.07049398
0001b0 bd aa 16 bd 9f 5a 88 3d db 69 5d bc 93 85 8a 3d
       -0.036783922 0.066579096 -0.013514007 0.067637585
0001c0 5b 25 7f bd bd a4 67 3d 6a 40 10 3e f9 69 1f 3d
       -0.062291484 0.05655359 0.14087072 0.038919423
0001d0 4d bd 70 3e 98 cc d1 bd b3 c0 14 bd 4c df 7e bd
       0.23509713 -0.10244101 -0.036316585 -0.06222467
0001e0 8a e7 ea 3c ea d7 aa bc 8c 0b 01 bd 77 8f 8e 3e
       0.02867486 -0.020854909 -0.031505153 0.2784383
0001f0 97 c2 05 bc 27 69 8f bd 3d 2c 69 3e 11 f2 ea bd
       -0.00816407 -0.07002478 0.22770782 -0.11471952
000200 bb e4 fe 3b cf 2c 98 be 68 f2 99 be 00 3f 22 be
       0.0077787316 -0.29721686 -0.30067754 -0.15844345
000210 d9 41 c1 bb de 07 0f bd 4a f0 6f 3b 91 36 1f be
       -0.005897742 -0.034919612 0.003661173 -0.15548159
000220 5d db 0f bd 6f d4 92 bd cc 57 47 be a3 18 33 3d
       -0.03512131 -0.07169425 -0.19467086 0.043724667
000230 be ea 4c bb 38 9e 3d bd 0a dd b8 3d 01 0f 9a 3d
       -0.0031267847 -0.046293467 0.09026535 0.07522393
000240 76 c0 ab 3e ff 07 cb bd 1c 9f 77 3d 4d c1 2e bd
       0.33545274 -0.099136345 0.060454473 -0.042664815
000250 2d 9f 96 3d ac f8 5a be 41 1f 2f be 0b fb 0e 3c
       0.07354579 -0.21383923 -0.17101766 0.0087268455
000260 2b ab 1c be 48 79 40 3d 25 96 83 3e cf 47 64 bd
       -0.1529967 0.046990663 0.2570049 -0.055732545
000270 9f 5b 98 3d 26 41 7a bd 60 d2 bf 3d 47 54 0f bd
       0.0743935 -0.061097287 0.09366298 -0.034992483
000280 48 6c 9b 3b 72 5f 9d 3e 1a e1 d8 3d 04 7a 17 bc
       0.0047431327 0.30736881 0.1058981 -0.009245399
000290 70 21 50 3e 12 d9 18 3d 74 4e 05 bd 5d 04 94 bd
       0.20325255 0.03731639 -0.03254552 -0.07227395
0002a0 b3 80 d3 bd 2a 42 f9 bd af a8 75 3d 85 36 5f 3e
       -0.10327282 -0.12170823 0.059975322 0.21798141
0002b0 70 62 2b be 8e e6 7e be 82 e9 13 be 06 cb d4 bd
       -0.1673677 -0.24892637 -0.14444545 -0.10390286
0002c0 bd cc 7b 3d 11 0d 21 3d b9 d5 b8 bd 6a 3e 06 be
       0.06147455 0.0393191 -0.09025139 -0.13109747
0002d0 99 bc ad bd de f4 fc bc f2 35 6f bc 32 5e 0c 3d
       -0.08483238 -0.03087848 -0.014600264 0.03426952
0002e0 89 b5 ec 3c 5e 34 00 3e d8 20 14 3e 31 99 3e 3a
       0.028895156 0.12519976 0.14465654 0.0007270752
0002f0 22 e3 32 be 6f d7 10 3e 1c d0 f0 bd 60 2c 1d 3e
       -0.17469457 0.14144681 -0.11758444 0.15348959
000300 62 ea af bd 37 27 84 3e 7e c2 87 3e 4c 56 47 3d
       -0.08589627 0.2581117 0.26515573 0.048666283
000310 44 d8 38 3e 2b 08 5a bd 26 95 d7 3d ce 23 ba bd
       0.18051249 -0.053230446 0.10526495 -0.090888605
000320 f9 f9 df bd 39 6f 1e bd 1d db 99 be 42 60 02 be
       -0.109363504 -0.03868029 -0.30049983 -0.12732032
000330 4c 4a 0f bd 03 29 07 be 96 a9 ab 3c c5 0d 15 bd
       -0.034982964 -0.13199238 0.020954888 -0.036390085
000340 22 29 db bd 3a 83 ab bd 84 0a 6e be e9 7f d9 bb
       -0.10701205 -0.08374639 -0.23246199 -0.0066375625
000350 a7 06 79 be 22 24 06 bd 34 1c 72 3e de 5e ef bd
       -0.24318944 -0.032749303 0.23643571 -0.11688016
000360 ac 46 08 bc 2f 37 74 3e e8 3d cc 3c ca 49 05 3d
       -0.008317631 0.23849176 0.024931863 0.032541074
000370 5b 05 95 3d de c7 4a be d0 52 a4 3d cc 88 01 3d
       0.07276412 -0.19802806 0.08023608 0.0316246
000380 be fb 8e 3e f9 93 41 3e ca 2a e1 3c eb d5 7b be
       0.2792644 0.18904103 0.027486224 -0.24593322
000390 40 a0 8f 3d 20 0c 49 bd 22 54 d1 3d 99 25 08 bd
       0.07012987 -0.04908383 0.10221125 -0.03323898
0003a0 8f d8 56 be dc c9 60 3d 70 91 a2 bd f5 e0 db bd
       -0.20981048 0.054880008 -0.07937896 -0.107362665
0003b0 17 b6 12 3e 18 d2 85 bd 47 b0 0a be a7 04 a1 3b
       0.14327274 -0.06534213 -0.13543807 0.0049138847
0003c0 03 8a d8 bc fe e9 8d 3d d7 be fc bc e3 d4 1b 3e
       -0.026432997 0.06929396 -0.030852718 0.15217929
0003d0 d1 2a 77 3d 70 44 84 3c 6d 3e 53 3e 67 b8 44 be
       0.060343567 0.016145915 0.20629282 -0.19210969
0003e0 cd c6 fd bd 41 23 a7 3d 87 1f c1 bd d4 66 b0 bd
       -0.12391434 0.08161021 -0.094298415 -0.08613363
0003f0 7d 81 1c 3e 33 ef 48 3e 1a 93 b9 3d 36 f0 a1 bd
       0.15283771 0.19622497 0.090612605 -0.07907145

network_body._body_endoder.seq_layers.2.bias f4 [256]
000000 ed dd 0b 3a 46 d3 14 3c 84 30 a4 3c a8 81 85 3c
       0.0005335499 0.009083575 0.020042665 0.016297176
000010 98 72 8e 3c 14 04 1a bb 65 31 2f bc 88 71 88 3c
       0.017388627 -0.0023500966 -0.010692929 0.016655698
000020 d0 1a e8 3b 93 d2 86 3c 62 ad ba 3b b7 68 b4 3c
       0.0070832744 0.016457831 0.0056969384 0.022022588
000030 a1 44 39 3c 56 b2 bf 3c 90 38 70 ba d7 fc 1f 3c
       0.011307866 0.023400467 -0.0009163702 0.009764872
000040 07 fc 28 3c b0 09 5f 3b 27 a5 88 3c c4 a4 7a 3c
       0.010313994 0.0034032874 0.016680313 0.015298072
000050 09 10 87 bc 8f a8 cd 3b 8a fb 02 bc 0f f5 51 3c
       -0.016487138 0.0062761973 -0.007994542 0.012814774
000060 88 d3 3c bb be 27 54 3c 34 dd ff 3a 2e 79 6c 3c
       -0.0028812606 0.012948928 0.001952088 0.014433188
000070 12 a0 f4 3c f1 de bf 3b d7 6b 87 bb 59 99 ca 3b
       0.029861484 0.005855434 -0.0041327286 0.0061828312
000080 54 c3 ed 3b be 85 21 3c 38 2e 37 3c 11 ec b7 3c
       0.007255951 0.009858547 0.011180453 0.022451432
000090 80 b6 5f bb ca 30 a8 bc 72 1a b5 3c ab ce c1 3b
       -0.0034135878 -0.020531077 0.022107337 0.0059145293
0000a0 f8 98 8e 3c 52 fa b4 3c 05 47 43 3c 99 f4 c9 3b
       0.017406926 0.022092018 0.011918788 0.0061631915
0000b0 8d c9 4e 3c d3 b4 1f 3c d5 58 92 3c 6f 41 d2 3c
       0.012621296 0.009747702 0.017864624 0.025665967
0000c0 8d 72 97 3c 19 f0 35 3a e4 2d 9b 3c 55 be 13 3c
       0.01848724 0.00069403794 0.01894278 0.009017547
0000d0 ab fa 8a 3c 5b dc 16 bc 4d 86 25 3c 6b cf f0 3b
       0.01696523 -0.00920781 0.010102821 0.007348945
0000e0 8f f1 2d 3b 35 c3 44 3c 01 dd d0 3c 82 62 23 3b
       0.0026541685 0.012009432 0.025496008 0.0024930541
0000f0 90 cd e4 3b 51 5e 4f 3b 9f fc 89 3c 30 df 90 3c
       0.006982513 0.003164191 0.016844092 0.01768455
000100 47 b4 aa 3c c1 f0 2c 3c 73 d0 23 3c 5c 19 07 3d
       0.020837916 0.010555447 0.009998429 0.03298317
000110 a2 90 4c 3c a9 34 82 3b e4 be 82 3b 0c da 6a 3c
       0.012485655 0.0039735627 0.003990041 0.014334213
000120 11 56 02 3c 02 ab 8b bb c0 60 3e bb 3f fe 3a 3c
       0.00795509 -0.004262329 -0.0029049367 0.011413156
000130 04 f6 65 3c 60 71 ab 3b f1 ab b0 3c 6b 2b 41 bb
       0.0140357055 0.005232021 0.021566363 -0.0029475342
000140 51 47 19 bc e3 f0 aa bb 2c 76 c0 3b 5e f8 42 3c
       -0.009355382 -0.005216704 0.005873462 0.011900036
000150 dc a6 7f 3c 1a fb a6 bb 6c 58 4e b9 5b bf 65 3d
       0.015603747 -0.0050958516 -0.0001967863 0.056090694
000160 6e a0 41 3c 0c c8 38 3d a8 b0 c1 3b 10 f1 29 3c
       0.011818035 0.045112655 0.0059109516 0.010372415
000170 5e c7 be 39 b8 c8 3b 3c 85 32 8a 3c 6b 56 bf 3c
       0.00036388164 0.011461429 0.016869793 0.023356637
000180 23 c9 a0 3c 7e cb 44 3d e0 f5 85 bc 6d 57 e1 ba
       0.01962716 0.048045628 -0.016352594 -0.0017192193
000190 2d 44 a6 3c 13 10 44 3c c5 d1 83 bb ef e0 06 3c
       0.02029618 0.011966723 -0.004022809 0.008232339
0001a0 c5 5c 9a 3b 83 10 22 3c 6d 19 d3 3c 9c 3b ce 3b
       0.004710766 0.009891632 0.02576896 0.006293727
0001b0 b7 dd 2a 3c 35 2e 96 3c 19 4e b9 3b bb 12 10 bc
       0.0104288375 0.01833258 0.005655062 -0.008793528
0001c0 77 f5 61 3c db 44 01 3c 62 25 cf 3c c9 bd 38 3d
       0.013791434 0.007889952 0.02528638 0.04510287
0001d0 fe 1a 4f 3c 9b b8 18 bc 09 6a 36 3c d1 22 1e 3c
       0.012640713 -0.009321357 0.011133679 0.009651856
0001e0 5e 0d be 3b 7a 8a e9 3c a1 16 9d 3b 2c 36 98 3b
       0.0057999333 0.028508414 0.0047939573 0.0046451297
0001f0 22 32 ef 3c 80 7c 3e bb f1 89 26 bb 99 9a 1a 3c
       0.02919871 -0.0029065907 -0.002541181 0.009436273
000200 d7 f9 36 3c 48 b0 15 3c 7f 7c c7 3a bf 27 b0 3c
       0.011167965 0.009136267 0.0015219598 0.021503327
000210 59 0d 49 3c f6 1e a4 3c 1c d9 71 3b fb ff 0c bc
       0.012271249 0.020034295 0.003690309 -0.008605952
000220 7a b5 08 3d 52 6e d1 3a 04 49 82 39 40 34 ac 3b
       0.033376195 0.0015978313 0.00024849933 0.005255252
000230 97 e3 c0 bb 68 67 34 3c a3 5e 38 bc 44 4d 7a 3a
       -0.005886506 0.011010982 -0.011253032 0.00095482566
000240 bf 17 9a 3b 36 27 2d 3c a2 73 93 3c 10 9a 5c bc
       0.004702538 0.010568431 0.017999474 -0.013464466
000250 61 ae cc 3c 3d 67 d8 3b f4 5e b3 3c 2a c5 47 3c
       0.024985494 0.006604104 0.021895863 0.012193004
000260 5c a6 39 3d c1 b5 61 3c 3c 26 f6 3b 45 26 60 3b
       0.04532467 0.013776244 0.007511882 0.0034202498
000270 b4 ac 3f 3c d9 da d7 3b d9 cc a0 bc a6 9a bc 3b
       0.0116988905 0.006587368 -0.019628929 0.00575574
000280 3e de fc 3b c7 5f e3 3b 55 86 2c 3c c9 19 bc 3c
       0.007716923 0.006938908 0.010530074 0.022961514
000290 e5 2d aa 3c 38 ae 17 3d 62 c9 23 3c 28 0b 02 3d
       0.020773837 0.037031382 0.009996744 0.03174892
0002a0 20 eb 08 3c 3f 52 0b 3c bd 11 13 3b fc 3f 99 3b
       0.008356839 0.008503496 0.0022440993 0.004676817
0002b0 cd 05 4c 3c 04 f2 ba 3c 33 d3 c9 3a ab 57 a1 3b
       0.012452555 0.02282048 0.0015398025 0.004923781
0002c0 1f 39 ac 3b 36 51 92 3c 8a 90 45 3c 4d 49 ba 3c
       0.005255833 0.01786099 0.012058387 0.02274003
0002d0 46 7c 8c 3c 4d 5e 0b 3d 46 00 d3 3c 5c 45 38 3b
       0.017149102 0.03402548 0.025756966 0.0028117513
0002e0 87 f1 84 bb 2e 0b 28 3c d9 de 3c 3c 44 bc 1d 3c
       -0.0040571126 0.010256572 0.01152774 0.009627406
0002f0 1a 8d a8 3b 4c 5d 67 3c f0 45 e4 39 ef cf be 3c
       0.0051437737 0.014121365 0.00043539656 0.02329251
000300 02 72 4d 3d f4 f3 b2 3c 16 06 b8 3b 3e a3 ee bb
       0.050157554 0.021844842 0.00561596 -0.0072826436
000310 77 3d a0 3c 6f a9 3d 3c c5 b9 2a 3c a7 e3 76 3c
       0.019560559 0.011576041 0.0104202675 0.015068925
000320 df 59 62 3c 8c e6 a3 3b 37 51 bf 3b 29 80 94 3b
       0.013815372 0.0050018486 0.005838539 0.0045318794
000330 7e 2d da 3b d5 4a d9 bb a8 12 9f 3c a0 e0 da 3c
       0.006658255 -0.006631235 0.019418076 0.026718438
000340 a5 ed cd 3b 01 8e bd 3c fe f9 e9 3a 79 38 ec 3b
       0.006284433 0.023139002 0.0017850993 0.0072088805
000350 e6 d4 82 3c a9 6e 28 3c a3 32 0d 3d e5 36 ae 3c
       0.015970659 0.01028029 0.03447212 0.02126641
000360 77 d9 a5 bc aa 8a 9e 3c 3a a4 c3 bb b0 f9 11 3c
       -0.020245297 0.01935323 -0.005970505 0.008909628
000370 e8 f1 e2 3c 95 dc 8e 3c 58 ac e6 bb 36 11 ca 3c
       0.02770324 0.017439166 -0.007039588 0.02466641
000380 37 5a b5 3a e9 c7 e4 3c 66 a4 48 3c 03 1b 12 3c
       0.001383609 0.027927356 0.012246227 0.008917573
000390 b1 6f 21 3c 7b 68 e5 3b 81 57 6a 3c 7b 32 3b 3b
       0.009853289 0.0070009804 0.014303089 0.0028564024
0003a0 18 90 e0 3c 5b 24 74 ba a7 b4 fb 3a 79 4c b2 3b
       0.02741246 -0.0009313279 0.0019203619 0.005441245
0003b0 bf 0d b0 3b a4 0e 89 bb a1 cf a6 3b 2b a2 63 3c
       0.0053727324 -0.0041826535 0.0050906693 0.013893644
0003c0 32 5a 41 3c 45 4a 0b 3b 6f cd ee 3c 75 d8 40 bb
       0.011801289 0.0021253985 0.029150693 -0.0029425893
0003d0 e8 32 d6 3c f5 9b 11 3d 48 40 a6 3c 99 2a 3a 3c
       0.02614732 0.035549123 0.020294324 0.011362695
0003e0 24 5d 9e 3b 31 07 7e 3c 86 8c 9d 3c a6 cf c4 3c
       0.0048328806 0.015504644 0.019232046 0.024024796
0003f0 71 66 94 3c 68 67 52 3c e5 78 a9 3c fa a0 ae 3c
       0.018115254 0.012842037 0.02068753 0.021316994

network_body._body_endoder.seq_layers.2.weight f4 [256, 256]
000000 07 c9 5b 3d ff 84 a6 bd c7 31 28 bd d3 d0 18 be
       0.05365851 -0.08130836 -0.041063096 -0.1492341
000010 54 39 a5 bd 85 30 5f bc b0 2d 56 bd 66 5c 82 3c
       -0.08067575 -0.013622408 -0.052289665 0.0159132
000020 64 54 c0 3c c0 a5 40 3d c9 52 4c bd 46 84 e0 bd
       0.02347774 0.04703307 -0.049883638 -0.10962729
000030 57 52 14 3d 72 83 78 3d 7a 3b 80 3d 36 69 f7 3d
       0.036211338 0.06067223 0.06261344 0.12080614
000040 6b 78 6d 3d 07 9f 25 bd d5 57 a4 3b f8 76 ad 3b
       0.057976168 -0.040434863 0.005015353 0.005293723
000050 88 2d 25 3e 50 17 d6 bd 10 ab 1c 3d 6b c3 58 bd
       0.1613065 -0.10453665 0.038249075 -0.05292074
000060 41 81 4f 3d 6e b1 0d be 74 9c 9d 3d 3d b3 f5 b9
       0.050660376 -0.13837215 0.07695857 -0.00046863584
000070 0b 69 57 3b db 57 34 bd d3 7d 47 3c a7 d7 06 3e
       0.0032869007 -0.044029098 0.012175995 0.13168202
000080 bc 3e dc 3b 08 f0 fe 3d 39 24 e5 3c 2e e8 fa 3c
       0.0067213457 0.12448126 0.027971374 0.03062829
000090 d6 e9 02 be 48 5c df 3d 30 3a b6 bd d4 1a 67 bc
       -0.12784514 0.10906273 -0.08897817 -0.014105517
0000a0 6c 3f a8 3d 44 9f 99 3d d9 89 4a 3d ef 1f 3d bd
       0.08215222 0.07501081 0.049447868 -0.046173032
0000b0 53 e8 92 3d 83 6c 8b 3d b4 58 86 ba 3a 3a 1c be
       0.071732186 0.06807806 -0.0010249824 -0.15256587
0000c0 fc c9 06 bd 47 f3 03 be 94 53 88 bd 5d f2 83 bd
       -0.03290747 -0.12885772 -0.06656566 -0.064427115
0000d0 74 cc f1 3d e0 38 d8 3d f0 d3 2c bd 72 d6 ce bc
       0.118065745 0.10557723 -0.042194307 -0.02524874
0000e0 78 a9 e6 bd 18 b8 7f 3d 21 38 e4 3d 8a 9f b3 bc
       -0.11262792 0.062431425 0.11143518 -0.02192666
0000f0 91 39 a8 bc 26 3e b3 3d cc 18 5e 3c 68 d7 c6 bc
       -0.020535262 0.08752088 0.013555717 -0.024272636
000100 4f 41 03 bc 1a 84 9b 3d 38 8b 51 bc bf 36 2f 3d
       -0.008011176 0.07593556 -0.01278954 0.04277682
000110 6f 24 23 bd 3e c5 d3 3d 45 9a 03 3e 0f 08 6f bd
       -0.039829668 0.10340355 0.12851818 -0.058357295
000120 9f 44 42 3b dc ce c5 3c 41 fe 8b bd e5 7e d0 bd
       0.0029642952 0.02414649 -0.068356045 -0.10180453
000130 ba 35 54 3d c6 d2 60 3d 99 19 a9 3d 89 f0 44 3d
       0.05180905 0.05488851 0.082568355 0.048080955
000140 80 36 85 bd ba 78 2d 3c b4 df 42 bc 39 70 5c 3d
       -0.06504536 0.0105878655 -0.011894155 0.05381796
000150 13 60 52 bc 43 3b 3f be 56 ea d9 3c 35 18 7d 3c
       -0.012840289 -0.1867495 0.026600998 0.015447666
000160 10 85 af 3d eb 70 af bd 60 67 c4 bd ae 9d 81 3c
       0.085703015 -0.08566459 -0.0959003 0.015822258
000170 a2 71 39 3d dd c0 9a bd 52 ec 8e 3b 3e 1d 0a 3d
       0.045274384 -0.07556317 0.0043616677 0.033719294
000180 7f 69 63 3d e8 c2 d4 bc 24 47 1f bd 95 71 19 3d
       0.05552053 -0.025971845 -0.038886204 0.037461836
000190 34 2c 37 3d 99 e2 87 3d a8 d0 2a 3e 48 9a 82 bd
       0.04471989 0.06635017 0.16681159 -0.06377083
0001a0 6c 9c 25 be 57 6d 4a 3b 98 9e d2 3c b4 c9 8d 3d
       -0.16172951 0.0030887926 0.025710389 0.069232374
0001b0 23 52 f2 3d 00 76 82 3d 0a e6 fb 3b 8c 85 a3 bd
       0.118320726 0.06370163 0.007687335 -0.079844564
0001c0 62 61 78 3d 1f 69 12 3c d4 fe 3d bd cb cb e1 bd
       0.060639746 0.008936196 -0.0463856 -0.110251985
0001d0 4a 0b 88 3b f5 f2 fd bd f7 8a 70 3d 43 cf 0e bd
       0.0041517364 -0.12399856 0.058726277 -0.03486563
0001e0 ec 43 a7 bc 13 16 2d bd 04 31 84 bd 30 49 08 3d
       -0.02041813 -0.04225738 -0.064546615 0.033272922
0001f0 59 07 2f bd f2 7d 31 3b 43 72 e9 bb f1 c3 5c 3d
       -0.042731617 0.0027083126 -0.0071242168 0.0538978
000200 9c 08 78 3c f2 b9 d1 3c 41 99 8f 3c 21 b8 af bd
       0.015138771 0.025601361 0.017529132 -0.08580042
000210 ee 08 01 3e b3 f6 74 3d a6 33 fc 3c 7f 74 20 bd
       0.12601063 0.059805583 0.030786347 -0.0391736
000220 65 d3 9e bd 73 01 96 3d d8 af 8f 3d 81 25 30 bd
       -0.07755164 0.07324495 0.070159614 -0.043004517
000230 b6 37 13 bd 49 97 9e bb ed 66 00 bd 23 1e 23 be
       -0.035941802 -0.004839812 -0.031348158 -0.15929465
000240 81 5d 21 bd bb d2 e8 3c a0 bf 84 bb df ce 8d 3d
       -0.039395813 0.028420797 -0.004051164 0.06924223
000250 72 4c 1c 3c af 8c 70 bd fc bb 79 3d 88 36 14 3e
       0.00953971 -0.058727916 0.06097029 0.14473927
000260 31 dd 5d bd bd 9f 47 3c 00 d4 3b 3d 68 36 a4 3d
       -0.054166023 0.012184081 0.045856476 0.0801819
000270 c6 9d 0d bc bf 18 03 be 0f f5 a8 3d 64 3e 82 bd
       -0.008643573 -0.12802409 0.08249866 -0.06359556
000280 a6 2c 18 3d 99 2a ff 3b f8 cb 26 bd ef ac 12 3e
       0.037151955 0.0077870605 -0.040721864 0.14323781
000290 5d 25 e1 bc 47 f1 c5 bd e5 ed 68 3d 94 6b 72 bd
       -0.027483637 -0.096651606 0.0568675 -0.059184626
0002a0 9f 46 1f bd 51 1f 93 bd e1 d6 e0 bc ad 26 6d 3d
       -0.03888571 -0.071837075 -0.027446212 0.057898212
0002b0 36 29 80 3d 60 54 85 bc 32 3e eb bd 75 0b c6 bd
       0.0625786 -0.016275585 -0.11486472 -0.09670154
0002c0 b1 fc 05 be 5a 14 08 3d df 4d a5 3b fb e3 47 bd
       -0.13084675 0.033222534 0.0050446833 -0.048801403
0002d0 60 56 3e bd f2 5c d5 3b 93 2a 2e 3d b9 33 5b 3c
       -0.046469092 0.006511324 0.04252107 0.013379031
0002e0 89 f2 31 bd 58 c5 46 bc c8 dc 8d 3d 86 6e a8 3b
       -0.04344419 -0.012132011 0.06926876 0.0051401285
0002f0 2f e3 6b 3c 80 c2 b8 3d 86 51 ba bc 13 5a 0d 3d
       0.0143974265 0.09021473 -0.022743952 0.03450973
000300 8b ef 0b 3d 64 32 09 bd c9 c2 d8 bc cc d2 a0 bd
       0.034163993 -0.033495322 -0.026460068 -0.07852706
000310 35 34 c4 bc bd a3 d8 3b 3f 4a b4 bc d0 7f 23 bc
       -0.023950676 0.006611316 -0.02200806 -0.009979203
000320 f5 05 52 bd 2c e7 28 3d 42 43 99 3d f0 39 96 3d
       -0.051275212 0.041236088 0.074835315 0.073352695
000330 15 e8 b3 bc 3d 7a 4f 3d 3c d7 a3 3d 19 23 67 3d
       -0.021961251 0.050653685 0.08000037 0.056429956
000340 07 ce fd 3d b7 6c ac bc 29 8d a8 3d 3f 5a a5 3c
       0.12392812 -0.021047933 0.08230049 0.020184634
000350 a9 ff fe bc e8 a4 7a 3d 5a c3 54 bc 8e 77 d0 3d
       -0.031127768 0.061192423 -0.012986029 0.10179053
000360 1f 96 d9 bc 01 8f 0e 3e 81 ce ec bd 8a c1 84 bc
       -0.026560841 0.13921739 -0.11562825 -0.016205568
000370 15 c8 71 bd 28 09 c1 3d 1c 4d 00 be 93 b0 fd 3d
       -0.059028704 0.094255745 -0.12529415 0.123871945
000380 d4 f8 19 bd 43 cc b4 3a 25 3c ae bd c4 59 97 bc
       -0.037590817 0.0013793785 -0.085075654 -0.01847542
000390 97 b6 db b8 04 48 b0 bd 34 8d e5 bd 0b b4 b2 bc
       -0.00010476744 -0.08607486 -0.11208573 -0.021814367
0003a0 3c 54 e9 3d 82 d0 35 bd 71 1e 0e 3e d1 b0 d5 bd
       0.113930196 -0.0443883 0.138788 -0.10434116
0003b0 f5 f7 73 3d 71 0d c9 3d 18 5a a5 bd 50 c8 07 3c
       0.059562642 0.09817017 -0.08073825 0.008287504
0003c0 73 86 4e bd 58 f0 e6 bd f0 2c 52 3c e4 12 d5 bc
       -0.05042119 -0.11276311 0.012828097 -0.026009984
0003d0 fd c0 8f b9 ee 5d 24 3d 5f 88 1a bc 2f 3a 00 3e
       -0.00027418873 0.04012864 -0.009431927 0.12522195
0003e0 34 01 d9 3c 29 ed db bb 0c 97 fc 3d 33 b9 40 3b
       0.026489832 -0.0067116213 0.123334974 0.0029407262
0003f0 d5 a3 01 bb 0e ac 6b 3d 20 6b dc 3d b7 ee 41 3e
       -0.001978149 0.05753713 0.1076262 0.18938719
