AI Models/ReinforcementLearning/CarAgentv1.0.onnx (onnx, 295918 bytes, 7 tensors)

action_model._continuous_distribution.log_sigma f4 [1, 3]
00000000: 3aa0 43be 1552 aebe 99da b1be
-0.1910409 -0.34047 -0.3473709

action_model._continuous_distribution.mu.bias f4 [3]
00000000: 2b72 18bc 9681 8f3c 8875 8bbc
-0.0093045635 0.017517846 -0.017023817

action_model._continuous_distribution.mu.weight f4 [3, 256]
00000000: a998 6d3d d165 94bc 5398 c4bc 9096 973d
00000010: 2fbe 49bd c224 7e3c 5e94 9abc a8bb 2cbd
00000020: 4f73 a73c 459d adbc d7a2 3cbd 9935 993d
00000030: 4bc8 edbc d8ee cfbd 72ec cd3c f3f6 4ebd
00000040: 6c1e 7b3d 9cb6 663c 6ddd 1e3d a748 243d
00000050: be0c 0a3d fafa acbc f308 35bd 8450 72bd
00000060: efb8 3d3c 3754 8a3b 80f8 e43c 545a 623d
00000070: 53fe 683d 5dd6 253c 560b dcba 7b88 25bc
00000080: bc2d 493d cfac 3b3d e5a8 25bd 8b91 7dba
00000090: 0b66 f1ba e15d f2bc 5f3d 7f3d 4312 fa3c
000000a0: 093f 433d 5293 1abc 9258 f53b 0cd5 45bd
000000b0: 4f6a 5abc 4df0 c4bc e9ae fb3c ccb8 8bbd
000000c0: 7089 563d 7f14 50bd ec35 67bc fc99 89bd
000000d0: 75bd 873b 7183 1e3d 032b a13c 007a 683d
000000e0: 56d0 3bbd 7643 f7bc c39e 2dbd 5bc2 943d
000000f0: 89d1 4bbd 72d8 9f3c a1b4 aebc a0d1 babd
00000100: 1ddb 1a3d eaae 403d 518f e43c cf68 763d
00000110: 4821 5b3b 3c84 273d 0bdb 303d 5879 653d
00000120: 49cd 9cbd d1c7 00bd 3ba2 d4bc 8bb1 83bd
00000130: 392a 833d 5507 28bd fc0f e03c a3a1 0c3d
00000140: 877c 283d d816 9ebd 97d1 7cbd 8298 993d
00000150: f201 80bd 8b3f 43bc 961e 3fbd 8050 0c3d
00000160: 7bec e03c fd5a 4f3c c997 36bd 124f 3f3d
00000170: d18b 1d3d 881f 6d3c 89aa b13c 9153 9fbd
00000180: 6d1a 4bbd c248 91bd 7ab2 563d 029c a43c
00000190: 7b18 ca3c 0fab 95bd 4cc0 ea3b f912 d2bc
000001a0: 7fd3 10bd 5a1c 8a3c cc60 d73a c3fc 773d
000001b0: e30c c43c b207 323d 5834 d33c cb97 2dbc
000001c0: f92e 89bb cc64 27bc 406a 8f3d c22c 36bc
000001d0: 792b c2bc 07b7 6abd e884 8f3c b09c 4cbc
000001e0: a79b 25bc 8db1 6ebd b3ff 81bd aa37 a43c
000001f0: fab7 25bd afd9 b7bc c9b0 bebd 65a1 8d3d
00000200: 4a10 8bbd b973 5fbd 76a1 103c d356 a13c
00000210: bf1f 3c3d bc43 d4bc 0ab5 7abd 801d e7bc
00000220: 3506 4cbd 56fa 93bd d3e3 80bd 7d3e 113b
00000230: 2d82 83bd 4e47 8c3b 4818 b0bd 87a4 1f3d
00000240: 5c86 b2bc dbaa 953d b204 a2bd a04c 683d
00000250: ce58 c73b 6502 c6bd 368e c1bc af9d 03bd
00000260: a5a8 2a3d 910c b6bd 9328 0d3d 3dd8 0b3d
00000270: 90bd 9ebb eeef bd3c dfb0 15bc 9a6f b63b
00000280: 1a1f 3bbd 84e5 99bd 5233 7bbd f25f 343d
00000290: 0d65 fabc c1b5 83bd 9352 583d adaa 453b
000002a0: 5ac2 1c3d adf0 41bd 68db e83c 83a7 33bb
000002b0: a7f1 853d 7e5e 453d 70ac 763c fd08 95bd
000002c0: f5c7 723d ed27 17bd 2ca6 aabd c7bb e23c
000002d0: 2ca7 bb3b 1c85 563d c62e f53c 4032 e9bc
000002e0: 6ab8 98bc 9a2f 693c cd7c 56bd d5e2 d73c
000002f0: 1f96 2fbd 70a3 b8bd 1cb8 bb3d 7b86 acbc
00000300: 532a 5c3c ca4c b9bd dc49 fabc bba9 04bd
00000310: e402 fbbc a968 59bc 0066 173d f434 77ba
00000320: 66ee 07bd 7cf6 1a3d 8480 c7bb dd27 043d
00000330: c2e4 2abd ba9d d6bb f256 093b 6241 23bd
00000340: a285 ef3c dc7d 7cbd 592f 0dbd 7f56 d3bd
00000350: fa60 26bc 64e4 0d3d cee6 2cbd 354a 4bbd
00000360: e507 58bd ed57 b3bd 700e 9f3c 4a81 ff3c
00000370: c74e c9bc be64 80bd b0db b53c f09b 0abd
00000380: 6e16 3bbd 65e3 c1bc 02db bebd 4ff5 c13c
00000390: d7d7 0d3c aaf2 213c c99e fd3c a0cd 213d
000003a0: 226b 5fbc 0f60 31bc c2f2 a5bc 0ba9 573d
000003b0: f442 c13c 0218 13bb 54e8 d1bc ff7f 743d
000003c0: d388 a2bd 80a8 02bd e313 6dbd aa89 8abd
000003d0: 6ffa 31bd c0f4 20bc b594 ffbc c4c4 d4bc
000003e0: 7c21 c9bd 718c 743d b16a ba3c 9c93 53bd
000003f0: efcd 6ebd 2efe 023d 93e4 46bd 2eb0 573d
0.058006916 -0.018114956 -0.023998415 0.074017644 -0.04925364 0.015511693 -0.018869575 -0.04217115
0.020440726 -0.021193156 -0.046053734 0.07480926 -0.029026171 -0.10152978 0.02513716 -0.050528478
0.06130831 0.014081623 0.038785387 0.04010835 0.03370356 -0.021115769 -0.044197988 -0.059158817
0.011579736 0.004221465 0.027950525 0.055261925 0.056883167 0.010121909 -0.0016788046 -0.01010334
0.04911588 0.0458191 -0.040444274 -0.00096728717 -0.0018417252 -0.02958578 0.062314387 0.030526286
0.047667537 -0.009434538 0.007487365 -0.04829888 -0.01333101 -0.024040366 0.030723052 -0.068223566
0.052377164 -0.050800797 -0.014111977 -0.06718823 0.004142458 0.03869957 0.01967383 0.056756973
-0.04585298 -0.030183535 -0.042387735 0.07263633 -0.049760375 0.019512389 -0.021326365 -0.09122014
0.03780662 0.04704181 0.02790037 0.060158547 0.0033436585 0.040897593 0.043177646 0.056023926
-0.076563425 -0.03144056 -0.025956264 -0.06430348 0.06404538 -0.041022617 0.027351372 0.034333836
0.041134384 -0.07719201 -0.061723318 0.07499792 -0.06250371 -0.011917005 -0.04666003 0.03425646
0.027456513 0.012655971 -0.044578347 0.046706267 0.038463417 0.01447285 0.021687763 -0.07779611
-0.04958575 -0.070939556 0.052416302 0.020093922 0.024669876 -0.073080175 0.007164037 -0.025643812
-0.03535795 0.016859222 0.0016432046 0.060543787 0.023931926 0.04346437 0.025781795 -0.010595272
-0.004186508 -0.010216903 0.070026875 -0.0111190695 -0.02370237 -0.057303455 0.01751943 -0.012488529
-0.010107911 -0.058274794 -0.06347599 0.020046074 -0.040458657 -0.022442667 -0.09311063 0.06915549
-0.06790216 -0.05455372 0.008827558 0.019694721 0.045928713 -0.025911205 -0.06120781 -0.028212309
-0.049810607 -0.07225482 -0.06293454 0.002216249 -0.064213134 0.004280961 -0.08598381 0.038975265
-0.021792583 0.07307979 -0.07911052 0.0567137 0.0060835844 -0.096684255 -0.023627382 -0.0321328
0.04166474 -0.088891156 0.034462523 0.034141768 -0.004844375 0.023185696 -0.009136408 0.005567503
-0.045683958 -0.0751448 -0.06132824 0.044036813 -0.030565763 -0.06431151 0.052813124 0.0030161545
0.038271286 -0.047348667 0.028424934 -0.0027413077 0.06540232 0.048185818 0.015055761 -0.07277105
0.059272725 -0.03690331 -0.08332476 0.02767743 0.0057267155 0.052373037 0.02992953 -0.028466344
-0.018642623 0.0142325405 -0.052365113 0.02635328 -0.042867776 -0.09015548 0.091659755 -0.021060219
0.013437825 -0.090478495 -0.030552797 -0.03238843 -0.030641027 -0.013269582 0.03696251 -0.0009430193
-0.03318634 0.037832722 -0.0060883183 0.03226458 -0.041722067 -0.006549564 0.0020956364 -0.039857276
0.029238526 -0.061643466 -0.034468982 -0.10319232 -0.010154957 0.03464164 -0.0422123 -0.049631316
-0.052741904 -0.08757005 0.019416064 0.03118958 -0.024573697 -0.06269215 0.022199482 -0.03384012
-0.045675687 -0.023668 -0.09319116 0.023676543 0.008657417 0.009884516 0.030959504 0.03950274
-0.013636382 -0.010826125 -0.020257358 0.052651446 0.023591496 -0.002244473 -0.025623478 0.05969238
-0.079362534 -0.031898975 -0.057880294 -0.067645386 -0.043451723 -0.009823978 -0.031198839 -0.025972731
-0.0982084 0.059704248 0.022755953 -0.051654443 -0.058301862 0.031980686 -0.04855783 0.052658252

network_body._body_endoder.seq_layers.0.bias f4 [256]
00000000: 798a e23c edb3 ae3c f1a4 ab3c 56d1 eebb
00000010: 4adb 573b 7d51 453b 8c58 393c 5304 723c
00000020: 9678 0a3d 49f0 0e3c 1251 4a3c 4302 ef3c
00000030: 0e02 a13c 93e5 153c 0565 da3c f319 283c
00000040: b538 213d ba4d 993c 8a18 1a3d fb92 983c
00000050: 88d6 953c b332 723d ad36 603a 8a6c 483d
00000060: aa79 ee3c 0cb0 223c 513f 01bb f988 c63b
00000070: d281 773c 5fbf 083d 76b4 673c dcab 7d3c
00000080: 1e0b 033d aeac 123d 876b c33b 564b 6f3c
00000090: a25d 4d3c 9eee 183d f587 7bbb a273 103d
000000a0: e3a3 173c b1b1 d0bc 46f6 973b b00e 9abb
000000b0: 76b2 453d 9fa3 fc3c fce3 ac3c 5934 45bc
000000c0: 1e8a c13c cb90 123d 4609 c03c 9804 c63c
000000d0: 0d93 2d3c 8e80 7a3d f08b c43c e56b 7d3b
000000e0: e944 023c 171c e93c bc33 5c3c 44ea 2eba
000000f0: e325 59bc 04b5 7c3d 5498 94bb 3cf3 053d
00000100: 4a97 cb3c 66eb f13c 1a46 66bb 7af8 02bc
00000110: 968e d43c a910 563d 17a1 933c 7af0 2e3c
00000120: 0c4f 143d cc6d fc3a 7fb9 8f3c 80f9 383b
00000130: 046e c33b 6670 79bc d8bd a2bb 1dbe 0d3d
00000140: e1d6 913c 96ec c2bb 1bb2 123c d4fd 213c
00000150: d0a8 0c3c c65a ec3c f6c7 d13c 98d8 a43b
00000160: a569 bb3c 4c1d ac3c e135 603b 1982 c4bc
00000170: ad9f 143d 708b ac3c 2496 cdbb 046e b53c
00000180: 6d9f c1bb b67d 81bb 9f69 af3d 8093 90bb
00000190: 5c96 dd3c 6544 b23c 6b4d 053c 4f38 e2ba
000001a0: f277 153d eb05 c03c 04f3 983c adb9 7b3a
000001b0: 89c2 39ba eec2 093d 3843 e03c 97ff 783b
000001c0: 3c30 b7ba d80f fe3b 7bc8 a13d d079 863d
000001d0: 0495 233d 1c33 073d 2991 d73c 5090 5abb
000001e0: 721a 903d deda 273b c41e 943c 9d45 2a3c
000001f0: 8744 be3c be1c 773c 403e 7f3c d6ad 3a3c
00000200: 8c75 92bb 1116 183d 0dcd 543c 4ef2 d43c
00000210: 45ac 643b dccc d139 fb6d b73c 3362 863b
00000220: d6b3 2d3d 81d3 a0ba f753 fd3a 89db 5abd
00000230: 9388 c63c b1cc 5f3d 6347 763c 05a1 a3bb
00000240: cf1c 8c3c 14d6 c73c 0581 603c f764 243c
00000250: f004 0e3d 700a d2bb a280 553d 436a 083d
00000260: 992e d839 70c7 4b3b 51d5 d93c 6c54 da3c
00000270: 51a6 a43c 9dbf 463c 4c93 e23a 35db 893c
00000280: 378c 1e3d abc5 573d 8be9 34bc e2d9 a63c
00000290: 8db1 273c 8e5b 363d e43c 613d a919 5e3c
000002a0: f1d1 f33c 8931 673c bfb0 623c 7cec cb3b
000002b0: 2595 c73c d0a2 1b3d c39c 0d3b ca52 9ebb
000002c0: 84a2 043d 8b99 cd3b fbf9 dd3c 7050 723b
000002d0: 0cbc e139 007f 9b3c e64e 103d 7f91 6d3b
000002e0: d9d2 7c3c 0000 ad3c c2fe 903c c546 93bb
000002f0: 50ae 493d 8b04 353c dff4 3f3b 59f5 f13c
00000300: dca5 d93c 424b e03c 4b84 f03c ef4f 2abb
00000310: 58e1 333d 98d3 893b 3114 ee3c 7c86 163d
00000320: a0f9 da3c a8b8 c03c 643e 8b3b 6d51 453c
00000330: 2844 3d3d 7d5d 443b a8c0 7c3c e777 d3bb
00000340: ff9e e03b f3e4 1d3c 807c 46bb 9f51 d33c
00000350: e223 ad3d 3f12 0b3c 8f82 b6ba facb 003d
00000360: 85f6 a9bb bc9a 4bbb ef58 593d d117 043d
00000370: df6d e03c c388 0e3c bea7 cf3c 23b7 403d
00000380: 430a c93c 4777 08bd 1f87 703a 37ad 2b3d
00000390: c67d 843c 5df8 bf3c 4fa3 363c a336 c23c
000003a0: 2aef 053d 97ac 2dbc e318 78bc 85ee 653c
000003b0: aa91 1d3c eeef 90bb 3a86 5d3d e72f aa3c
000003c0: ff0c 6e3c fcc6 463d 822f ac3c a072 d0bb
000003d0: c1d2 713c 3355 603d 8e1f 633b 1530 343d
000003e0: 9f35 e13c 76bb 013d 9d72 083d 7b12 003d
000003f0: 9dc8 543c 810f 01bb 1415 b43c 967c 943c
0.02765392 0.02132603 0.020952674 -0.0072881384 0.0032937103 0.0030108385 0.011312615 0.014771539
0.033806406 0.008724281 0.01234843 0.029175883 0.0196543 0.009148973 0.026659498 0.010260093
0.03936072 0.01871382 0.03762106 0.018624773 0.018290773 0.05913038 0.0008553069 0.048931636
0.029110748 0.009929668 -0.0019721577 0.006058809 0.015106635 0.03338563 0.014142146 0.015482869
0.031993024 0.03580921 0.005963746 0.014605364 0.012534531 0.037336938 -0.0038380597 0.035266526
0.009255382 -0.025475355 0.0046375124 -0.004701458 0.048265897 0.03083974 0.021104805 -0.012036406
0.02362543 0.035782617 0.023441922 0.024172112 0.010594142 0.061157756 0.023992509 0.0038669046
0.007951 0.028455777 0.013440069 -0.00066724815 -0.013253662 0.061696067 -0.0045347605 0.03270267
0.024852414 0.029531192 -0.0035136999 -0.007993812 0.025946897 0.052261982 0.01802115 0.010677451
0.036208197 0.0019258796 0.017544506 0.0028224885 0.0059640426 -0.015224552 -0.004966479 0.034605134
0.017802658 -0.0059486134 0.008953596 0.0098871775 0.00858517 0.028851878 0.025608044 0.005030703
0.022877524 0.021010064 0.0034211802 -0.023987817 0.03628509 0.021062583 -0.0062740017 0.022147186
-0.0059088976 -0.0039517535 0.085650675 -0.0044121146 0.027049236 0.021761129 0.008136134 -0.0017259213
0.036491342 0.023440322 0.018670566 0.0009602558 -0.0007086178 0.033633165 0.027375802 0.003799414
-0.0013976167 0.0077533536 0.07899567 0.06566203 0.039937034 0.033007726 0.026314335 -0.0033350177
0.07036294 0.0025612633 0.018081076 0.010392574 0.023226036 0.015082536 0.015578806 0.011393985
-0.004469579 0.03713042 0.012988341 0.025994446 0.003489272 0.0004001622 0.02239131 0.0041010617
0.042407833 -0.0012270064 0.0019327392 -0.05343202 0.024235046 0.05463857 0.015031668 -0.0049935603
0.01710358 0.024394073 0.013702636 0.0100338375 0.034672678 -0.0064099357 0.052124627 0.033304464
0.00041233448 0.0031094216 0.026590975 0.026651584 0.020098837 0.012130645 0.001728633 0.016828159
0.038707938 0.052678745 -0.011042009 0.020367566 0.0102352025 0.044520907 0.05498971 0.013555923
0.029763194 0.014110931 0.013836085 0.0062232595 0.02436311 0.037997067 0.002160833 -0.0048316466
0.03238155 0.0062744073 0.027096739 0.0036974214 0.0004305545 0.018981457 0.035231493 0.0036250053
0.015431129 0.021118164 0.017699603 -0.0044945204 0.049238503 0.011048446 0.0029290242 0.029535936
0.026568346 0.027379636 0.029359957 -0.0025987586 0.043916076 0.004206132 0.029062362 0.036749348
0.026730359 0.023525551 0.004249381 0.012043339 0.046207577 0.002996295 0.015426792 -0.0064535025
0.0068548913 0.009637105 -0.003028661 0.025795756 0.0845411 0.008488237 -0.0013924408 0.031444527
-0.005186858 -0.003106757 0.05306333 0.032249276 0.02739614 0.008699599 0.02534854 0.047049653
0.024541026 -0.033316877 0.0009175408 0.041913237 0.016173255 0.023433859 0.011147334 0.023707693
0.032698788 -0.010600231 -0.015142652 0.014033918 0.009617249 -0.004423133 0.054083087 0.020774795
0.014529466 0.04852961 0.021018747 -0.0063613206 0.01475972 0.054768752 0.003465626 0.043991167
0.027491389 0.031672917 0.03331243 0.031267624 0.012987283 -0.001969308 0.021982707 0.018125813

network_body._body_endoder.seq_layers.0.weight f4 [256, 26]
00000000: 3acb a53e 3bd2 883e 39dc 9dbe 7d74 393e
00000010: 4c71 e1bc 8a98 09be ec71 41be 6494 913d
00000020: c8ff 463e 500f 143e 4a82 79be 7268 18bf
00000030: 5621 81bd 0a68 3e3e 9472 243e 9ea8 4abe
00000040: 500c 8a3d da33 12be d781 72be 8b38 3e3d
00000050: 6606 d7bc 88fa 02be 2498 91be 3d27 6bbe
00000060: 069a c63d 2fba dcb9 b678 483e d473 bb3e
00000070: adff 9c3d ab0e 85be c8de a33d 3925 bebd
00000080: 6047 fcbd 0072 f23d dab1 56be 8ec9 613e
00000090: f29f 27be 91bf 313e 544a 86be 3584 c9bd
000000a0: 6d7f 32bd ef86 7a3e d5e8 103f ebb2 1cbe
000000b0: 6484 2fbe c4a5 053c 5bea e4bd 48d9 afbd
000000c0: 4b7d bcbe 93b6 00be 8d8c 37bd 2bf7 bc3e
000000d0: a6db 4d3d 73ff 6f3e b969 61bd a372 873d
000000e0: 28cb 8abd 519a f6bd bfed 13bd 55f1 933c
000000f0: 354c a5bd e89d 87be d6c6 063d 8906 b6bd
00000100: 5c1d 8a3d c194 5a3e b27e 0bbf ab4a e1bc
00000110: 4ca6 76bc fe3a b7be 2547 213e df39 d8bd
00000120: 377b 413e 5df6 7f3e 88fd 76be a280 aa3d
00000130: d9d8 cfbe f3a3 2ebe c93d 14be 13c7 833e
00000140: 02ef a4bd a060 6fbe ea16 a73c 7cd6 c9be
00000150: 67cf c23e fd58 943b 405d 9c3d 55bc 423e
00000160: c276 18bc de21 1bbe 3f07 8fbd ae96 de3e
00000170: 790f 123e fe7e ac3c 1148 633e 28aa 123d
00000180: 04d8 673e cd7d 53be a282 d73d 6325 e33d
00000190: 4c58 0c3e 3069 873c 39da b6bd 55fb efbe
000001a0: df28 493e 7b75 1abc ea8b f93e a826 1e3c
000001b0: fcb7 b1bd 074a cb3c e63f 533e 1612 8bbc
000001c0: 8808 073e 0ba8 453c e2a7 24bd 9da1 d0bb
000001d0: 94cb 3d3e 9c91 2abe bba7 003e 8d69 bebe
000001e0: d6d9 21be 677e ad3c 66db b93e 7485 f73d
000001f0: 16d7 e7bd 039c 02be 7570 10be 3aa5 63bd
00000200: b992 bc3d b368 0e3e 99e7 34bb ac8c 88be
00000210: b957 f3be 964f 51be ac79 9abb 9125 18be
00000220: e984 08bd 5d9b c1be 30a7 c1be f4f2 87be
00000230: 4ee0 2c3e 7f8f 673e a0f0 0ebe 0641 123e
00000240: 626f ab3d d379 9a3e b9e7 8cbe 01f0 a7bd
00000250: ebba e0bd 0b3a 1ebe bb83 0a3f ecaa b2bc
00000260: 77fa 2abe 6dce 873e 98de 2a3e 72ea 01bd
00000270: eb36 2c3d 4ced d6be 683b dbbd c131 c53c
00000280: d9f6 08bd c588 043f 7d68 293e 0c68 76be
00000290: 71ce 1dbe 9a98 0ebe 51da 733d a807 a23e
000002a0: 2d5b 87bc 4f15 01be e545 753d 470e 743d
000002b0: f9ba 88be b48a b23e c4d0 a93e 5737 0dbb
000002c0: 81f6 633e 582e e6bd ccd5 4abe 3f16 c0bd
000002d0: 93e1 d3bd 3d1f 933c 78bd e63d f8e1 a9be
000002e0: 1eeb 103e 7d0c 063d d1e2 2dbd a1f3 30be
000002f0: 17d4 61bd 4430 9bbe 2655 b23e 9349 3a3e
00000300: 546d 993d 6893 69be 13cf 693d 17bb c43b
00000310: aadf 703e 8918 953d c62e 003d bf82 663d
00000320: 8f04 3bbd c33d b5bd 2ea6 e73d 71bb 41be
00000330: 2a78 68be 5b91 ae3d 3db9 82be 6b0e 3ebe
00000340: 0a31 27be 2c1d a2be 7292 c63e 1797 ab3e
00000350: 1509 08be 44df e7bd 4f7f 95be f030 bdbd
00000360: fa84 bfbd 577f 3fbe 0a9a e3be 5e56 92be
00000370: 1b85 753e 2c99 92be eb91 913d 8d6d e2bd
00000380: 3aa9 243e e120 353f cf6a e43e ef8c 073e
00000390: 0695 93bd f143 7c3d aaea c7be 61a4 ddbe
000003a0: 091c 993d d2b8 86be 16b9 29be 483e 02be
000003b0: 1dbc 6f3e e77e 6bbd b8ff 9cbe b73c 523e
000003c0: a6b9 a0bd bc52 523e 192e 283e 8fd0 8fbc
000003d0: 59b0 b1bc a93e 4abc ba26 143e 788c cbbc
000003e0: 4284 b4bd 4aa7 973c c1ab 9cbe c539 d9bd
000003f0: e72b 283e 096f 1ebe a439 913e 05f0 8e3e
0.32381612 0.26722893 -0.3083208 0.18110843 -0.027519844 -0.13437095 -0.18891114 0.071083814
0.1943351 0.14458966 -0.24366108 -0.5953437 -0.063051865 0.18594375 0.16059333 -0.19790885
0.0674063 -0.14277592 -0.23682342 0.046440642 -0.026248168 -0.12790883 -0.28436387 -0.22964187
0.096973464 -0.00042100388 0.19577298 0.36611807 0.07665954 -0.25987753 0.080014765 -0.092844434
-0.12318301 0.1183815 -0.20966282 0.22049543 -0.16369608 0.17358233 -0.26228583 -0.098396696
-0.043578554 0.24465536 0.56605273 -0.15302627 -0.17140347 0.008157197 -0.11177512 -0.08586365
-0.3681434 -0.12569647 -0.044811774 0.36907324 0.0502583 0.2343729 -0.055032466 0.06613662
-0.0677703 -0.12041152 -0.036115404 0.018059412 -0.08071176 -0.2648766 0.03290447 -0.08887965
0.06743881 0.21345808 -0.54490197 -0.027501425 -0.015054297 -0.35787195 0.15749796 -0.10557913
0.18894659 0.24996324 -0.24120152 0.08325316 -0.4059513 -0.17054729 -0.14476694 0.2573782
-0.080533996 -0.23376703 0.020396668 -0.3942145 0.3804886 0.00452721 0.076349735 0.19017155
-0.009305658 -0.15149638 -0.06983804 0.43474334 0.14263715 0.021056648 0.2219546 0.035806805
0.22640997 -0.20653458 0.10522963 0.11091115 0.13705558 0.01652965 -0.089283414 -0.4687144
0.19644497 -0.009427424 0.48739558 0.009652771 -0.0867767 0.024815572 0.20629844 -0.016976397
0.13186848 0.01206399 -0.040199168 -0.006366922 0.1853469 -0.16657108 0.12563984 -0.37189904
-0.15805754 0.021178437 0.363002 0.12086001 -0.11320321 -0.12754826 -0.14105399 -0.055577494
0.092076726 0.13907127 -0.0027603863 -0.26669824 -0.47527865 -0.20440516 -0.0047142114 -0.1485808
-0.033329878 -0.37813845 -0.37822866 -0.26552546 0.1688244 0.22613333 -0.13958979 0.14282617
0.08370854 0.3017107 -0.2752054 -0.08200074 -0.10973152 -0.15451829 0.54107255 -0.021810018
-0.16697107 0.26524678 0.16686475 -0.031717725 0.04204456 -0.41977918 -0.1070469 0.024071576
-0.033438537 0.51771194 0.16543765 -0.24063128 -0.15410782 -0.139254 0.059534375 0.31646466
-0.016522968 -0.12605785 0.05988111 0.05958393 -0.2670515 0.34871447 0.33167088 -0.0021547878
0.22262003 -0.11239308 -0.1980812 -0.09379243 -0.10345759 0.017959232 0.11266607 -0.33180213
0.1415219 0.032726754 -0.042452637 -0.17280437 -0.055133905 -0.3031026 0.34830588 0.18192129
0.07491556 -0.22810137 0.057082247 0.006003748 0.23522821 0.0728007 0.031294607 0.056277033
-0.045658644 -0.08849671 0.11310993 -0.1891916 -0.22702089 0.08523818 -0.2553195 -0.18560188
-0.163273 -0.3166288 0.38783604 0.3351371 -0.13284715 -0.113218814 -0.2919869 -0.0923785
-0.09351535 -0.1870092 -0.4445346 -0.28581518 0.23976557 -0.28632486 0.0710791 -0.110560514
0.1608018 0.70753294 0.44612738 0.13237356 -0.07206158 0.06158823 -0.39046222 -0.43289474
0.074760504 -0.26312882 -0.16574511 -0.12719071 0.23411603 -0.05749407 -0.30663848 0.20530973
-0.0784791 0.20539373 0.16423835 -0.017555503 -0.021690534 -0.012344041 0.14467898 -0.024847254
-0.08814289 0.018512387 -0.30599788 -0.10606722 0.16422997 -0.15472044 0.2836429 0.27917495

network_body._body_endoder.seq_layers.2.bias f4 [256]
00000000: 529c e73b e331 a63c 3c68 463c 2276 07bc
00000010: 2ef7 a43c fb43 d13c 3382 c7ba dc17 443c
00000020: 8d59 aa3c 05f5 853c e3d7 133d d047 8639
00000030: dd18 053d 50a9 8f3c 7ef5 0abd 0a91 9d3c
00000040: 372d ac3c 1ebd 0e3c 11c8 5b3c a99a 33bc
00000050: c24e c13b 6152 273c 2bc2 cb3c 0ce1 173c
00000060: bdab 1e3d 51ea 0fbc 40c2 a638 aa4e 94bb
00000070: da2c 9f3c 43dd b13c f7be d33c b4b2 a73b
00000080: 1328 8dbc 08c8 063a b9b6 b63c 9352 b73c
00000090: c9e7 babb e276 993c 8b5d 5f3c 337f c53b
000000a0: 8502 e83a 12b0 513c e2f3 313c 60e7 893c
000000b0: ad1b 843c f8e7 bd3c 868c f93b 23a8 083d
000000c0: d225 873c a300 c43b 6b25 bd3c f9ce f93c
000000d0: a38a cf3c 9fc6 233c a7d8 6f3c 6698 8d3c
000000e0: 6866 f2ba 4967 2a3d cb00 413c b72a 643c
000000f0: 8e96 833c 675d 2cbc d5c8 033d 1a9b 213d
00000100: bcdb db3b 76e0 503c 77f7 593b d31d 293c
00000110: f2e0 39bc 0caa 143c 0086 383a c38b 473b
00000120: 782f bb3c 8ce2 f53c 2ca7 993c 2fc5 513c
00000130: fc1b f5bb f56e f43c 5d22 243c 2406 983c
00000140: 1c1e ed3b f370 b93c 64e5 e83b d50f ab3b
00000150: 90cc 453c 73be 90bb de98 3d3c 7d04 233c
00000160: ce87 443c 73da ae3b e8bc 883c d491 fb3a
00000170: 0ec9 8f3c 6460 ab3b 1276 1fbc f4e5 133d
00000180: 3ddb 103c 54a8 e53c 8852 263b d513 643c
00000190: f9f6 323b c05e 023d 403e d0ba abb6 f23c
000001a0: 284c 9d3c 4721 643b 9d97 cb3b 2ad5 9b3c
000001b0: 2f78 d03b e8cb 623c 3af6 e1b8 8c44 de3c
000001c0: 7439 cd3c dc08 cc3c a225 6d3b 149f 183d
000001d0: dd8f db3c ffc5 e03c f7d3 963c 807c 803b
000001e0: f122 3ebc b495 e13c 449f 293c 22fb 863b
000001f0: 3936 e13b 48e7 083b d6b2 833c 1f97 ba3b
00000200: 854d 063d a516 9a3c 9f9a a13c bc78 2eba
00000210: f8a9 e13b 9f4a 433d 144e fa3c b866 3f3c
00000220: 50cc fe3c 0f63 f63c 9e82 a03c f017 f4ba
00000230: 6ecd d53c 7a3f d73c d71f ec3c b635 ae3b
00000240: 1fc1 d43c 8cfe 98bc 529c db3c c3df d33b
00000250: 7ccb 543c 5537 c13c d7b0 6f3c 8722 fb3b
00000260: 0081 77ba 654c cf3c 2997 103c e801 683c
00000270: 8b08 1b3c a2e2 22bb 23c9 e03c 431d eb3c
00000280: 67b2 a63b 9328 c03c 3510 fa3c e941 bfbb
00000290: bb56 303c 841f da3c 2768 973b 1584 eb3b
000002a0: a3f5 79bb 06bd f83c b903 c83c edd8 f5bb
000002b0: d42a b2bb dad6 9a3c 20ac 9fbb 43e7 e13c
000002c0: 962b 863b 33bc 1abc 0d28 6a3d 6632 13bd
000002d0: 5ceb 7b3c f367 aebc c754 f1bb c1c9 393d
000002e0: ea0c 003d 8700 bbbc 4c5c 2b3d 8b17 3bbb
000002f0: 6e7a de3c 2d50 d93c 5f35 233a f3ea d13c
00000300: e14e f83c 2aec c23c 1169 ec3b ce87 933c
00000310: 79b4 353d 1050 1c3b f60c a73c 9873 483c
00000320: c84b 07bb 841e 203b 84f6 ff3c 8899 6c3c
00000330: 8281 db3c 5454 093c 39f1 963b 29ec e13b
00000340: 7ab4 f6ba 8b04 9e3c 3f64 093d df64 293d
00000350: 8c9f 2d3c bb23 6a3b 3315 593c 1b16 b43c
00000360: 1e5c 753c 4d90 0e3d 2742 06bb 4031 ab3c
00000370: d25f 1b3d 8ce8 a93c bd01 19bc 6d00 443c
00000380: c264 ad3c a9ed 1b3d 33a0 183d d008 ab3b
00000390: 2f63 51bb 4fcc f93c 4e07 813a 6f29 b23c
000003a0: 02b2 0b3d bad3 6d3c 74c9 803b 1672 703c
000003b0: ae8b fa3b ec54 3dbc d2b7 073c a045 533c
000003c0: 0dc3 cc3c 8147 083d 60b7 d53c 67b2 543c
000003d0: 5af2 ec3c 3827 1f3b 86b1 0bbb 2d97 0b3d
000003e0: 308f c73c ca13 ceba 8340 e43c 40e7 2b3d
000003f0: 986d 963c 866e 9bba bf97 333d d8a8 473c
0.0070681954 0.02028746 0.012109812 -0.008267911 0.020137396 0.02554511 -0.0015221298 0.011968579
0.020794654 0.016352186 0.036094557 0.00025611976 0.032494415 0.01753679 -0.033925526 0.0192342
0.021017654 0.008712081 0.013414399 -0.010962167 0.0058992812 0.010212512 0.02487286 0.009269964
0.038738 -0.008783893 7.951679e-05 -0.004525979 0.019430567 0.021711951 0.025847895 0.0051177386
-0.017231023 0.00051415013 0.022303926 0.022378242 -0.0057039005 0.018733446 0.013633142 0.006027126
0.0017700946 0.012798326 0.010861369 0.016833961 0.016126478 0.0231819 0.0076156287 0.033363473
0.016497526 0.005981521 0.023089131 0.0304942 0.025334662 0.009996085 0.014639056 0.017284583
-0.0018493654 0.041602407 0.011779974 0.0139262 0.016063001 -0.010520316 0.03217395 0.039454557
0.006709544 0.012748828 0.0033259073 0.010322052 -0.011345135 0.009073745 0.00070390105 0.0030448295
0.022849783 0.030015253 0.018756472 0.01280336 -0.0074801426 0.029838065 0.0100179585 0.018557616
0.0072362553 0.022636866 0.0071074236 0.005220393 0.012072697 -0.0044172346 0.011572091 0.009949801
0.011995269 0.0053361 0.01669164 0.001919324 0.017551925 0.0052299965 -0.00973274 0.036107972
0.008841333 0.028034367 0.0025378782 0.013920744 0.0027307852 0.031828642 -0.0015887693 0.029628119
0.019201353 0.0034809874 0.006213142 0.019022543 0.0063619833 0.01384256 -0.00010774699 0.027132295
0.02505181 0.024906568 0.003618576 0.037261084 0.026801998 0.027438162 0.01841162 0.0039210916
-0.01160501 0.027537204 0.010352913 0.004119293 0.006872919 0.0020889807 0.016076487 0.0056942846
0.032788772 0.018809626 0.01972705 -0.0006655564 0.006886717 0.047678586 0.030554809 0.011682205
0.031103283 0.030076532 0.019593533 -0.0018622857 0.026098933 0.026275385 0.028823776 0.0053164614
0.025970994 -0.018676065 0.026807938 0.0064658835 0.012987968 0.023585955 0.014629564 0.007664028
-0.0009441525 0.025304982 0.008825102 0.014160611 0.009462486 -0.0024854322 0.02743966 0.028700477
0.005087185 0.023456847 0.030525306 -0.0058367145 0.010762866 0.026626356 0.00462057 0.0071873763
-0.0038140796 0.03036357 0.024415838 -0.007502666 -0.0054372344 0.018901277 -0.004872814 0.027576094
0.0040945513 -0.009444284 0.0571671 -0.035936736 0.015375938 -0.021289801 -0.0073648426 0.045358423
0.031262316 -0.0228274 0.041836068 -0.0028547968 0.027157988 0.026527489 0.00062259095 0.025624728
0.03031105 0.023794252 0.0072146733 0.018009093 0.044361565 0.0023851432 0.020391922 0.012234591
-0.0020644534 0.0024432251 0.031245477 0.014440902 0.026795153 0.008381922 0.0046063927 0.0068946076
-0.0018822097 0.019289276 0.033542868 0.041355964 0.010597121 0.0035726863 0.013249683 0.021983197
0.014975576 0.034805585 -0.0020486207 0.020897508 0.03793318 0.02074077 -0.009338793 0.011962992
0.02116621 0.038068447 0.037262153 0.0052195564 -0.0031949987 0.03049293 0.0009844096 0.021748273
0.03410531 0.014515812 0.003930265 0.014675638 0.0076460456 -0.0115558915 0.008283572 0.012895018
0.024995351 0.033271316 0.026088417 0.012981988 0.028924156 0.002428485 -0.002131553 0.03407972
0.02436027 -0.001572245 0.027862793 0.041968584 0.018362805 -0.00118585 0.04384589 0.012186252

network_body._body_endoder.seq_layers.2.weight f4 [256, 256]
00000000: 935b 573c b26c b1bd dcc8 64be 1f8a af3d
00000010: 46d6 3abd 6f0b b4bd 7166 08be 7fca 453c
00000020: ab37 26bd aa6d 0d3d 0c01 2bbc 529f 423c
00000030: c3b3 f43c b7db 0fbd 9a01 a33d aba5 a9bb
00000040: 3486 803d c543 56bd 8c6c afbb a360 b73c
00000050: fd43 cabc a176 ff3c abb7 113d d411 793d
00000060: d258 c6bc 3c1c 16bd fa6e 353e d17a f83d
00000070: ca28 9f3d e1a0 dbbd caae 723d 4078 bfbd
00000080: b231 783d 8e6a 5abd 92dd 233c 8100 3cbd
00000090: d21a 8fbd 0be9 fdbc 7629 31bd a618 15be
000000a0: cd97 0cbe 30af 07be c6d9 823d d7b4 c1bd
000000b0: 013f 263d 8faa a13d 22ff 19bc 3496 c23c
000000c0: 3142 d5bc c116 f33c 9f9d 5b3d 70a4 6c3d
000000d0: 6912 de3d f760 e6bd 6e94 abbd 5e7b 933d
000000e0: 19e5 90bd d80e cabc be7b 5fbd 3f27 ac3d
000000f0: b237 033d dc01 30bd e893 9a3d 981c 88bd
00000100: 7eaf 0ebd e3f9 5b3c e9c4 87bc 27ef 8bbc
00000110: 71a1 b5bc 1891 f33c a848 80bd 103a bfbd
00000120: 3676 423d 8c9c 223d 14cf d0b9 f216 3bbc
00000130: 7f18 3e3d 0001 023d bd5d 943d 704e fd3c
00000140: 4f15 f63b 4152 9c3d ef60 b53d 8785 0abd
00000150: e1c4 9a3d 633d aa3c bfc7 013e 9cc8 ac3d
00000160: 615a 41bd 8894 933c 36ef 72bd 169c 813d
00000170: 2942 7ebd 66ff ffbd d782 c63c 6e2e ce3c
00000180: a09c 35bd f380 8dbc 6409 0abd 4828 8ebc
00000190: bbb8 893d 5cc3 4ebd 2148 cabc 717b 173c
000001a0: 1b40 7abc b77b bbbc f179 d43d fdd4 02bd
000001b0: 13aa c13d 2ad8 75bc 5cc5 dfbd 13d5 a83d
000001c0: 6e05 b93c 2422 813c 9df2 d7bd 04a7 aebd
000001d0: e4f8 123d b64b 283d ecc0 8cbd ee34 92bd
000001e0: 9edc dabd 0c08 cdbd a301 713d 38cb dc3d
000001f0: 8469 fc3b ae31 d43d 17bf 35bd 998e 233d
00000200: 926a f13d 6f32 8dbd aea3 3c3d 58b8 723c
00000210: e1c8 cabd c0df 4bbd 9612 3d3d 2775 3fbd
00000220: 0c8e 17be a227 89bd ee78 bb39 8733 2dbd
00000230: 8a72 18be 5536 a63d 5f26 0b3e 855c 283e
00000240: a96b e93b a302 e93d 4548 d23c a943 8e3c
00000250: 6afe cdbb 3feb 05bc e9c5 713d c78d fc3b
00000260: c4dd 123c c348 8c3d b966 723d 759c bd3c
00000270: 78d3 f5bc 3912 d6ba a4e4 afbd 980d 633d
00000280: 9794 24be 8986 fabc a5f5 b13c face 21be
00000290: 6acb d1bc e515 d4bd 2829 e83c 05dc 573d
000002a0: fd50 bfbd 157e 5cbc 601e f4bd 1f57 cabd
000002b0: 0b55 38ba d68c 9f3c 2543 a0bd 5d71 653c
000002c0: 50b5 cebc 8dcd 50bd 9a39 943d 5f41 ed3d
000002d0: f5d2 f03c 7d00 353c 835e ccbc c130 d23d
000002e0: d4fb 8fbd 1e5b adbc 5a1e 803d f7e0 f33d
000002f0: 53da 843d 93c2 583d e14a f03d 6380 ddbc
00000300: f2e5 02bd 6ff9 cfbc 4692 eb3d 204b 10be
00000310: 2dbe 9e3c a23d 3d3d 8c06 a2bd 698a 663d
00000320: e5cb 5dbd c495 d3bc 5285 20bd 6bfd 00bb
00000330: e534 823c f308 12bc d134 ee3d 2d1a bf3d
00000340: 4ad4 823c 2cd4 ac3d f6f3 653d 7c23 7cba
00000350: 8a7c a33c 0e4c 183e 9aa6 c6bc 961a 43be
00000360: a56c 433d 38f8 9dbb 959c bebd 1340 b63c
00000370: 4471 953d dac9 f73c 8792 593b 9b88 80bd
00000380: b1f0 b7bd 43b6 8bbd 3c74 c73c daaf e9bb
00000390: 44f3 c0bd ba92 0abc 51fa a93c 3784 aebd
000003a0: ff8c 22bd 535a 053e 140f be3c c1fa e23c
000003b0: 93a3 4d3d 5de1 80bd aa46 f63a a4f9 2dbd
000003c0: d97a ed3d 77aa d83d a788 af3b ec64 04bd
000003d0: db7e 553d 4e62 c53d 1a4d 903d ef5e 06bd
000003e0: e1b9 5d3d 40f3 073d d5c9 ab3c 6d55 97bd
000003f0: 8a51 bc39 8505 463d eb7c 3ebd 0ec2 e1bd
0.013144392 -0.0866331 -0.22342247 0.085712664 -0.045614503 -0.08791243 -0.13320328 0.012072205
-0.040580433 0.034528412 -0.010437261 0.011878805 0.029870873 -0.035121646 0.0795929 -0.00517722
0.06275597 -0.052310724 -0.005353516 0.022384947 -0.024690622 0.031184496 0.03557555 0.060808018
-0.024212275 -0.03664802 0.17718115 0.121328 0.07771452 -0.107240446 0.059248723 -0.09349108
0.06059427 -0.053324275 0.010001557 -0.045898918 -0.069875374 -0.030994913 -0.04325243 -0.14560184
-0.13729782 -0.13250422 0.06389193 -0.094583206 0.04058743 0.078938596 -0.009399207 0.023753263
-0.02603254 0.029673936 0.053617116 0.057774007 0.10843355 -0.11248963 -0.0837792 0.07201265
-0.07074947 -0.024665281 -0.05456137 0.08405923 0.032035537 -0.042970523 0.07547742 -0.06646079
-0.03483533 0.013426277 -0.016573386 -0.01708181 -0.022171708 0.029732272 -0.06263858 -0.093372464
0.047476016 0.039700076 -0.00039827137 -0.011419045 0.04641008 0.031739235 0.07244442 0.030921191
0.0075098644 0.07632876 0.08856379 -0.033818748 0.07557083 0.020781225 0.12673853 0.08436701
-0.047205333 0.018015161 -0.05931016 0.06328599 -0.062074814 -0.12499885 0.024232311 0.025168624
-0.044338822 -0.017273402 -0.03370036 -0.017353192 0.06724688 -0.050479278 -0.024692597 0.009245739
-0.015274073 -0.02288614 0.10374821 -0.031941403 0.09456267 -0.015005151 -0.10926315 0.08243766
0.022585597 0.01576335 -0.10544322 -0.085279495 0.03588189 0.04108783 -0.068727344 -0.07139002
-0.10686611 -0.100113004 0.05883945 0.107809484 0.007703008 0.10361038 -0.04437169 0.039930914
0.11787905 -0.06894385 0.046054535 0.014814459 -0.09901596 -0.04977393 0.046160303 -0.046742585
-0.1480028 -0.066970125 0.0003575752 -0.04228547 -0.14887443 0.08115832 0.13588856 0.16441543
0.00712343 0.11377456 0.025669226 0.017366247 -0.006286432 -0.008173763 0.059026632 0.007707331
0.008964006 0.06849816 0.059179995 0.023145894 -0.030008063 -0.0016332335 -0.085885316 0.055432886
-0.16072308 -0.03058173 0.021723578 -0.15801612 -0.02560969 -0.103557386 0.028339937 0.05270006
-0.09341619 -0.013457795 -0.11919856 -0.09879898 -0.00070317154 0.019476335 -0.07825307 0.014004079
-0.02523294 -0.05097728 0.07237549 0.11584734 0.029397467 0.01104748 -0.02494741 0.10263205
-0.07030454 -0.021161612 0.06255789 0.11908143 0.064869545 0.052919935 0.11733032 -0.027038759
-0.031957574 -0.025387494 0.11502509 -0.14091158 0.019377792 0.046201356 -0.07911405 0.056284342
-0.054149527 -0.02582825 -0.039189644 -0.00196823 0.015894363 -0.0089132665 0.11631168 0.093311645
0.015970368 0.08438906 0.056140862 -0.00096183247 0.019956846 0.14872763 -0.024249364 -0.1905311
0.047711033 -0.0048208497 -0.093072094 0.02224735 0.07296994 0.030247618 0.003319891 -0.062760554
-0.08981455 -0.06821873 0.024347417 -0.007131559 -0.09421399 -0.008457834 0.020749243 -0.08521312
-0.039685246 0.13022737 0.02320055 0.02770746 0.050204825 -0.06292985 0.001878937 -0.042474404
0.11595697 0.105793886 0.0053568664 -0.03232281 0.052122932 0.09637891 0.07045956 -0.03280538
0.054132346 0.033190966 0.020970264 -0.073893405 0.00035918906 0.048345108 -0.04650585 -0.11023341
