AI Models/ImitationLearning/CarAgentImitationv3.0.onnx (onnx, 334593 bytes, 7 tensors)

network_body._body_endoder.seq_layers.0.weight f4 [256, 63]
00000000: dcb9 b9bd 84fe e33d 4c0e 0cbc a5fd 6dbe
00000010: 451a 96be bb52 be3b 5be3 433e 54ee b23d
00000020: f83c 173c a3ef 463e 8a1d f7bd eb33 243e
00000030: dfd9 b23d 974c 9ebc 7349 febd 8400 913d
00000040: 4227 e2bd cc30 2ebe 4c6e eebd 87d7 223e
00000050: 1405 02be e2de 813e 71e3 523c d48c fe3d
00000060: 42f0 bf3d be37 78bd fc06 8cbd 6a65 2ebe
00000070: 1182 863d 940d 313e 8b6d 0bbe ce42 523e
00000080: bab6 19bd ee5a 8dbd 1b87 b63d 087c 8e3d
00000090: 9eae da3d 12c3 6c3c f058 923d 7d4e 433e
000000a0: bfe4 54be 8dd6 bfbd 3037 ab3c 63e4 9c3c
000000b0: 0e4e fabd cc05 0abe 73a9 cebd a24c 3cbd
000000c0: b1aa e93d 6e40 3d3d 9bb2 a3be f5a7 4dbd
000000d0: f6e3 1ebe 1a40 b5bd 6d27 4cbe 54ae ea3e
000000e0: 686d 2cbe b0ef bcbd 331d a83d dc6b c13d
000000f0: eaeb 36be 32bc 493e 256e 7cbe efb3 d9bc
00000100: ebc3 74be 3a99 0bbb 846e 90be 5de2 7bbd
00000110: 9c22 fcbd 7fcb 11be 5bf2 3e3c e40e 203d
00000120: 8405 253e d5ac 5c3e efe2 2ebc d860 f1bd
00000130: cf26 5f3e 1a97 f73c 7cda 003e 1fd7 2fbe
00000140: c7cb 6c3e 04c5 993d 4d2a 243b 2753 50bd
00000150: 4d27 08be 22f2 89be db74 283d b702 a2bd
00000160: bdd6 8d3c 2828 87bb 1c65 893e dc71 bb3b
00000170: 76ba aabe cf9b bb3c 1760 a13b 9a41 e9bd
00000180: aa52 8c3c 6a77 2c3e 8f6e 8abd 7acf b5bd
00000190: 853c 2b3d 183e 70bd 6e8b 903d 3552 acbd
000001a0: 5822 40be 6ec3 c139 b359 d1bd a361 263e
000001b0: c27d 3dbd f046 16be 8380 9dbd 8d57 ad3b
000001c0: 2e45 d93d 8b3e d8be f6d9 5a3c 584c 65bd
000001d0: 0a9f 5d3e ec03 82bc 9017 de3d 4081 0b3e
000001e0: 5a04 9bbd 24f5 c63d a965 443e 83f5 cbbd
000001f0: 5987 923d 7b1a 873d 5dc4 12bc 46ff 473d
00000200: d9ca 92be f5f8 533b aa66 b8bd 4b79 853d
00000210: 4c67 44be 9c8b dd3c d1b6 35be 5319 2dbd
00000220: 1250 bebd 3171 5b3d 26df ffbc ef53 253e
00000230: 00af 0ebe 2d8c 263d ddc6 2abe 71ab 2f3d
00000240: d1d1 593e 0b15 adbd 3135 1dbd dd37 41bd
00000250: 75e4 83be 1fbe e83d 36f5 1abe 99ce 1cbe
00000260: d8f8 85bd a1bd a73d ca6c 2c3d 20f4 be3c
00000270: 0caf 9dbe 0fac bfbc 347f 2ebe 4c74 3fbe
00000280: 4f43 a83d 7e33 0f3e 8ff2 1d3e 5148 933d
00000290: 77e4 a43d 9c29 2a3e d98d c4bd fd71 a93b
000002a0: 66d9 db3d 88cc 663d f80f 13be 0943 6a3d
000002b0: 08de b6bd c94f b53d ce20 053e ed03 f3bc
000002c0: 8747 28be cbe1 04be e1b1 8d3c 35b0 cc3c
000002d0: 9389 233e cdd1 80be 20f5 bb3d 51c8 da3d
000002e0: cd2f 64be 5e3d e5bc ecce 903d 5597 323e
000002f0: f62b ebbd df99 bebc 5663 48be 25e6 fb3d
00000300: a767 0a3e 7119 6d3e 8138 503e 2757 913c
00000310: db8f a6bd 4f9e 263d 3411 c4bd 0e86 353e
00000320: 5eb9 4f3c 1f2d 773d c8a3 e43c a95d 14bd
00000330: 382b 513e ff49 b1be fdf4 bfbc f9ca 173e
00000340: 63e5 063e d060 6ebe a02e b8bd 3e5a 76bd
00000350: 860e 3dbc 48c0 24be 49ee c5be 07c6 dbbc
00000360: bc9c 86bd 56ed 2a3d 2a7c 85bd 5cbf 4f3e
00000370: 0d30 55be c289 f03c 4140 f9bd d5e6 9b3d
00000380: 2cc6 503d 3e6d a33c 42f5 cbbd 7f02 94bc
00000390: 6fa6 93bd 9300 0d3d 285c 943d b608 4abb
000003a0: c314 20be 648a 88bd fdd2 3d3e 99e3 1e3d
000003b0: 889c 503d df35 783e 4788 293c d911 73be
000003c0: 2700 5dbe 71b2 d9bd e7a1 34be e76c 2fbd
000003d0: 2553 993d f339 603d 17dc 1d3e 6c6d f9bd
000003e0: 3c74 49bd b4a4 933e 0e4b fdbd 54d4 0a3e
000003f0: 3efc b7bd ce9c 903d f6c3 563e 129b 91be
-0.09068653 0.111325294 -0.0085483305 -0.23241289 -0.29316917 0.005808202 0.19129698 0.08736864
0.009230845 0.19427352 -0.12066181 0.1603543 0.08732962 -0.01932363 -0.12416353 0.070801765
-0.11042644 -0.17010802 -0.11642131 0.1590253 -0.1269725 0.2536536 0.012871609 0.124292046
0.093719974 -0.060600035 -0.0683727 -0.17030874 0.06567777 0.17290336 -0.13616006 0.20533296
-0.037527777 -0.06902109 0.08912488 0.06957251 0.10677837 0.014450805 0.0714587 0.1907291
-0.20790385 -0.09367094 0.020900339 0.019151872 -0.12221919 -0.13478774 -0.100909136 -0.04597152
0.1140951 0.046204023 -0.31972203 -0.050209004 -0.15516648 -0.08850117 -0.19936915 0.45836127
-0.1683861 -0.09225404 0.08208694 0.09444401 -0.17863432 0.19700697 -0.24651392 -0.026575057
-0.23902862 -0.0021301047 -0.28209317 -0.061495174 -0.12311289 -0.14237784 0.011654462 0.0390767
0.16115385 0.21550305 -0.010674222 -0.117860496 0.21792148 0.030223418 0.12583345 -0.17171906
0.2312461 0.07508281 0.0025049627 -0.05086055 -0.13296242 -0.26942545 0.041127067 -0.07910674
0.01731431 -0.00412466 0.26834953 0.00572036 -0.33345383 0.022901444 0.004924785 -0.11389466
0.017129261 0.16842428 -0.06759369 -0.08877464 0.041805763 -0.058652967 0.07057844 -0.08414117
-0.18763101 0.00036957435 -0.10222187 0.16248183 -0.04626251 -0.14675498 -0.07690527 0.005289978
0.10608898 -0.42235216 0.01335763 -0.05598101 0.216427 -0.01587101 0.10844338 0.13623524
-0.07569189 0.097147256 0.19179405 -0.09958937 0.07154722 0.065968476 -0.0089579495 0.048827432
-0.28670385 0.0032344435 -0.090039566 0.065172754 -0.1918003 0.02704411 -0.1774552 -0.04226048
-0.09292616 0.053574745 -0.031234335 0.161453 -0.13933945 0.040661026 -0.16677423 0.04288811
0.21271445 -0.08451279 -0.038380805 -0.047172416 -0.25760236 0.11364388 -0.15132603 -0.15313186
-0.06541604 0.08190466 0.042095937 0.023309767 -0.30797613 -0.023397474 -0.17040712 -0.18696707
0.08215963 0.13984486 0.1542456 0.07191528 0.08051389 0.16617435 -0.09597368 0.005171059
0.10734825 0.0563474 -0.1436156 0.057192836 -0.08929068 0.088531084 0.13000795 -0.029664958
-0.16433536 -0.12976758 0.017296733 0.024986366 0.15970449 -0.25160065 0.09177613 0.106827386
-0.2228386 -0.027983364 0.07070717 0.17440541 -0.11482994 -0.02326673 -0.19569144 0.12299756
0.13516103 0.23154236 0.20334055 0.017741753 -0.08132907 0.04067832 -0.09573594 0.17726919
0.012678472 0.060345765 0.027910128 -0.036222134 0.20426643 -0.34626767 -0.02343225 0.14823522
0.13173442 -0.23279119 -0.08993268 -0.060144655 -0.011539107 -0.16088974 -0.3865836 -0.026827825
-0.065728635 0.041730247 -0.06517823 0.20287842 -0.20819111 0.029362563 -0.121704586 0.07612387
0.05097024 0.019949552 -0.099588886 -0.018067596 -0.07209479 0.034424376 0.0724414 -0.0030827946
-0.1563292 -0.06667021 0.18537517 0.038791273 0.05093053 0.242393 0.010347432 -0.23737277
-0.2158209 -0.10629738 -0.17639886 -0.042828467 0.07486562 0.054742765 0.15415989 -0.12179074
-0.049183115 0.28836596 -0.12367831 0.13557559 -0.08983658 0.07061158 0.2097319 -0.28438622

network_body._body_endoder.seq_layers.0.bias f4 [256]
00000000: 7e80 b43c 9aef 6a3a aeac 623d 8dab a5bc
00000010: 72a9 65bc 527d 863c d6bb 3f3c 06e6 d03c
00000020: 1eff 98b7 9984 353b 4758 49bc d956 b03b
00000030: 5700 673d ceb3 603d c560 953c 9515 163d
00000040: 56ae 6c3d 7c9e a2bc f513 13bd 4fe4 803d
00000050: 86b4 273c e2b4 f33c f3c6 2dbc 53ed 5ebc
00000060: 0506 19bb 0a64 abbc c7da 8b3c f0c9 6fbc
00000070: 2642 213d fe3c 183d 877b 22bb 7372 f43b
00000080: 918d e93d b01f 0e3c d280 ab3c 4545 89bc
00000090: 05a9 c13d 063c e13c efb2 f63b edbd 3f3d
000000a0: f2cb 813c b47e 66bc fe90 b2bc f401 b4bc
000000b0: a112 d73c e21a aabc 75f4 e5bc c5d0 8f3d
000000c0: 7449 26bb c1d0 08bd 17c4 203d 1d64 473b
000000d0: 9bdd 16bd 58d1 263d fb9c 92bc 8d77 50bc
000000e0: de86 e7bb b819 aa3b 50c2 edba ebfa 543d
000000f0: 2869 c5bc 0bdf b33b f441 e13c 41be b73c
00000100: 5b7a 4f3b c202 23bd c252 be3b 312c 49bd
00000110: f334 143c e395 403d 9919 b7bc 3bc7 033d
00000120: 5e02 1a3d b268 c7bc ccd1 0ebc afa3 ee3c
00000130: caf1 b23c a823 a1bc 63cb 763d eff1 b93b
00000140: a739 003b bb9f a3bc e71b 763d a965 493d
00000150: 6b60 bb3c d36f 133d d68c 2a3d d9c4 b03c
00000160: ea84 193c bc07 4abc a2aa 1abc 9760 6f3c
00000170: 9f43 d53c ec20 64bc cbf6 ad3c 70f3 043c
00000180: c342 5e3c 255b f3b9 c6de 2dbc 6d58 68ba
00000190: 2149 163c 746e 853d 04c5 79bc 95a4 5e3b
000001a0: 773f 1bbc 8f99 9dbc 5f93 2d3d dfd8 c33c
000001b0: 9aaa a1bb 95d1 b63c ee0b f4ba 51c3 063a
000001c0: 0fbc 053c 68da 01bb 7467 b6bb a09e 46bd
000001d0: 5e76 9fbc 4941 80bd b6dd b83d ef71 e53b
000001e0: 89a1 0a3d 227f 81bc 3c19 763c 8fa5 933b
000001f0: 6fd5 61bc 0b22 b63c 4ab8 ff3c 380e b83b
00000200: beb0 afbc 441e 0f3d 3e98 993c 1378 87ba
00000210: 00b4 883c 24bf 103c 4636 393d 2e58 c93c
00000220: 4948 8a3c d93b 583d 451e 8f3b 7e6c 903c
00000230: c49b 96bc 0de5 4c3d 04b8 c83d 026c 1c3d
00000240: 05bf f2bc 9d66 773d 552b e53b fcbc c0bc
00000250: 8edc e73b 776a 693c 5646 d43c fe8d 8d3c
00000260: 3011 3c3d e349 b93b aeb8 483b 8ba8 833c
00000270: 0942 4b3d 35c7 b3bc e85f 493d bcef 623d
00000280: 94bb 5d3b 038a fd3c e969 023d 1cf2 dc3c
00000290: ece2 be3b d351 4f3d 1f10 97bc 4b17 883c
000002a0: 7d63 653c 0fe0 93bd 0de9 7d3b 2214 903b
000002b0: 47a9 223c d238 4c3c f1e0 06bd 6e65 4d3c
000002c0: 2e2f c5bb 38dd 6ebc bb8b 13bd cd0e ff39
000002d0: 256e 803d 6bc7 3a3c e4b2 ec3c 5162 5c3b
000002e0: d1d4 ae3c d579 3dbd fa0a 17bd 4413 46bd
000002f0: 31cb 193c 07d0 033d 1fe7 a23c a4f7 393d
00000300: 5475 193c 42f2 44bd ddbe ae3c 6ac9 96bb
00000310: e970 8839 1112 b9bc 0a08 ce3c 5e95 9b39
00000320: d3ff fabc e7eb f13c 880c 263c b54e aa3d
00000330: 1b60 283c 54ac d3bc ab6b da3a c154 243c
00000340: d9d4 743c 1cee 993c dbee 29bc 1b18 2e3c
00000350: 6a6a 813b 3e0e 1f3d 589c 3dbb c8e1 a73c
00000360: e439 efbc 5320 dcbb 94c7 553c 9169 2abd
00000370: 5d1b 2c3d 97b1 ec3c cda4 dfbc 9376 ffbb
00000380: 36dd 5dbc b1e9 c03b 9ddc a93c 3150 8d3b
00000390: 78a1 0d3d cb1b 8f3c e7b1 21ba 9109 cc3c
000003a0: 3022 243c 2952 7cbc 50f5 13bd 8136 cebc
000003b0: 65ad c5bc 4f81 82bc dacb e43c 61f2 96bc
000003c0: 72a7 9dbc 3652 203d 4ed4 8d3d 6e4c 9a3c
000003d0: 804c 78bc 2f1c 5f3c 6f02 243d 6b29 4c3d
000003e0: 31dc 8a3d cc63 943b c44c ccbb 8cb8 34bd
000003f0: 427c 9fbc 96a4 373d 406f 423b 6344 1ebb
0.022033926 0.0008962095 0.05534046 -0.020223403 -0.01401745 0.01641718 0.011702498 0.025500309
-1.823861e-05 0.0027697443 -0.012289113 0.005381447 0.05639681 0.054858975 0.01823462 0.036641676
0.057783447 -0.019850962 -0.035907704 0.062935464 0.010235911 0.029749338 -0.010606515 -0.013606387
-0.0023349535 -0.020921726 0.017072095 -0.014635548 0.039369725 0.03716754 -0.0024792866 0.0074599325
0.11403955 0.008674547 0.02093545 -0.016756663 0.09456066 0.027494442 0.0075286548 0.046811987
0.015844319 -0.014068294 -0.021797653 -0.021973588 0.026254 -0.020764772 -0.028070668 0.070222415
-0.0025373371 -0.03340221 0.039249506 0.0030424662 -0.036832433 0.04072699 -0.01789712 -0.012723816
-0.007065638 0.005191054 -0.0018139575 0.051997107 -0.024097994 0.0054892353 0.02749727 0.022429587
0.0031658623 -0.039797552 0.0058082053 -0.04911441 0.009045827 0.047017943 -0.022351073 0.032172423
0.037599914 -0.024341915 -0.008717012 0.029130785 0.02184381 -0.019670323 0.06025256 0.0056745927
0.0019565613 -0.019973626 0.060085203 0.049169216 0.022873124 0.035995316 0.041638218 0.02157824
0.009370068 -0.012330946 -0.009440096 0.014610431 0.02603322 -0.013923865 0.021235844 0.008114681
0.013565722 -0.0004641648 -0.010612195 -0.0008863274 0.009172709 0.06515208 -0.015244726 0.003397261
-0.00947558 -0.019238262 0.042376872 0.023907123 -0.0049336674 0.022316733 -0.0018619278 0.0005140799
0.008162512 -0.0019814018 -0.005566532 -0.04849112 -0.019465622 -0.06262452 0.09026663 0.0070021073
0.03384546 -0.015807692 0.015020665 0.00450582 -0.013783797 0.02223303 0.031215806 0.0056169294
-0.021446582 0.034940973 0.018749353 -0.0010335468 0.016687393 0.008834634 0.045217775 0.02457818
0.016880171 0.05279145 0.004367622 0.017629858 -0.018384822 0.050023127 0.09800723 0.03818894
-0.0296321 0.060400594 0.006993691 -0.023527615 0.0070758527 0.014246575 0.025912445 0.017279621
0.04591483 0.00565456 0.0030627656 0.016071578 0.049623523 -0.021945575 0.04916373 0.05540441
0.003383373 0.030949598 0.031839285 0.026970915 0.005825391 0.050615143 -0.018440304 0.01661267
0.014000771 -0.0722047 0.0038743645 0.0043969313 0.009928054 0.012464719 -0.032929365 0.01253639
-0.006017587 -0.01457911 -0.03602193 0.00048648418 0.062710084 0.011400084 0.028893895 0.0033627937
0.021341713 -0.046258766 -0.036875702 -0.048358217 0.0093868235 0.032180812 0.019885598 0.045402184
0.009366352 -0.048082598 0.021331245 -0.004601647 0.00026024066 -0.022591623 0.025150318 0.0002967519
-0.030639565 0.029531432 0.010134824 0.083157934 0.01027682 -0.025839008 0.0016664168 0.0100299725
0.014943325 0.018790297 -0.010371889 0.010625864 0.003949453 0.03883194 -0.00289323 0.020493403
-0.02920241 -0.0067177205 0.013048071 -0.041604582 0.042018283 0.028893275 -0.027300263 -0.0077961176
-0.01354151 0.005887233 0.02073508 0.004312538 0.034577817 0.017469307 -0.0006168172 0.024906905
0.010017917 -0.015400448 -0.03612262 -0.025172474 -0.024130533 -0.0159308 0.027929235 -0.018426122
-0.019244883 0.039140902 0.069252595 0.018835273 -0.015154958 0.013617559 0.040041383 0.049844187
0.067802794 0.0045284983 -0.006234737 -0.04412131 -0.01946843 0.044834696 0.002966836 -0.0024149648

network_body._body_endoder.seq_layers.2.weight f4 [256, 256]
00000000: c248 16be 4b7a 393e 9ce6 3abe deb4 91bd
00000010: 5ef7 8fbd 722c 67bd 1148 fc3c 4da4 7cbc
00000020: f961 953d ee28 07be b108 133d 1ec2 4ebd
00000030: f17d bf3c 332c 77ba a89f 3abd 3815 2ebe
00000040: 8428 54bc 8c4a 243c 41fe eb3b 49cc 823d
00000050: d162 463d 886b 1fbc 1eda 0d3d 4beb d1bd
00000060: a9a1 d7bc 6e60 d6bc fb17 453d 8c69 ddbd
00000070: 334d 3739 b0c9 63bd d388 893d 61b6 6b3d
00000080: 5283 f23c b125 e13d 8909 cabd ae80 03be
00000090: 9f22 583d 64c1 8c3d 63d3 cabd cf6d 84bc
000000a0: 16a6 babc 48c0 69bd ad39 0f3e 43a7 353d
000000b0: 6b40 88bd 1767 343e a823 8c3d 5038 aebd
000000c0: e61c a73d 4a6f ee3b fdb9 3f3d 5efd 07bd
000000d0: 35c3 87bc 89f8 e03c ce6f 88bd 17c9 8b3d
000000e0: 515a 0c3e 042e 0f3d 93cf 15bd c0eb f4bb
000000f0: 5bc0 e4bc 87ac 4f3c 4e15 a63d f402 b7bc
00000100: 76f3 5a3c 7de3 633d 8de5 c2bc 1308 54bd
00000110: a6df 38bd 1cf6 883c 40a3 a13c 27ff b83d
00000120: 70d3 bdbc 1502 963d 6024 fb3d bee3 303d
00000130: bf79 063c ee4a 813d 2bdd f8bc a232 b4bb
00000140: 837b 2e3d 608f d13d d4b2 c4bd 409f 573e
00000150: 2c9f 793d d852 fcbd d510 19bd ccd6 3cbe
00000160: 59d9 373e 9367 8abd 9806 23bd 0c2c ddbd
00000170: 9f8e 023c 6b2c 1bbd 5513 7dbd cd38 c23d
00000180: b933 c0bd b8f1 073c 2bf9 0fbc 8bac 19bd
00000190: 8c81 d2bc ebfd 00bd 449b 1f3c 70cf 99bd
000001a0: 09ca c2bd 0cff ff3b cbec 6fbc 80e3 813d
000001b0: 206d 27bd 0037 a0bd 7508 72bb 1111 d4bd
000001c0: 7336 1d3e 9ee4 babd a103 7dbd 457e 823c
000001d0: b1dc 92bd 5662 283d ad7a ab3d 13b7 643d
000001e0: bb6a 623c 8199 b6bd e5b0 143d 8c54 183e
000001f0: d0f1 833d 9018 81bb 4aad 173e 60a4 8c3d
00000200: 4087 5fbd 7589 06be 5e63 043d 9f94 b6bc
00000210: 2809 a43d 3f3d f6bc c522 1c3d 6fd6 05be
00000220: 12a8 05be b197 bcbc 6254 303d ab20 a3bc
00000230: 38e8 92bb 63d3 f7bc 42b3 38bb f62d 80bd
00000240: 605a 2a3c 7e70 ad39 7b6e c8bd 5883 d5bc
00000250: d7ff 823d d874 0bbd f3f3 3e3e 48a8 f5bc
00000260: 6f43 f93d 9839 91bd cebd 863b 184e 903c
00000270: cce9 9c3d 93a5 95bc 0851 733d b6c6 bb3b
00000280: ba3f c4bd 2c56 0b3d 1030 debc 25f0 233c
00000290: 1fad ea3d a217 e43d 268d d4bc ca48 13bd
000002a0: 0596 9ebd e0e1 9abd 859c 833d d44e 093d
000002b0: 622d 6e3c 9862 d73c 52a8 e1bd b90a 673d
000002c0: f86f b8bc 5586 253c e932 bd3a 65d8 18bd
000002d0: 085c f7bc a707 933d 2909 ba3c 9831 2bbe
000002e0: 87d1 10be 96ef 64bc 6cd2 17be 3822 acbd
000002f0: 5361 833d 20b9 af3d b9b6 21be 58e2 12bd
00000300: a467 5b3d 217c 70bd acc5 1bbd 95bb 38bd
00000310: f9ff a13d e5f6 28bc 5daf 8a3d 7c8c cc3c
00000320: 2a84 b2bd c9fd c23d 076d f7bd 3398 0ebd
00000330: 6c00 ec3c 819b 95bc a11f fdbd b9af 9abd
00000340: 1718 38bd c66b c2bd b722 36bb 458b b03c
00000350: f739 41bd ce3c b33a b869 33bd e04c 223b
00000360: b966 5fbd 6c55 b63c cbfc 033d 4007 993d
00000370: 7dd0 62be 834e cb3d 8dea b83b 911b f93b
00000380: 0c3d 0d3c 54c5 9e3c 4249 453d 83f6 b33d
00000390: 26ec 6bbd 8c23 173e 78a0 10ba 2da9 843d
000003a0: 3e5d f9bb 0bd6 633c a1b2 c9b9 4e37 e33c
000003b0: 4ba8 90bc c66b 9cbd b943 843d 5b81 84bd
000003c0: c99e e2bc 37ca 51bc 71f8 9e3d 439c 123d
000003d0: 08a2 813d 5b1c d83c db80 21bd d844 1bbc
000003e0: b085 66bc ac47 b93d 51a0 65bd b071 c4bc
000003f0: 1094 60bc b82f ca3d b1de c7bc 2bbf ec3c
-0.14676192 0.18113057 -0.18252033 -0.07114576 -0.070296034 -0.05643887 0.030796083 -0.015420032
0.072940774 -0.13199207 0.03589696 -0.050478093 0.023375483 -0.00094288884 -0.045562416 -0.17000282
-0.012949113 0.010027539 0.0072019403 0.063866206 0.048434082 -0.009730227 0.03463184 -0.10249957
-0.026322203 -0.026169028 0.048118573 -0.10811147 0.00017480999 -0.055612266 0.0671555 0.057546977
0.029603634 0.10993517 -0.098651 -0.12842056 0.052767392 0.06872824 -0.099036 -0.016165642
-0.022784274 -0.05706814 0.13986845 0.044348966 -0.06652912 0.1761745 0.068427384 -0.085068345
0.08159809 0.0072764503 0.04680823 -0.033200614 -0.016572574 0.02746226 -0.0666195 0.06825464
0.13706328 0.034955993 -0.03657491 -0.0074743927 -0.027923753 0.012675411 0.08109532 -0.022340275
0.01336371 0.05563687 -0.023791099 -0.051765513 -0.045135163 0.016718917 0.019731164 0.090330414
-0.02317211 0.07324616 0.12262797 0.043185942 0.0082077375 0.0631312 -0.030378899 -0.0054992
0.04259826 0.10232425 -0.09604421 0.21056843 0.060942814 -0.12320489 -0.037369568 -0.18441314
0.17954005 -0.067580365 -0.03980121 -0.10799417 0.007968574 -0.037884157 -0.061786015 0.0948349
-0.09384865 0.008297376 -0.008787434 -0.037518065 -0.025696538 -0.031492155 0.009741608 -0.07510269
-0.095111914 0.0078123864 -0.014643858 0.0634222 -0.040875554 -0.078229904 -0.003693131 -0.10354818
0.15352802 -0.091256365 -0.06177104 0.01592935 -0.07171 0.041109405 0.08373008 0.055838656
0.013819392 -0.08915997 0.036301512 0.14876002 0.064426064 -0.0039396957 0.14812198 0.068672895
-0.054572344 -0.13138373 0.032321326 -0.022287665 0.08009559 -0.030058501 0.038119096 -0.13070081
-0.13052395 -0.02302155 0.043049224 -0.019913038 -0.004483249 -0.030252164 -0.0028183018 -0.06258766
0.010397524 0.00033080945 -0.097866975 -0.026063606 0.06396454 -0.034046978 0.18647747 -0.02998747
0.12171065 -0.07091063 0.004111982 0.017615363 0.07661781 -0.018267429 0.05940345 0.0057304753
-0.095824674 0.034017727 -0.027122527 0.010005985 0.114588015 0.1113732 -0.025946211 -0.03595809
-0.07743458 -0.075626135 0.06426338 0.033522442 0.014537187 0.02629213 -0.11018433 0.05640671
-0.022514328 0.010102828 0.0014434728 -0.037315745 -0.030195251 0.07179194 0.022709446 -0.16718137
-0.14142428 -0.013973137 -0.14826363 -0.08404964 0.064150475 0.08580232 -0.1579236 -0.03586039
0.053565636 -0.05871213 -0.03803031 -0.045100767 0.07910151 -0.0103127705 0.06771729 0.024969332
-0.087166145 0.09521062 -0.12081342 -0.034813117 0.028808795 -0.018262627 -0.12359548 -0.07553048
-0.04494485 -0.094932124 -0.0027791688 0.021550784 -0.04717442 0.0013674737 -0.043801993 0.002476506
-0.054541323 0.02225753 0.032223504 0.07472086 -0.22149844 0.09927084 0.005643195 0.007602163
0.008620512 0.019381203 0.048165567 0.08787253 -0.057598256 0.14759654 -0.0005517076 0.0647758
-0.0076099923 0.013906012 -0.00038470796 0.027736332 -0.017658373 -0.07637744 0.064582296 -0.06469985
-0.027663605 -0.012804559 0.0776223 0.035793554 0.06329733 0.026380708 -0.039429527 -0.009476863
-0.0140699595 0.090468735 -0.056061093 -0.023979992 -0.013707176 0.09872383 -0.02439818 0.02889975

network_body._body_endoder.seq_layers.2.bias f4 [256]
00000000: d91c 6c3c 2de4 89ba 386f cebc 95fc 333c
00000010: 89f5 edba 7bd7 fd3b c2b9 653c 6abd bfbb
00000020: 1091 083d 6421 893b 966d 973c 296f 24bd
00000030: 1cb5 0dbd f433 e7bc def8 33bd 0fa2 d4bc
00000040: 9114 773c 3bef 753b bfb1 983c b92d ccb9
00000050: 8dee bd3c 82da 8ebc 3575 f83c 1d9f 30bd
00000060: 561e 743c 54d4 273d 73cb c4bb be8e a13b
00000070: 0335 143b a4f3 aabc 5a8c 363b 9a17 8f3c
00000080: c3b5 97ba 1fea 0abc bfc5 22bd 37ee a6ba
00000090: 9dde 023d a9ca 18bd 4080 75bb c594 60bc
000000a0: bfce ba3c 0ed2 e73b 01af 10b8 6c48 523c
000000b0: c7e6 15bd 8212 e138 2796 48bd 53a9 2abc
000000c0: 8feb 843a fb6e 07bd 569f 95bc b72b 1dbc
000000d0: a719 1bbd c010 503a eb03 f9bb 9f76 463c
000000e0: 0f98 84bd dafd 16bd 8694 5f3c 4e69 edbb
000000f0: 4d70 f43c 9a8a 703c b877 e73b 7775 663b
00000100: 37a4 953d 7e67 823b b224 5e3c 3f0e 1bbc
00000110: 39c9 c83c 44be 543b 476f 43bc 8f5f 9cbd
00000120: cc28 c73a 4153 cabc 52ed 50bc e5ef c2bb
00000130: fe7f ab3b 27dd 96bc bc5c 01bd 446f 853b
00000140: 8cf9 a03c 5da4 903c 2455 3e3c 0531 593c
00000150: 900f ecbc 7dac 9f3c 782d 273b 2b33 a03c
00000160: 0e57 0f3d 6f19 d5bc 51c4 4f3c 53e0 753c
00000170: b1a1 943b 8128 a6bc d77c 20bd 1178 cabc
00000180: a44c df3b 0079 01bc 4328 88bc 0d79 8dbc
00000190: fabe 7d3c 7987 7e3c e149 babc 72f8 4a3b
000001a0: b039 98bc 235c 0ebc 3f11 b83c 927b f03c
000001b0: d7a1 9abc 3b6b 13bc 036c 72bc d37f 923c
000001c0: 60d9 743c 396f 17bc d505 a9bc 199b db3a
000001d0: 042e 57bc 6ed7 fd3a cc49 4e3b ba09 49bd
000001e0: 8f68 1d3c 0318 253b 7658 a43c c658 30bd
000001f0: ad52 263c dd99 f73a a52c a9bc cd4b 7fbc
00000200: f138 5e3a ea0e ae3b 6fe9 14bd 08a0 b13c
00000210: f974 613c ef86 7dbc 4121 b93b fc5a 79bb
00000220: 6a9d 33bc a24e 8d3c 085d e2bb 03ed 1fbd
00000230: d12f 7c3c 75d2 b63c 028f d5bc 705f 083a
00000240: 6c35 7fbb a4b3 e2bc 49b9 f5bc 6730 d1bb
00000250: 2ff1 91bc ad2c 6dbd e0cc 4b3c 21fe 123b
00000260: 8f32 ee3c f683 50bb 0380 05bd 3684 c7bc
00000270: 4c67 d3bc 492c 4f3b ee4f 323b 79ed ee3c
00000280: bbd0 8dba 7c34 edbc 10e1 ef3b dc8d bd3c
00000290: 97c5 453c df62 87bb 8cf7 86ba c6f6 cdbc
000002a0: 9aa8 75bd 42a7 483b c6b4 0fbd a6c1 4ebc
000002b0: 041c 223c 07e8 70bb 2cef 2fbc 2db3 2cbb
000002c0: 9703 893b f37c c93c a745 edba 6826 f4bc
000002d0: 20fe f8bc 503f 233c dd15 28bc 18a4 57bd
000002e0: 813c e83b 2cdb 2b3d 63bd babc 5a38 d6bb
000002f0: 4c94 533c 98a4 553c d636 a0bc 5b2a 98bc
00000300: 482c 4ebc be58 adbc edb0 1bbd 233d 3c3c
00000310: a451 823c 2e27 dbbc 073d e43c 94f4 8abc
00000320: 472b 5ebc a82c 833b 3874 373b 6f05 23ba
00000330: fc4e 2bbc 269b 773c 6da2 b9bc 68bf ecbc
00000340: 4974 94bc 940e bfbc 0490 bcbc 51c7 d73c
00000350: 4858 aebc eb5b 17bd 7cdf 0fbc 409c d53b
00000360: 2df9 3bbc 179d 8d3c d39c f738 0d14 fabc
00000370: ed35 6dbc cebd 773c d670 f3bb 8952 913c
00000380: 62a9 60bc 1ab1 6a3c eeef 5339 4a87 02bd
00000390: 897f 81bd 1b74 8a3c 4304 cabb 94df e7bb
000003a0: b3a5 a4bc 44f4 8dbc 5116 9f3b 7efc 24bb
000003b0: 8e7e e53b 006f d0bc 1cca eebc 3edf 763b
000003c0: 36d8 7bbc d2fb 01bc 3101 3ebb 45f3 b3bb
000003d0: 62cc 5f3c f557 9dbb 228c 29bb 5a5a 123c
000003e0: a95a a63c 8124 023c 36ac 5abb d70c ceba
000003f0: e513 5bbb 421e 05bd 679b f6bc 2775 f1b9
0.014411175 -0.0010520272 -0.025199518 0.010985513 -0.001815484 0.0077466345 0.014021339 -0.0058514373
0.033341467 0.0041848887 0.018484872 -0.040145073 -0.034596547 -0.028223015 -0.04393851 -0.025956182
0.015080587 0.0037526626 0.018639443 -0.00038943978 0.023185039 -0.017438177 0.030329326 -0.043120492
0.014899811 0.040973976 -0.0060056983 0.0049303463 0.0022614605 -0.02086813 0.0027854652 0.017467309
-0.0011574555 -0.00847867 -0.039739367 -0.0012735788 0.03195058 -0.037302647 -0.0037460476 -0.013707344
0.022803662 0.007074601 -3.449526e-05 0.0128346495 -0.03659704 0.000107322834 -0.04897132 -0.010416347
0.0010141003 -0.033064824 -0.018264454 -0.009592942 -0.03786626 0.0007937066 -0.007599344 0.012113242
-0.064743154 -0.036863185 0.013646251 -0.0072452193 0.029838705 0.014681483 0.007063832 0.003516523
0.07306712 0.0039796224 0.0135585535 -0.009463846 0.024510013 0.003246204 -0.011928386 -0.07635414
0.0015194654 -0.024697902 -0.012751894 -0.005949008 0.0052337637 -0.018416 -0.03158258 0.004072102
0.019650243 0.0176565 0.011616979 0.013256316 -0.028816015 0.019491429 0.002550928 0.019555649
0.03499513 -0.026013104 0.012681083 0.015007096 0.0045358767 -0.020282986 -0.039181557 -0.024715455
0.006814556 -0.007902384 -0.01662076 -0.017269636 0.015487427 0.015535229 -0.022740306 0.003097084
-0.018582195 -0.008688959 0.022469161 0.029355798 -0.018876 -0.008997734 -0.01479626 0.017883217
0.014944404 -0.009242826 -0.020632664 0.0016754597 -0.01313353 0.0019366571 0.0031477092 -0.04908154
0.009607448 0.0025191314 0.020061713 -0.04305341 0.010151547 0.0018890459 -0.020651171 -0.015582037
0.0008477113 0.0053118365 -0.036355432 0.021682754 0.013760799 -0.015474065 0.005649716 -0.0038048616
-0.010962823 0.01724941 -0.006908063 -0.03904439 0.01539226 0.02231715 -0.026069168 0.00052022096
-0.0038941754 -0.02767355 -0.029995577 -0.006383944 -0.0178152 -0.057903934 0.012438983 0.0022429305
0.029076843 -0.0031816936 -0.032592785 -0.024355035 -0.025806092 0.003161209 0.0027208286 0.02916597
-0.0010819653 -0.02895569 0.0073205307 0.023138933 0.012071035 -0.0041316594 -0.0010297163 -0.025142085
-0.059975244 0.0030617272 -0.03508451 -0.012619412 0.009894375 -0.0036759393 -0.010738175 -0.0026351914
0.004181336 0.024595713 -0.0018102423 -0.02980347 -0.030394614 0.009963825 -0.010259119 -0.052646726
0.0070872908 0.041957065 -0.022795385 -0.0065374793 0.012913775 0.0130397305 -0.019557398 -0.018574884
-0.0125838 -0.02116048 -0.038010526 0.0114891855 0.01590807 -0.02675208 0.027861131 -0.016962327
-0.013560123 0.004003126 0.0027992856 -0.0006218766 -0.010455843 0.015112674 -0.022660458 -0.028899863
-0.018121855 -0.023322381 -0.02301789 0.026340159 -0.02128233 -0.036952894 -0.00878131 0.0065188706
-0.011472982 0.01728682 0.000118070886 -0.03052714 -0.014478189 0.015120937 -0.0074292226 0.017739551
-0.013712259 0.014324451 0.00020211909 -0.031867303 -0.063231535 0.016901067 -0.006165059 -0.007076213
-0.020098543 -0.017328389 0.0048549552 -0.002517491 0.007003612 -0.025443554 -0.029149108 0.0037669684
-0.015371373 -0.007933574 -0.002899241 -0.0054916465 0.0136595685 -0.004801745 -0.002587088 0.008932674
0.020306902 0.0079432735 -0.0033366806 -0.0015720379 -0.0033428606 -0.03249956 -0.030103398 -0.00046054387

action_model._continuous_distribution.log_sigma f4 [1, 3]
00000000: d356 80bf f400 a4bf 047d 8fbf
-1.0026497 -1.2812791 -1.1210027

action_model._continuous_distribution.mu.weight f4 [3, 256]
00000000: dc37 993b b3e9 5b3b 4dd2 723c 7109 213c
00000010: dec1 79bb c3f5 e43c 3e84 78bb fa81 4d3b
00000020: eaf8 843d 97a9 f23c 03b7 8e3d cea6 47bd
00000030: 379c 05be 0827 f2bc 2948 10bd 2e25 74bd
00000040: 00a7 b43d 2797 bd3c 8bb4 ea3c 3a74 0d3d
00000050: 780b ce3c 1f34 85bc cd87 053d f188 8abd
00000060: c6aa 79bc 6165 ce3b 045f 563d e5a5 8bbc
00000070: 6327 c43c 7f08 87bd 5d91 b8bc 2fd4 11bb
00000080: 3dc0 2c3d a4ae d63c 1548 35be fb9d 87bb
00000090: 22f5 593d d3bf 54bc 5710 a03d 896d 9bbd
000000a0: 7b73 a9bc 1c13 d23c a78b fe3c d587 603d
000000b0: 078b 33bc 90b6 543c 8e3b 4f3b 87f2 d23b
000000c0: 3dce 733d ad58 ad3c f906 b1b8 8ad0 29bd
000000d0: a980 e5bc c93a e73c 2eda c8bc 54f5 ffbc
000000e0: 29aa f3bb f3d1 aabd 16f6 01bd e484 53bc
000000f0: 98d7 a2bc dd75 153d ae80 9c3c b799 ed3c
00000100: dbe2 3c3d f298 8d3c 31f0 88bd 7502 153c
00000110: 6225 3c3b 1222 42bd 6b78 373d 3765 41bb
00000120: 2952 a53b a5a9 d7bc abf9 3ebd 66ee 2b3c
00000130: 18e3 7d3c 67e6 c83b 92af 3dbd 2f53 8f3d
00000140: 7cae 973c 4791 833d 41c7 c93c a7f5 9dbc
00000150: 5ea9 483d eed2 5536 9259 b83b c49a b33d
00000160: cc17 833d 7233 9b3d 974f 0d3d e50f e1bc
00000170: 4e37 07bd 84c6 88bc 8a6d b4bd 8ae7 28bd
00000180: 936d 8dbb 2d06 bbbd 472d 0dbe db06 793d
00000190: 4eab e8bd 4096 2f3b 96c6 e5bc 6486 0bbe
000001a0: 0566 02be 15fc 6abd 01a5 783c 79f4 f3bc
000001b0: d143 acbd 7d75 d5bc f3a1 453c 07d9 b93c
000001c0: 167d 6c3d 0ff5 bebd d791 613d 5bf8 fd3b
000001d0: 11b8 333c 1e5e d4bc 216a d13c e07d bf3c
000001e0: 6394 743c 55ab e3bc c378 213d 67f4 99bd
000001f0: b0ce 4d3c 7658 01b9 75bc 4a3c 3eb9 25bd
00000200: f475 15bc e70e aabc c740 efbc 6646 c23c
00000210: 7d67 88bd 36fe 85bd f2ec 0bbc ae28 8bbc
00000220: e359 b83a f369 ac39 12ea c6bc 8647 91bc
00000230: a9d1 70ba 7d5a 443d d1c5 b1bd 4ec0 a53d
00000240: 5c4e 32bd 587e 4e3c f13f 023d b955 f7bc
00000250: 1f2a 0cbd 8886 3dbd eff7 943d b2af ac3d
00000260: fc2b d0bd 95b1 ac3c a91c 26bd 633a 29bd
00000270: 2b29 55bd a016 213d 47dc 7e3d e635 093d
00000280: f2d2 913d d6ea 54bd f49c 013d eb3a dd3c
00000290: 7c5b 583b 9b26 85bd a9f3 c73c c05c 6c3c
000002a0: 88ca 4d3c 94e0 b3bd ec0b 75bd c6bc b13c
000002b0: 4a21 e8bc e832 44bd 835a 34bc c65e 8c3b
000002c0: 6175 1a3c 637d 243d 01c8 febc a374 38bd
000002d0: 8ac5 55bd 5753 f23c d74a 60bd b5af 7bbc
000002e0: f2d1 9bbb 5439 483d 729f 583b 3a92 82bc
000002f0: b8be 2e3d a405 a93d 5d3c c63d d5b3 2abd
00000300: 26b6 f6bb e8bc 76bd d70f 6fbd 3bd8 ac3c
00000310: 68ac 223c cf60 3fbc 36df 553d f1b4 4dbd
00000320: f640 873a 6b36 913d b108 973a 5fb5 b4bc
00000330: e90b 45ba ea9e c63c 9899 4bbd cc16 76bd
00000340: cfa1 34bd 9320 51bd 223e 34bd f02b 61bd
00000350: ba4a 91bc ffa2 4b3d 72b4 31bc eb10 ab3c
00000360: 0cca 803d b281 293d 46fc b13c 6b3f fdbc
00000370: b6c2 9abc 2a6b bc3b 88a5 05bd 0afb b4bc
00000380: 73cc cfbb 4876 863c f9d6 98bd d7ab 0dbd
00000390: f241 dcbb 6c3c 303c 658e 4cbd ee52 b33b
000003a0: 8ea9 4fbc 6a25 5ebd 6566 b23a a5f0 7e3d
000003b0: 7f53 403d 30a5 89bd 53b7 bf3c 37f8 72bd
000003c0: a32f c0bd 21be 0f3d 26a1 87bc a14b 22bd
000003d0: d2f8 4f3b 544a f5bc 98b4 9c3d 71c0 a6bd
000003e0: ff2e 6d3d 2833 483c b2b1 6f3d b50c 1c3c
000003f0: 6f90 823d a644 69bd ab59 cfbc 6f90 803c
0.0046758484 0.0033556044 0.014820647 0.009828911 -0.0038109939 0.02794922 -0.003792062 0.003135799
0.06492789 0.029621882 0.069685005 -0.04874306 -0.13047872 -0.029559627 -0.035225067 -0.05960577
0.08820915 0.023143364 0.028650543 0.03453467 0.025151953 -0.016260205 0.032600213 -0.06764401
-0.0152384695 0.0062987064 0.052336708 -0.017046878 0.023944562 -0.065934174 -0.022530252 -0.0022251715
0.04217552 0.026206322 -0.17703278 -0.004138706 0.053212292 -0.012985188 0.078156166 -0.075892515
-0.020684948 0.025643878 0.03107245 0.05481704 -0.01095844 0.012982979 0.003162119 0.006437603
0.059522856 0.021160448 -8.4413165e-05 -0.041458644 -0.028015452 0.028226273 -0.024518099 -0.031244911
-0.007436056 -0.08340826 -0.031728826 -0.012910102 -0.019878194 0.036489356 0.019104328 0.029003961
0.046114784 0.017284844 -0.06686438 0.009094824 0.0028708805 -0.047395773 0.044792574 -0.0029509792
0.0050451946 -0.02632601 -0.04662482 0.01049385 0.015496038 0.0061309817 -0.046310015 0.06998288
0.018515818 0.06424194 0.024631144 -0.019282175 0.048989646 3.186225e-06 0.005625912 0.087697536
0.06401023 0.07578172 0.03449973 -0.0274734 -0.033011727 -0.016696222 -0.088099554 -0.041236438
-0.004316041 -0.09132037 -0.13786803 0.060797554 -0.11360799 0.0026792437 -0.028048795 -0.13625485
-0.1273423 -0.05736931 0.015176059 -0.02977966 -0.084113725 -0.026057 0.0120625375 0.022686495
0.05773648 -0.09324085 0.055070724 0.0077505535 0.010969178 -0.025923785 0.025563302 0.023375452
0.014927956 -0.027791658 0.039421808 -0.07517319 0.012561485 -0.00012335353 0.012374033 -0.040459864
-0.0091223605 -0.02075906 -0.029205693 0.02371521 -0.06660364 -0.065426275 -0.008540379 -0.016987171
0.0014064874 0.00032885335 -0.024281535 -0.0177343 -0.0009186515 0.04793786 -0.086803086 0.0809332
-0.04353176 0.012603365 0.03179926 -0.030192243 -0.034219857 -0.046270877 0.07273852 0.08431949
-0.10164639 0.021080771 -0.040554676 -0.041315448 -0.052041214 0.039328218 0.06222179 0.033498667
0.07120313 -0.05198177 0.031643823 0.027005633 0.0033013513 -0.06501504 0.024408178 0.01442641
0.012560494 -0.08783069 -0.059825823 0.02169646 -0.028336186 -0.04790011 -0.011007908 0.004283759
0.009427399 0.04015864 -0.031101229 -0.04503311 -0.05219034 0.029580755 -0.054758873 -0.015361716
-0.004755252 0.048882797 0.0033054021 -0.015938867 0.042662352 0.08253029 0.09679482 -0.041675407
-0.007529038 -0.06023875 -0.058364715 0.0210992 0.0099288 -0.011680796 0.052214824 -0.050221387
0.0010319042 0.070904575 0.0011522976 -0.02205914 -0.00075167284 0.024245698 -0.049707025 -0.060080335
-0.044099625 -0.051056456 -0.044004567 -0.054973543 -0.017735828 0.049715992 -0.010846244 0.02088209
0.062885374 0.041383453 0.021726739 -0.03091403 -0.018891674 0.0057500796 -0.032628566 -0.022092361
-0.006341511 0.016413823 -0.07462878 -0.034587707 -0.0067217285 0.010756593 -0.049940486 0.0054725325
-0.012674702 -0.0542349 0.0013610838 0.062241215 0.046954628 -0.0672096 0.023402845 -0.059318747
-0.09384086 0.03509343 -0.016556334 -0.039622907 0.0031734002 -0.029942669 0.07651633 -0.08142174
0.057906147 0.012219228 0.058519073 0.009524514 0.06375205 -0.056950234 -0.025311312 0.015693871

action_model._continuous_distribution.mu.bias f4 [3]
00000000: fed3 303d d64e a83b 77ed 10bd
0.04317092 0.005136351 -0.035382714
