AI Models/ImitationLearning/CarAgentImitationv1.0.onnx (onnx, 334593 bytes, 7 tensors)

network_body._body_endoder.seq_layers.0.weight f4 [256, 63]
-0.11225775 0.07939335 -0.005012705 -0.22396801 -0.2719555 0.0152793 0.16385873 0.09510336
0.012944246 0.20016542 -0.10453383 0.1185879 0.085300766 -0.01825121 -0.11311473 0.098475546
-0.107880905 -0.15852053 -0.116131954 0.13943759 -0.101835415 0.16937506 0.0074762306 0.11258519
0.08881773 0.012474953 -0.0996314 -0.14702283 0.02268491 0.12946513 -0.1067349 0.1288663
-0.03701555 -0.06613469 0.09735861 0.1040898 0.07031781 0.036507312 0.066177055 0.16887605
-0.18649088 -0.13606313 0.032750547 0.010305291 -0.12276955 -0.14231752 -0.1172735 -0.032308787
0.15693496 0.05441315 -0.3134187 0.0066147386 -0.10922871 -0.103003085 -0.15847711 0.38412854
-0.18760744 -0.10945516 0.10490281 0.11172593 -0.17872468 0.24234393 -0.22655295 -0.021636588
-0.20599629 -0.02319738 -0.2640449 -0.057840306 -0.12285709 -0.09661852 0.022503562 0.020247102
0.14660434 0.20504452 0.023332242 -0.115314394 0.22325988 0.022515345 0.121436104 -0.18072313
0.20864232 0.07007155 0.0067643323 -0.042314857 -0.062298685 -0.26061958 0.042711295 -0.08072257
-0.0035169574 -0.008520221 0.2323132 0.010620259 -0.31615317 0.03839756 0.09594845 -0.10196795
-0.0044942675 0.14277464 -0.08644518 -0.061608978 0.007200833 -0.065342955 0.07653939 -0.084366836
-0.14443286 -0.012961701 -0.106739365 0.13326307 -0.042674884 -0.14429608 -0.08263023 0.026347563
0.09842754 -0.4394568 0.015229147 -0.049584106 0.20111473 0.011013811 0.09815816 0.1347319
-0.07531854 0.091263905 0.17658456 -0.11032264 0.0639717 0.06718994 -0.008908056 0.036073208
-0.2647864 -0.028822318 -0.11259027 0.08190819 -0.2110632 0.02702126 -0.20863685 -0.0645935
-0.10710706 0.030002715 -0.017086575 0.16280292 -0.14673223 0.03425563 -0.14583828 0.07404025
0.19643565 -0.09669467 -0.033839643 -0.07583198 -0.18658009 0.11386535 -0.16105954 -0.15660164
-0.041972984 0.06717622 0.025860619 0.010049817 -0.30077288 -0.053954963 -0.13160586 -0.16737702
0.08882791 0.14117287 0.13032496 0.08067483 0.050284456 0.1483042 -0.1036341 -0.0037135542
0.110377245 0.06627047 -0.15053272 0.019381817 -0.117254026 0.09133646 0.15262643 -0.052342
-0.24778503 -0.15392047 -2.7403337e-05 0.02046149 0.15209083 -0.1829283 0.08623024 0.071602486
-0.24539386 -0.09825189 0.027259244 0.23011625 -0.106777094 0.008217997 -0.22506897 0.13770068
0.11181573 0.20593606 0.18201444 0.054376204 -0.08602216 0.026889427 -0.10857423 0.20227917
0.014782065 0.03655309 0.014699467 -0.073641844 0.20353872 -0.34728467 -0.040945124 0.13828917
0.13359296 -0.18624127 -0.03989589 -0.04823231 -0.025488501 -0.17889524 -0.37925953 -0.026052382
-0.063585944 0.029976353 -0.061591618 0.18486938 -0.16517003 0.040712755 -0.10286035 0.077193856
0.03029733 0.018367644 -0.071204774 -0.014361451 -0.05832188 0.026815793 0.087004 0.0012790242
-0.12576288 -0.0600673 0.19931993 0.03928414 0.04430228 0.23434742 -0.007693184 -0.22732595
-0.22565125 -0.11448965 -0.17383806 -0.08714571 0.08838551 0.05931835 0.17083454 -0.123317815
-0.0769109 0.27880642 -0.12585747 0.1331326 -0.13234013 0.10752392 0.15261102 -0.25069937
00000000: 64e7 e5bd fb98 a23d 9e41 a4bb df57 65be
00000010: c03d 8bbe 0756 7a3c 95ca 273e 8dc5 c23d
00000020: 1a14 543c 2af8 4c3e d515 d6bd 37de f23d
00000030: 2bb2 ae3d 9083 95bc b2a8 e7bd 8cad c93d
00000040: aaf0 dcbd 3553 22be 97d6 edbd bac8 0e3e
00000050: 168f d0bd a870 2d3e 2bfb f43b 1093 e63d
00000060: 12e6 b53d bf63 4c3c 8c0b ccbd 278d 16be
00000070: b4d5 b93c 8292 043e d497 dabd 87f5 033e
00000080: 9e9d 17bd a071 87bd f363 c73d 082d d53d
00000090: c902 903d b188 153d d687 873d d8ed 2c3e
000000a0: 77f7 3ebe 2254 0bbe 7025 063d 86d7 283c
000000b0: 9a6e fbbd afbb 11be 172d f0bd 3856 04bd
000000c0: 8fb3 203e 53e0 5e3d 6a78 a0be 73c0 d83b
000000d0: 4db3 dfbd 48f3 d2bd d347 22be 7fac c43e
000000e0: 2a1c 40be 072a e0bd 49d7 d63d 90d0 e43d
000000f0: 9a03 37be 0229 783e 7ffd 67be 373f b1bc
00000100: b1f0 52be 6f08 bebc e530 87be f5e9 6cbd
00000110: 7f9c fbbd eedf c5bd 6459 b83c 40dd a53c
00000120: 731f 163e 31f7 513e 4223 bf3c f429 ecbd
00000130: 3d9e 643e 1a72 b83c 7eb3 f83d 7c0f 39be
00000140: 55a6 553e ac81 8f3d 55a7 dd3b 5852 2dbd
00000150: e82c 7fbd ee6f 85be 0af2 2e3d e051 a5bd
00000160: c17c 66bb 6698 0bbc 83e3 6d3e 9800 2e3c
00000170: d4de a1be c346 1d3d 9f80 c43d 93d4 d0bd
00000180: a644 93bb 8433 123e 2c0a b1bd b259 7cbd
00000190: f7f4 eb3b 87d2 85bd afc0 9c3d 85c8 acbd
000001a0: 35e6 13be 505d 54bc 2b9a dabd 1d76 083e
000001b0: dccb 2ebd 5ac2 13be 0a3a a9bd d8d6 d73c
000001c0: 6194 c93d 7b00 e1be ac83 793c b418 4bbd
000001d0: 05f1 4d3e 4673 343c 2507 c93d 29f7 093e
000001e0: 9b40 9abd 92e8 ba3d 95d2 343e d6f0 e1bd
000001f0: 9803 833d e19a 893d 18f3 11bc 80c1 133d
00000200: 1592 87be c81c ecbc ba95 e6bd 7bbf a73d
00000210: f420 58be b05b dd3c e6a4 55be 9949 84bd
00000220: f25a dbbd 41c8 f53c 25f9 8bbc cfb5 263e
00000230: f940 16be a24f 0c3d a156 15be 6aa2 973d
00000240: 6d26 493e db07 c6bd 709b 0abd cc4d 9bbd
00000250: da0e 3fbe 3d32 e93d cbec 24be 2e5c 20be
00000260: ddeb 2bbd b093 893d a6d9 d33c fda7 243c
00000270: e7fe 99be e1ff 5cbd b0c3 06be e264 2bbe
00000280: 68eb b53d 9f8f 103e e873 053e d838 a53d
00000290: 13f7 4d3d 0edd 173e 1d3e d4bd 1a5f 73bb
000002a0: 770d e23d d0b8 873d 4025 1abe 9ec6 9e3c
000002b0: e122 f0bd 9c0e bb3d 1a4a 1c3e 9164 56bd
000002c0: 5cbb 7dbe 549d 1dbe 38e0 e5b7 db9e a73c
000002d0: b3bd 1b3e 8e51 3bbe 7b99 b03d 53a4 923d
000002e0: 8748 7bbe 4938 c9bd c74e df3c 98a3 6b3e
000002f0: f3ad dabd c7a4 063c 7b78 66be 6801 0d3e
00000300: a5ff e43d e7e0 523e fe61 3a3e 95b9 5e3d
00000310: 632c b0bd 3747 dc3c 2a5c debd 4522 4f3e
00000320: 7930 723c b1b8 153d 09d6 703c 89d1 96bd
00000330: 746c 503e 4ccf b1be 13b6 27bd ad9b 0d3e
00000340: 98cc 083e 08b6 3ebe df69 23bd 3e8f 45bd
00000350: 43cd d0bc 5030 37be 4e2e c2be ce6b d5bc
00000360: 5939 82bd f890 f53c 7e47 7cbd 664e 3d3e
00000370: 5522 29be 6bc2 263d 72a8 d2bd d017 9e3d
00000380: 1b32 f83c be77 963c cfd3 91bd 4b4c 6bbc
00000390: ece2 6ebd cbac db3c 272f b23d eea4 a73a
000003a0: fcc7 00be 2109 76bd 861a 4c3e 68e8 203d
000003b0: 4f76 353d c5f8 6f3e 1b17 fcbb 22c8 68be
000003c0: 1f11 67be 8d79 eabd 9b02 32be 7379 b2bd
000003d0: 7603 b53d ccf7 723d 40ef 2e3e 0d8e fcbd
000003e0: 7683 9dbd b7bf 8e3e c8e0 00be ea53 083e
000003f0: 2c84 07be 8035 dc3d 1046 1c3e ab5b 80be

network_body._body_endoder.seq_layers.0.bias f4 [256]
0.027345154 -0.0036929213 0.041531954 -0.017480107 -0.024453126 0.014590072 0.011819175 0.019213036
0.0007595647 0.006771557 -0.019479586 -0.0047651827 0.044278834 0.059067816 0.02542408 0.028063614
0.059588388 -0.011793545 -0.03864782 0.052198954 0.0020009868 0.026341623 -0.011186662 -0.019952614
0.0043023666 -0.017813504 0.030349664 -0.009232442 0.038170774 0.0325536 -0.005400276 -0.00011244209
0.112519614 -0.0013339468 0.018398127 -0.013344343 0.086800106 0.029202007 -0.0010577905 0.046246894
0.018810188 -0.014339971 -0.0077387732 -0.021385545 0.022703106 -0.016138062 -0.03208537 0.0655196
-0.008235291 -0.021463076 0.032722384 -0.0065597002 -0.03805117 0.03898923 -0.014745461 0.0018984944
-0.01662961 0.0055252975 -0.00097469514 0.04886502 -0.020913629 0.0057708914 0.0323095 0.021201927
-0.0037501282 -0.028441358 0.009572481 -0.04889309 0.009092534 0.04982065 -0.018880356 0.034095325
0.03336488 -0.014860763 -0.00805558 0.020723222 0.024150465 -0.01647496 0.06298429 0.0037026522
0.022466192 -0.019802071 0.06846841 0.042105425 0.022128819 0.03795259 0.047911447 0.014059547
0.013806392 -0.009056209 -0.035560448 0.01744564 0.017568244 -0.012776633 0.016912922 0.006934954
0.007876322 0.002670932 -0.01231595 0.0033252768 0.011115206 0.065915786 -0.0087426165 -0.01314379
-0.014805309 -0.016945476 0.039836716 0.02552568 -0.008278877 0.016301556 -0.0075072874 -0.00077895727
-0.007916809 -0.0007134281 0.009790195 -0.055035904 -0.019122263 -0.052631162 0.08689645 0.0028817481
0.04184424 -0.017651765 0.022610359 0.00093241496 -0.045857187 0.026426062 0.020339828 0.00546054
-0.022229595 0.015942793 0.013113725 -0.0076271924 0.014643565 0.02287712 0.032083545 0.020959854
0.013640266 0.051788177 -0.0054320227 0.013276179 -0.020345373 0.049088202 0.09369432 0.027667869
-0.026095342 0.0618236 0.010857531 -0.04575043 0.021856593 0.0127918795 0.02177826 0.011945393
0.045857176 -0.0026841862 0.008405328 0.002496269 0.059090216 -0.032382723 0.041907858 0.049902245
0.01065391 0.03251954 0.03902137 0.029394705 0.0021619413 0.054180548 -0.02127817 0.026978035
0.022385642 -0.07258158 0.019431673 0.008091231 0.016824802 0.007871628 -0.029318608 0.020732991
-0.0071259215 -0.018060653 -0.03519862 -0.0007918238 0.041185744 -0.0028256427 0.023212021 0.0071648695
0.012936586 -0.044583883 -0.04428288 -0.048829697 0.008929935 0.024514142 0.0231527 0.03012215
0.0133582605 -0.037983872 0.013622529 -0.022656614 -0.003377823 -0.020173755 0.022166574 -0.00533897
-0.03580223 0.042065304 0.010892598 0.09214708 0.0019781163 -0.021217367 -0.007546885 0.016102832
0.01574373 0.009945594 -0.0057281856 -0.001344942 0.0014179123 0.029511098 -0.0094496505 0.022341209
-0.023428006 -0.001856694 0.016262813 -0.022230009 0.04150263 0.021100022 -0.023502957 0.0008744085
-0.0126533145 -0.0010416448 0.021577874 0.0019802528 0.036273237 0.0242514 0.0033918244 0.020370567
0.009831624 -0.01789257 -0.051588144 -0.014541874 -0.016702812 -0.0130465375 0.041943204 -0.022808801
-0.019336434 0.04068285 0.08145885 0.024941104 -0.0065033506 0.012640342 0.030977944 0.048186056
0.061198376 0.004552326 -0.0040278034 -0.036134835 -0.017091973 0.038715053 -0.004939241 0.0020231209
00000000: f202 e03c f004 72bb 691d 2a3d 7132 8fbc
00000010: ec51 c8bc 330b 6f3c 37a5 413c a864 9d3c
00000020: 861d 473a f0e3 dd3b a793 9fbc 4025 9cbb
00000030: b95d 353d 18f1 713d 2946 d03c aae5 e53c
00000040: f412 743d b739 41bc 2d4d 1ebd 92ce 553d
00000050: fd22 033b 63ca d73c 4348 37bc aa73 a3bc
00000060: defa 8c3b a0ed 91bc dc9f f83c ab43 17bc
00000070: f558 1c3d ec56 053d ccf4 b0bb e3ce ebb8
00000080: af70 e63d d4d7 aeba abb7 963c 3ba2 5abc
00000090: 41c4 b13d 0c39 ef3c 8fa5 8aba 626d 3d3d
000000a0: d317 9a3c 33f2 6abc 8995 fdbb bd30 afbc
000000b0: ddfb b93c f833 84bc f36b 03bd 242f 863d
000000c0: 50ed 06bc 55d3 afbc e807 063d c1f2 d6bb
000000d0: 8bdb 1bbd 2cb3 1f3d f296 71bc e7d6 f83a
000000e0: d23a 88bc 8e0d b53b af82 7fba b026 483d
000000f0: 0f53 abbc bf19 bd3b f756 043d aaaf ad3c
00000100: b6c4 75bb dafd e8bc e5d5 1c3c 1f44 48bd
00000110: daf8 143c bd10 4c3d faaa 9abc 8aa7 0b3d
00000120: 9da9 083d 8f7a 73bc 8dfb 03bc bfc3 a93c
00000130: 32d7 c53c 7ff6 86bc e8fd 803d 32a8 723b
00000140: 050b b83c f437 a2bc 2a39 8c3d bd76 2c3d
00000150: 7f47 b53c 2d74 1b3d cb3e 443d 045a 663c
00000160: 3534 623c 7e60 14bc d5a7 11bd 29ea 8e3c
00000170: 47eb 8f3c 1555 51bc f88c 8a3c 9c3e e33b
00000180: b00b 013c ce0a 2f3b d7c8 49bc e3ec 593b
00000190: 8e1c 363c dbfe 863d 313d 0fbc 0d59 57bc
000001a0: f791 72bc 3dd1 8abc d32b 233d 3b1b d13c
000001b0: 20a4 07bc d78a 853c b1ff f5bb f032 4cba
000001c0: 81b5 01bc 5905 3bba 0e67 203c 546d 61bd
000001d0: 4ba6 9cbc c693 57bd c4f6 b13d b6db 3c3b
000001e0: de64 2b3d 6f9a 90bc 5c39 b93c 4f6d 743a
000001f0: bfd4 3bbd 787b d83c b69f a63c 54ee b23b
00000200: d71a b6bc 769a 823c f3da 563c 87ed f9bb
00000210: 90eb 6f3c cc68 bb3c 096a 033d 00b4 ab3c
00000220: 6c7b 5f3c d71f 543d 1cff b1bb 5584 593c
00000230: 57ab a6bc b610 493d cfe2 bf3d baa7 e23c
00000240: e6c5 d5bc be3a 7d3d c9e3 313c ce64 3bbd
00000250: 990c b33c 0895 513c 5268 b23c 9cb6 433c
00000260: bcd4 3b3d 2ce9 2fbb 80b6 093c 7298 233b
00000270: 9508 723d bfa3 04bd 93a7 2b3d 4c66 4c3d
00000280: bd8d 2e3c 3633 053d dfd4 1f3d 2acd f03c
00000290: 5baf 0d3b 6cec 5d3d 8f4f aebc 0a01 dd3c
000002a0: 1862 b73c a7a5 94bd 2c2f 9f3c 1591 043c
000002b0: 2bd4 893c 00f8 003c 942d f0bc 3cd8 a93c
000002c0: 9080 e9bb eff3 93bc 6e2c 10bd 6592 4fba
000002d0: 62b2 283d 6b2e 39bb 2327 be3c 48c7 ea3b
000002e0: f9f3 533c 979d 36bd f761 35bd a601 48bd
000002f0: dd4e 123c e2d1 c83c bbaa bd3c bac2 f63c
00000300: 9bdc 5a3c fa94 1bbd 0731 5f3c 5d9a b9bc
00000310: 775e 5dbb 6e43 a5bc ad96 b53c 87f2 aebb
00000320: 5ca5 12bd ab4c 2c3d de76 323c 9cb7 bc3d
00000330: 49a3 013b 0bd0 adbc dc4b f7bb 16ea 833c
00000340: fff8 803c d8f2 223c 81b3 bbbb c448 b0ba
00000350: 3ed9 b93a 42c1 f13c b5d2 1abc e904 b73c
00000360: 17ec bfbc 505c f3ba 9739 853c b51b b6bc
00000370: a9fe 293d f4d9 ac3c 4689 c0bc 9038 653a
00000380: d94f 4fbc cd87 88ba 15c4 b03c 21c7 013b
00000390: 3f93 143d dfaa c63c 5f49 5e3b 2de0 a63c
000003a0: d214 213c 7093 92bc 174e 53bd 0a41 6ebc
000003b0: 56d4 88bc 25c1 55bc a3cc 2b3d 86d9 babc
000003c0: 7167 9ebc 0fa3 263d e6d3 a63d 4951 cc3c
000003d0: 0f1a d5bb 7019 4f3c 75c5 fd3c be5e 453d
000003e0: 26ab 7a3d ae2b 953b aafb 83bb 1f02 14bd
000003f0: 7704 8cbc ad93 1e3d 5bd9 a1bb 5696 043b

network_body._body_endoder.seq_layers.2.weight f4 [256, 256]
-0.1452149 0.16874538 -0.17392014 -0.06493778 -0.06852587 -0.047357723 0.041793797 -0.0044711134
0.06489547 -0.13732792 0.037264194 -0.02668369 0.038970478 -0.0123018995 -0.051406708 -0.15891401
-0.034261454 0.0068443976 -0.026929652 -0.005914213 0.062314834 0.016625877 0.032435637 -0.09898693
-0.044211432 -0.07159179 0.069946505 -0.08836977 -0.009913818 -0.07743248 0.055285208 0.061167963
0.006777127 0.118893355 -0.08095868 -0.09719894 0.055699266 0.06174627 -0.08988108 -0.049793027
-0.010752942 -0.07373747 0.14755318 0.017322578 -0.10444122 0.15770617 0.07385641 -0.09497352
0.06314832 0.031016083 0.07202727 -0.017431675 -0.025581654 0.0053876867 -0.074857555 0.045677885
0.100057766 0.03286316 -0.054368183 0.032063577 -0.015168222 0.0068605077 0.053839654 -0.008167981
0.020977328 0.033566087 -0.021796742 -0.04251887 -0.062466625 0.033556085 0.008662257 0.07529412
0.009053906 0.0969668 0.14102389 0.034670185 0.009562438 0.059898615 -0.058916114 -0.0226964
0.056027353 0.088946804 -0.08099906 0.19172904 0.053728614 -0.10550692 -0.0679437 -0.17190275
0.13882302 -0.072366334 -0.043481193 -0.06158223 0.004336073 -0.024814349 -0.062223643 0.07823423
-0.06002626 0.010793395 0.0034731568 -0.024824483 -0.049132317 -0.0400496 0.029583883 -0.06167494
-0.065266445 0.020359345 -0.009668161 0.067448534 -0.015097099 -0.06725069 -0.008267843 -0.100277886
0.1430554 -0.06507249 -0.040716 0.05339066 -0.11306054 0.062053535 0.03858508 0.090835005
0.001583143 -0.07174946 0.0345195 0.11543221 0.03441746 0.006286617 0.12894759 0.09579748
-0.026719697 -0.11492121 0.03735839 -0.058151174 0.061876692 -0.04018673 0.028647874 -0.11194898
-0.15186308 -0.039409284 0.021410815 -0.0567906 -0.0013403046 -0.021019712 -0.023961361 -0.04318875
0.008592822 -0.013629618 -0.08110169 -0.031545594 0.084154345 -0.029786378 0.11874966 -0.024050962
0.09337028 -0.053530082 0.013862216 0.0125853205 0.064081706 -0.028787872 0.046069082 -0.022798108
-0.08700238 0.014173314 -0.020234454 0.005989284 0.081683576 0.089743115 -0.02521198 -0.04567901
-0.08817278 -0.048496157 0.08933738 0.033619214 0.007795816 0.01776331 -0.08670449 0.009674874
0.011903404 0.013688694 0.010136529 -0.008978096 -0.088574715 0.06825388 0.013940111 -0.1630097
-0.096468575 -0.038480733 -0.11495302 -0.08394876 0.0031058257 0.08498785 -0.13007183 -0.04027579
0.07844123 -0.050296634 -0.010681371 -0.013451592 0.04424628 -0.015758567 0.062952444 0.010619208
-0.08880745 0.08202795 -0.13414888 -0.051415533 0.0039925706 0.0026971009 -0.09047698 -0.067036055
-0.021547262 -0.08861127 0.018218724 0.007697403 -0.082652055 -0.017012222 -0.065641046 0.006088747
-0.059436027 0.026867932 0.037379064 0.059050195 -0.22035295 0.12089087 0.0071011116 0.0025728794
0.017842418 -0.005756865 0.10231378 0.09554654 -0.0831964 0.12902793 0.0026516044 0.06143523
-0.013141516 0.00680438 -0.018142316 0.01656086 -0.0062898225 -0.042923905 0.07869349 -0.096990064
-0.025419934 0.019633973 0.08895784 0.030020205 0.05343652 0.04026523 -0.0073179873 0.03242711
-0.062574 0.0789302 -0.054042265 -0.027165458 -0.017763263 0.0704316 -0.0034442642 0.035717968
00000000: 37b3 14be 97cb 2c3e 1f18 32be 19fe 84bd
00000010: 4b57 8cbd 2cfa 41bd f92f 2b3d 6b82 92bb
00000020: ebe7 843d b19f 0cbe 57a2 183d c197 dabc
00000030: 829f 1f3d e88d 49bc d78f 52bd 5bba 22be
00000040: bd55 0cbd f846 e03b 939b dcbc 04cc c1bb
00000050: d73d 7f3d fe32 883c 3bdb 043d a9b9 cabd
00000060: 0c17 35bd b79e 92bd 1d40 8f3d 36fb b4bd
00000070: 916d 22bc ec94 9ebd be72 623d 428b 7a3d
00000080: a912 de3b 5c7e f33d aacd a5bd 3d10 c7bd
00000090: ea24 643d a8e9 7c3d 9213 b8bd c6f3 4bbd
000000a0: 1c2d 30bc ac03 97bd 2e18 173e 14e8 8d3c
000000b0: 47e5 d5bd ba7d 213e 0842 973d 7a81 c2bd
000000c0: e853 813d 7115 fe3c 0983 933d dfcc 8ebc
000000d0: 9e90 d1bc 318b b03b eb4e 99bd bc18 3b3d
000000e0: 16eb cc3d 859b 063d 2cb1 5ebd 1955 033d
000000f0: 2284 78bc 1cce e03b f886 5c3d ffd2 05bc
00000100: a5d8 ab3c 987c 093d 158f b2bc 4428 2ebd
00000110: 01dd 7fbd 1b72 093d 24ec 0d3c ce33 9a3d
00000120: d656 143c 8896 c63d 9168 103e 5302 0e3d
00000130: c6ab 1c3c 4058 753d 0652 71bd cded b9bc
00000140: f07c 653d be29 b63d d6e2 a5bd 9e54 443e
00000150: 8912 5c3d 0314 d8bd 1126 8bbd 4607 30be
00000160: 9f27 0e3e cd34 94bd 5619 32bd a63d 7cbd
00000170: 9e15 8e3b 7647 cbbc 38de 7ebd 4539 a03d
00000180: 18de 75bd c8d6 303c e79d 633b b75c cbbc
00000190: f83e 49bd 0d0b 24bd e659 f23c dd9e 7cbd
000001a0: 6aaa 85bd a4c8 a63c 3567 1ebc 7522 8a3d
000001b0: d359 77bc bbba 89bd d975 07bc 7e5e cdbd
000001c0: 1d7d 123e ba44 85bd d2c5 26bd 2ab0 5a3d
000001d0: 498c e7bd d92b 7e3d 640b 1e3d b407 ba3d
000001e0: 7781 cf3a 62f1 92bd 5264 0d3d b967 ec3d
000001f0: 53f9 0c3d f7ff cd3b d60a 043e 7831 c43d
00000200: 44e3 dabc d05b ebbd 1c05 193d ed2f 6ebd
00000210: 6a72 7d3d d79a 24bd f2ae ea3c 8245 e5bd
00000220: ff81 1bbe a16b 21bd bc65 af3c 439d 68bd
00000230: 29ad afba 8831 acbc 9e4a c4bc b0e6 30bd
00000240: e8c8 0c3c c34e 5fbc a518 a6bd f435 01bd
00000250: 1d59 ac3d 9002 f4bc 0633 f33d 8606 c5bc
00000260: eb38 bf3d 5c42 5bbd 591e 633c a932 4e3c
00000270: 453d 833d 8bd4 ebbc efb2 3c3d 19c3 babc
00000280: 4e2e b2bd 3037 683c bac2 a5bc c141 c43b
00000290: b849 a73d 3dcb b73d 5b89 cebc ea19 3bbd
000002a0: ee93 b4bd e8a3 46bd 84f6 b63d 4db4 093d
000002b0: 0b74 ff3b 5c84 913c 2092 b1bd 5d83 1e3c
000002c0: 7f06 433c 8b46 603c af13 263c dd18 13bc
000002d0: a966 b5bd b1c8 8b3d 1065 643c 04ec 26be
000002e0: 5191 c5bd f99d 1dbd 7d6c ebbd 54ed abbd
000002f0: 1c8b 4b3b 1c0e ae3d 8d31 05be 3af8 24bd
00000300: cca5 a03d d803 4ebd eb00 2fbc 1164 5cbc
00000310: 963b 353d 1c18 81bc 36ed 803d 30fc 2d3c
00000320: aee0 b5bd 45fe a73d 535e 09be 1899 52bd
00000330: 1cd4 823b d8c1 303b ff4b b9bd 334a 89bd
00000340: e283 b0bc d379 b5bd 6f3f 953c 7f3a fc3b
00000350: 7b45 a9bd 375d 8bbc d06e 86bd 1d84 c73b
00000360: 3173 73bd 231a dc3c ca1a 193d 9ede 713d
00000370: 34a4 61be a295 f73d 71b0 e83b c19d 283b
00000380: 432a 923c 15a4 bcbb e389 d13d e8ad c33d
00000390: e062 aabd e61f 043e 8ac6 2d3b 82a3 7b3d
000003a0: 834f 57bc 47f7 de3b 329f 94bc a4aa 873c
000003b0: db1a cebb fad0 2fbd 0d2a a13d baa2 c6bd
000003c0: 773d d0bc 6dd7 a03c 872f b63d efec f53c
000003d0: 41e0 5a3d 27ed 243d bacb efbb 4ad2 043d
000003e0: cc26 80bd 28a6 a13d 6c5b 5dbd 188a debc
000003f0: 4384 91bc 713e 903d 2ab9 61bb 014d 123d

network_body._body_endoder.seq_layers.2.bias f4 [256]
0.026046071 0.013824951 -0.008260686 0.013515457 0.015053309 0.01201032 0.016788557 0.0011252951
0.028944742 -0.0014423961 0.013536991 -0.020523062 -0.014181842 -0.020821128 -0.023168005 -0.024837008
0.007884013 0.015120307 0.028067546 0.008368971 0.034790695 -0.00987715 0.034906596 -0.024578627
0.018145805 0.04296882 -0.006257236 0.004954337 0.013855028 0.007999637 0.010150314 0.020491987
0.00097333966 0.0010505731 -0.024531927 0.007761415 0.022625962 -0.019018488 -0.0015877296 -0.0074124336
0.019457694 0.017782332 0.0014024785 0.009335546 -0.019245885 0.0072378735 -0.03378681 -0.002009324
-0.001682831 -0.024186267 -0.012754993 0.006048887 -0.019449243 0.0052174586 0.010648279 0.018207869
-0.03544581 -0.025895063 0.02011217 0.0038358883 0.026143828 0.013110966 0.0036465721 -0.00011144443
0.08109368 0.004470545 0.018565327 -0.008447957 0.028681232 0.011141475 -0.0046729194 -0.027415548
0.023617223 -0.020190995 -0.011509675 8.999373e-08 0.006236109 -0.016258372 -0.010750097 0.00097403623
0.03212904 0.011023557 0.012187745 0.019890588 -0.003989661 0.024609854 0.010556366 0.014403862
0.03374947 -0.026052529 0.011083651 0.019173827 0.0035700435 -0.015990755 -0.014657144 -0.009615294
0.008457599 4.898957e-05 -0.0032530949 -0.015676258 0.023389814 0.012381982 -0.012762463 0.01627593
0.0067554796 -0.00027508277 0.043479156 0.029227657 -0.0010948298 0.004659356 -0.010272716 0.023395292
0.015604195 0.0003829909 -0.018943314 0.0071343784 -0.008833405 0.009262879 0.007239665 -0.027032472
0.014271789 0.006438596 0.02045605 -0.0149364425 0.009006195 0.018850842 -0.014960126 -0.007238969
0.0070761596 0.014900468 -0.01610563 0.026708873 0.025440037 -1.5040688e-05 0.020861456 0.0027140223
-0.0061807483 0.0009391682 -0.0014030943 -0.016192846 0.022390155 0.017773297 -0.012272807 -0.005888277
0.005530908 -0.014985632 -0.017202282 0.007602306 -0.009241776 -0.03840364 0.012113119 0.0018045693
0.030991169 -0.0007242431 -0.015828224 -0.01756505 -0.009908172 0.0019067007 0.0021127567 0.025371768
-0.0009848578 -0.005411881 0.0038542473 0.031787064 0.02587023 0.00019696773 -0.00018769012 -0.016885739
-0.031352527 0.016695896 -0.015723202 -0.004919607 0.01397092 0.0026492549 0.0011003991 0.002602444
0.027475292 0.026149746 0.013719455 -0.013141248 -0.01748165 0.011486182 0.004650942 -0.031039586
0.011133007 0.042990956 0.0065332344 0.0032617827 0.016193878 0.008666198 -0.018374883 -0.0065365317
-0.01745517 -0.0049865968 -0.0140689965 0.029629486 0.01635866 8.511077e-05 0.027823644 0.0027154656
-0.00020235349 0.0053165047 0.0031216245 0.0097813215 -0.0011871113 0.015139336 -0.02004533 -0.011063475
4.2812255e-05 -0.014862915 -0.012000392 0.032750875 -0.009733141 -0.0446294 0.022521487 0.00067889446
-0.012722038 0.020052526 0.0021872842 -0.023196394 -0.013327382 0.008906574 0.004400237 0.013156985
-0.0027908292 0.023315296 0.0071369326 -0.017153142 -0.030201087 0.041247748 0.006093379 0.013188677
-0.0069669834 -0.0025046053 0.03731472 -0.0022105179 0.007241541 -0.008312998 -0.02502623 0.016754577
-0.0064487117 -0.0041793566 2.7457016e-05 0.0061883763 0.029021148 0.0045674895 0.0002962233 0.024934558
0.020588206 0.010201254 -0.0016393247 0.00015016833 -0.009530609 -0.012932725 -0.017021738 0.010855827
00000000: 925e d53c 0c82 623c d457 07bc ef6f 5d3c
00000010: 27a2 763c efc6 443c 2888 893c a37e 933a
00000020: 861d ed3c c80e bdba 41ca 5d3c fb1f a8bc
00000030: f55a 68bc 1291 aabc d4ca bdbc fb76 cbbc
00000040: f22b 013c 2abb 773c e9ed e53c 021e 093c
00000050: b080 0e3d c5d3 21bc 38fa 0e3d 1e59 c9bc
00000060: 83a6 943c 1300 303d 8009 cdbb fe57 a23b
00000070: 3300 633c e910 033c 814d 263c d0de a73c
00000080: b827 7f3a 62b3 893a 2ef7 c8bc 7853 fe3b
00000090: 155a b93c a9cc 9bbc 5d1b d0ba 00e4 f2bb
000000a0: be65 9f3c 41ac 913c 5fd3 b73a 1ef4 183c
000000b0: 8ca9 9dbc af2b ed3b 0a64 0abd ddae 03bb
000000c0: 7092 dcba 4722 c6bc 51fa 50bc be35 c63b
000000d0: 0554 9fbc 37f7 aa3b 1f76 2e3c ab28 953c
000000e0: a02f 11bd e221 d4bc 47c2 a43c 8763 7b3b
000000f0: 952b d63c 61cf 563c 54fb 6e3b 46b7 e9b8
00000100: 7114 a63d a67d 923b 5016 983c 4d69 0abc
00000110: e7f4 ea3c bc8a 363c 4a1f 99bb 9296 e0bc
00000120: e878 c13c 9667 a5bc 1393 3cbc 9442 c133
00000130: 4658 cc3b 4730 85bc 2d21 30bc 7756 7f3a
00000140: be99 033d 269c 343c 1caf 473c 96f1 a23c
00000150: b4bb 82bb 9b9a c93c 9cf4 2c3c 2dfe 6b3c
00000160: e23c 0a3d 1d6c d5bc 3498 353c 6e12 9d3c
00000170: 64f7 693b 0bff 82bc 8524 70bc 7789 1dbc
00000180: be91 0a3c 267a 4d38 e031 55bb 7f6b 80bc
00000190: ff9b bf3c ccdd 4a3c a619 51bc 1955 853c
000001a0: 125d dd3b fc38 90b9 3317 323d d76e ef3c
000001b0: 6480 8fba 83ad 983b e54e 28bc 7ca7 bf3c
000001c0: bda8 7f3c 2bcc c839 022f 9bbc 81c7 e93b
000001d0: fcb9 10bc 55c3 173c b63a ed3b 3473 ddbc
000001e0: 39d4 693c dcfa d23b 7293 a73c fbb7 74bc
000001f0: b88e 133c 156d 9a3c 511b 75bc e034 edbb
00000200: 21df e73b 1821 743c f4ef 83bc 91cc da3c
00000210: a067 d03c 4357 7cb7 a5e5 aa3c bddd 313b
00000220: e087 cabb 8332 763a 08e8 b7ba dca6 84bc
00000230: 8f6b b73c 4e99 913c e213 49bc 73f2 c0bb
00000240: 9e3c b53b 4c86 75bc cdeb 8cbc c41c f93b
00000250: d16a 17bc 234d 1dbd 1a76 463c 4c87 ec3a
00000260: 31e1 fd3c 22db 3dba 31aa 81bc 94e4 8fbc
00000270: e355 22bc 42ea f93a 2d76 0a3b 74d8 cf3c
00000280: 5816 81ba 2656 b1bb 8a97 7c3b 2733 023d
00000290: ceed d33c 1f89 4e39 afce 44b9 f653 8abc
000002a0: 826b 00bd d5c5 883c f2cd 80bc a834 a1bb
000002b0: 49e6 643c 1f9f 2d3b 443b 903a c48d 2a3b
000002c0: dd13 e13c fe37 d63c 91c7 603c 644e 57bc
000002d0: ad35 8fbc 8a30 3c3c ee66 983b bb46 febc
000002e0: 3767 363c 4917 303d be14 d63b a2c3 553b
000002f0: 06a9 843c abfc 0d3c ec86 96bc 6730 d6bb
00000300: 25fe 8ebc 9b66 a3bb a681 66bc 89b9 f23c
00000310: 9902 863c 7f7d b238 69ee e33c f4f5 313b
00000320: da2e 54b9 1336 ae3b 2b94 4c3b d641 203c
00000330: d898 9bba fa0a 783c 1b36 a4bc 9443 35bc
00000340: 4f91 3338 9583 73bc 4b9d 44bc c825 063d
00000350: c177 1fbc 51cd 36bd fb7e b83c d6f7 313a
00000360: 1870 50bc 3245 a43c 8a58 0f3b 5d06 bebc
00000370: 175b 5abc e1ec 113c dd2f 903b 6590 573c
00000380: 58e6 36bb b8ff be3c eedc e93b bf84 8cbc
00000390: 4568 f7bc 66f3 283d f8aa c73b 5215 583c
000003a0: 4b4b e4bb 4e24 24bb 52d7 183d 56de 10bb
000003b0: 734a ed3b 3e33 08bc cf03 cdbc e540 893c
000003c0: b74f d3bb fcf2 88bb 7e53 e637 ddc7 ca3b
000003d0: c2bd ed3c e1aa 953b 6b4e 9b39 8f43 cc3c
000003e0: 99a8 a83c 2923 273c 9cde d6ba 8176 1d39
000003f0: 4526 1cbc c8e3 53bc 2c71 8bbc a3dc 313c

action_model._continuous_distribution.log_sigma f4 [1, 3]
-0.8142623 -0.9377071 -0.8969655
00000000: 7e73 50bf 930d 70bf 889f 65bf

action_model._continuous_distribution.mu.weight f4 [3, 256]
-0.010092636 -0.007784608 0.016839541 0.0021816874 0.005707579 0.04490011 -0.009039138 0.002555021
0.05808634 0.02150474 0.037115607 -0.05399092 -0.104391046 -0.021670267 -0.037402958 -0.035099544
0.074404635 0.039798144 0.048942983 0.04257683 0.026525492 -0.03703598 0.027060317 -0.045638673
-0.03131979 -0.023337904 0.036065936 -0.060414556 0.030260598 -0.05455165 -0.035943277 0.00979386
0.037815645 0.015564851 -0.14856665 -0.0013833836 0.047210988 -0.013232094 0.041846566 -0.043614488
-0.0100525385 0.02820741 0.054019384 0.051659852 -0.03811044 0.0035612113 -0.0034633852 0.007517963
0.0470565 -0.0068812496 0.0048864074 -0.025826981 -0.046855357 0.03962825 0.017421978 -0.035490695
0.004334469 -0.04447645 -0.02045719 -0.0133142825 -0.027974918 0.048064575 0.019589115 0.033023436
0.039982125 0.025551764 -0.070396066 0.010008945 -0.0154092405 -0.024455644 0.019733801 0.008097474
0.023769537 -0.012840451 -0.019324703 0.02786531 0.01201934 -0.029076152 -0.042418346 0.014720396
0.027421867 0.042357992 0.030115962 -0.014509957 0.0010292256 -0.022503072 0.010854625 0.036467794
0.0752461 0.03348887 0.018549187 -0.021051226 -0.023297459 0.0016002167 -0.09892037 -0.022338571
-0.005144901 -0.072017014 -0.10368861 0.040898327 -0.07995573 -0.028363043 -0.04245337 -0.080437064
-0.11413351 -0.046283986 0.021720266 -0.015010572 -0.062204994 -0.037295494 -0.012880434 0.025318429
0.043814838 -0.065068685 0.053879123 0.007983951 -0.042671636 -0.036404807 -0.006112703 0.015944868
0.034015037 -0.015522929 0.052387055 -0.033209622 0.014284819 0.027033374 0.02541707 -0.019947642
-0.014227414 -0.011194714 -0.043428697 0.024011271 -0.057023324 -0.023699567 0.010983736 -0.028418534
0.011585914 -0.0004987777 -0.026085308 -0.02185955 -0.005932271 0.032356523 -0.05138324 0.07542174
-0.031616412 -0.0029943904 0.03709131 -0.021676771 -0.052866455 -0.027837671 0.06710576 0.06435626
-0.06608209 0.022479314 -0.033700574 -0.026194206 -0.03274701 0.033493258 0.051988054 0.021595027
0.05507852 -0.045067236 0.024627555 0.029629756 0.025228117 -0.051480785 0.019229826 0.01582124
-0.011054427 -0.050662253 -0.0501129 0.00015562176 -0.028233182 -0.04569396 -0.015490083 0.023908012
0.0012130513 0.031713143 -0.016965266 -0.03759715 -0.030656314 0.040748764 -0.040858943 -0.019562196
0.00015505751 0.040544234 -0.011613126 -0.00014628547 0.032222375 0.064047925 0.044320364 -0.037544042
-0.009076472 -0.055323273 -0.05557294 0.012540051 -0.013108199 -0.0028161833 0.045213226 -0.046504542
0.032929428 0.04451138 -0.02519803 -0.021206412 0.033274014 0.013293033 -0.02480996 -0.041825164
-0.028543925 -0.041286413 -0.041149676 -0.046654616 -0.018817212 0.03172947 -0.0054160813 0.018697144
0.044464108 0.039183155 0.0035509109 -0.023469625 -0.051124096 -0.009187993 -0.01951827 -0.010544357
-0.014518509 0.036858056 -0.050568998 -0.052250776 -0.0044000354 0.004447017 -0.045771804 0.011426734
0.012708009 -0.038494505 0.015855905 0.031503607 0.04285988 -0.056796703 0.04027446 -0.039481573
-0.07488864 0.031023506 -0.0167746 -0.06227452 -0.0011306957 -0.016458778 0.074030496 -0.08701579
0.050170247 0.0045947814 0.059788074 0.005588963 0.03836289 -0.02883858 -0.020563211 0.037181817
00000000: 955b 25bc 0616 ffbb 14f3 893c a4fa 0e3b
00000010: a506 bb3b 2ee9 373d e518 14bc 2472 273b
00000020: f1eb 6d3d b52a b03c 8906 183d 9525 5dbd
00000030: f9ca d5bd d885 b1bc d833 19bd 8ac4 0fbd
00000040: 7561 983d 6103 233d 7078 483d 0b65 2e3d
00000050: fd4b d93c 0ab3 17bd 99ad dd3c 9eef 3abd
00000060: 2e49 00bd 222f bfbc e0b9 133d 4175 77bd
00000070: 13e5 f73c 8d71 5fbd 4239 13bd 6d76 203c
00000080: 94e4 1a3d b803 7f3c db21 18be a752 b5ba
00000090: 4f60 413d 6dcb 58bc 4e67 2b3d 1ba5 32bd
000000a0: 67b3 24bc 3a13 e73c 6e43 5d3d 4899 533d
000000b0: b119 1cbd 3663 693b f6f9 62bb 3f59 f63b
000000c0: 51be 403d 1b7c e1bb 281e a03b 1b93 d3bc
000000d0: 67eb 3fbd 3b51 223d 89b8 8e3c b15e 11bd
000000e0: 2908 8e3b f02c 36bd d695 a7bc 2624 5abc
000000f0: a82b e5bc 5cdf 443d 5a79 a03c 9543 073d
00000100: 4cc4 233d ef51 d13c d02b 90bd 8ffc 233c
00000110: 0a77 7cbc 3457 c8bc c8a8 a13c 45ab 043c
00000120: 55b8 c23c c160 52bc d74e 9ebc ca45 e43c
00000130: c4ec 443c 1c31 eebc dcbe 2dbd d12d 713c
00000140: d3a3 e03c 937f 2d3d c0b5 f63c 2cbb 6dbc
00000150: 15e7 863a 5d58 b8bc 99d7 313c 415f 153d
00000160: a11a 9a3d a02b 093d 77f4 973c 9f73 acbc
00000170: 50da bebc 5dbe d13a c396 cabd 61ff b6bc
00000180: 8f96 a8bb a87d 93bd b25a d4bd 0185 273d
00000190: d4bf a3bd 9d59 e8bc 96e3 2dbd 30bc a4bd
000001a0: d4be e9bd 4794 3dbd b3ee b13c e7ee 75bc
000001b0: aaca 7ebd 29c3 18bd 7508 53bc 9868 cf3c
000001c0: 3077 333d bb42 85bd 5bb0 5c3d 1ecf 023c
000001d0: 74c8 2ebd 351d 15bd 124d c8bb d09e 823c
000001e0: 5a53 0b3d e253 7ebc cf93 563d d006 08bd
000001f0: e00a 6a3c 1875 dd3c 7637 d03c 3d69 a3bc
00000200: 191a 69bc 096a 37bc 4ae2 31bd 49b3 c43c
00000210: 4a91 69bd 9825 c2bc 21f5 333c fccd e8bc
00000220: d8d2 3d3c 68c0 02ba dbb0 d5bc cd12 b3bc
00000230: 7f63 c2bb 4688 043d 3b77 52bd b776 9a3d
00000240: 3680 01bd 893d 44bb 0fed 173d 7c93 b1bc
00000250: 7f8a 58bd d40b e4bc bf6e 893d 37cd 833d
00000260: 0c56 87bd 8a26 b83c 9d09 0abd 3b95 d6bc
00000270: bb21 06bd 3a30 093d 6df1 543d 0ee8 b03c
00000280: 049a 613d 6c98 38bd babf c93c 1aba f23c
00000290: 32ab ce3c 84dd 52bd de87 9d3c 8c9b 813c
000002a0: a11d 35bc 3983 4fbd 2f43 4dbd 662e 2339
000002b0: 4649 e7bc 9729 3bbd 1eca 7dbc bcda c33c
000002c0: 3fff 9e3a a4e5 013d befa 8abc 78ff 19bd
000002d0: f322 fbbc 2de8 263d b55b 27bd e640 a0bc
000002e0: ef96 2239 b611 263d fb44 3ebc 3564 19b9
000002f0: 9cfb 033d 8f2b 833d 4589 353d c8c7 19bd
00000300: 7cb5 14bc a89a 62bd 73a0 63bd c974 4d3c
00000310: c6c3 56bc b78f 38bb 8131 393d 8c7b 3ebd
00000320: 02e1 063d 9151 363d 196c cebc 12b9 adbc
00000330: 554a 083d 05cb 593c 423e cbbc dd50 2bbd
00000340: f3d4 e9bc f11b 29bd 908c 28bd e918 3fbd
00000350: 8e26 9abc c3f6 013d 6279 b1bb c12a 993c
00000360: ff1f 363d 847e 203d 66b6 683b 5f43 c0bc
00000370: 8067 51bd 3c89 16bc c7e4 9fbc 3dc2 2cbc
00000380: 0adf 6dbc 79f8 163d 7021 4fbd e904 56bd
00000390: 2c2e 90bb 48b8 913b 377b 3bbd 3237 3b3c
000003a0: 4135 503c 6aac 1dbd 3ee4 813c ed09 013d
000003b0: d78d 2f3d a9a3 68bd d5f6 243d 6eb7 21bd
000003c0: 375f 99bd 0225 fe3c e36a 89bc 9113 7fbd
000003d0: da33 94ba 8fd4 86bc 4d9d 973d 5635 b2bd
000003e0: 517f 4d3d d28f 963b 57e4 743d 9f23 b73b
000003f0: 6822 1d3d e33e ecbc 2e74 a8bc f64b 183d

action_model._continuous_distribution.mu.bias f4 [3]
0.024936542 0.005681046 -0.033304825
00000000: b847 cc3c 1128 ba3b a46a 08bd
